result/train_3/model.pt (torch, 78535 bytes, 10 tensors)

fc1.weight f4 [400, 3]
000000 bc 09 01 3e f9 f7 01 be e2 08 41 be b2 a3 9a be
       0.1260137 -0.1269225 -0.18851045 -0.30203015
000010 be 7f ae 3e a6 aa 5e 3e 51 50 bd be fa b4 a3 3e
       0.34081835 0.21744785 -0.3697534 0.31974012
000020 64 10 3d be 46 93 f3 3e 31 40 d4 3e 58 d9 a0 3e
       -0.18463284 0.47573298 0.41455224 0.3141582
000030 7d b3 15 3e 99 af 03 3e 6a 6e b5 be 3a 26 2e 3d
       0.1461925 0.12859954 -0.35435802 0.042516924
000040 75 6f 55 be bc 06 db 3e e6 42 74 bd fd c7 c7 3e
       -0.20843299 0.42778575 -0.05963411 0.39019766
000050 c1 62 ce 3d 9f a1 be be 26 fe 9a be d2 9d 05 3e
       0.100774296 -0.37232682 -0.30272025 0.13048485
000060 9f cb df 3e ab e0 20 3e e5 3e d9 3e 11 fb 92 be
       0.43710038 0.15710704 0.42430797 -0.28707173
000070 81 b5 be be 76 6c c4 3e f0 bc ef 3d 47 ec 3b 3e
       -0.37247851 0.38364 0.11705959 0.18351851
000080 7c 0a 0c bf 8b c1 60 3e 28 b3 22 3e 90 52 b3 be
       -0.547035 0.21948831 0.15888655 -0.35023928
000090 63 e1 f1 3e 18 24 4a 3e 92 bc f2 bd 4b 84 31 be
       0.4724227 0.19740331 -0.11852373 -0.17335622
0000a0 06 22 ce 3e 44 d0 c3 3e c0 92 10 bf 59 b8 4b 3e
       0.40260333 0.38244832 -0.5647392 0.19894542
0000b0 81 dd fc be 35 50 e1 3e 66 dd f6 3e a2 ad 2e 3e
       -0.49387744 0.44006506 0.4821579 0.17058423
0000c0 ac a9 e4 3e 0f aa a7 be e1 5d 82 be bb 8b 23 be
       0.446607 -0.32746932 -0.2546225 -0.15971272
0000d0 85 79 ac be 8f eb 13 3e 71 3c d3 3e d1 8f 0b 3f
       -0.33686462 0.14445327 0.4125705 0.5451632
0000e0 25 dc 88 3d c1 0d c7 be 59 04 87 be 70 b7 02 3f
       0.06682614 -0.3887768 -0.26370504 0.51061153
0000f0 4b 46 a2 be 27 5a 01 3e fe 0c fb 3e 0a 07 bc 3e
       -0.31694254 0.12632047 0.4903335 0.3672412
000100 af ee 8f 3e 0b 16 21 3d f3 1f 14 bf 29 28 c6 be
       0.2811179 0.039327662 -0.5786125 -0.38702515
000110 51 fe 0e 3f 9e e0 b6 be dd 33 1c be 53 d8 4e 3e
       0.55856806 -0.35718244 -0.1525416 0.20199709
000120 5b 57 b8 be bb 14 c4 3e 33 8d 90 be f8 a2 d1 be
       -0.36004147 0.38297066 -0.28232726 -0.40944648
000130 ae bf d3 3d dc f7 9b be c6 ef 6f be 14 f7 6a be
       0.103392944 -0.3046254 -0.2343131 -0.22945815
000140 a8 4c b6 be e9 7b 04 bd ea 69 ad 3d bf 6b d9 3d
       -0.3560536 -0.032344732 0.08467467 0.10616254
000150 ac 9d 4e be a0 7d 0d 3d b0 5f 4c bd 76 e3 df 3d
       -0.20177335 0.034543633 -0.049895942 0.109320566
000160 d0 b1 eb be e1 b8 05 bf e4 83 69 3e af ad 78 3e
       -0.46034098 -0.5223523 0.22804219 0.24285005
000170 d5 05 dc 3d 83 7e 8b 3e 48 ff 0c bf 10 d3 09 3f
       0.107433 0.27244958 -0.5507703 0.5383768
000180 ef 9e 16 3d a8 5f 8b 3e 00 b9 7b be 94 ba 00 3f
       0.036772665 0.27221417 -0.2458229 0.50284696
000190 b2 b4 a3 be 9e 24 3c 3e 14 70 7d be d1 7b cc be
       -0.31973797 0.18373343 -0.24749786 -0.39938214
0001a0 64 f6 dc be 97 c9 44 3c 36 87 7d 3e 9d 18 61 3e
       -0.4315673 0.012010953 0.2475861 0.21982045
0001b0 4a 81 78 be 80 1d b4 bb 59 d6 0e bf 88 46 1d be
       -0.2426807 -0.0054966807 -0.5579582 -0.15358937
0001c0 f8 6c e8 bd d5 f5 93 3e 0e cc f2 3c 1e e2 19 be
       -0.11348909 0.28898492 0.029638316 -0.15027663
0001d0 10 b3 d1 3e 9a 9f cd be 70 2e 6f 3d ab 92 92 be
       0.40956926 -0.4016083 0.058393896 -0.28627524
0001e0 65 f0 11 bf 16 b0 18 3e 98 0e 36 be 86 89 d6 3e
       -0.5700744 0.14910921 -0.17779005 0.41901797
0001f0 f7 87 45 3d 78 8c b3 be 85 57 b6 3e 06 f7 0b bf
       0.04822537 -0.35068107 0.35613647 -0.546738
000200 51 29 a3 be 8c 7a bd bc 80 b0 07 bf 31 e7 b7 bc
       -0.3186746 -0.023129724 -0.5300369 -0.022449108
000210 5c af 8f be 2a 41 12 3f 5a ed 58 3d 7f fb 56 3e
       -0.28063476 0.5713068 0.05296073 0.20994376
000220 fd 83 c6 3e 0d 5e 8f 3e fa ac fa 3e e0 41 a7 3e
       0.38772574 0.28001443 0.48960096 0.32667446
000230 00 99 75 be 29 39 ff be ea ba 08 3f af 75 11 bd
       -0.23984146 -0.49848297 0.5341021 -0.035512622
000240 5b f2 f0 3e e0 39 c5 3e 98 73 19 3e 6e d8 dd be
       0.47059903 0.38520718 0.14985502 -0.43329185
000250 28 0f 05 3f a8 e0 0a 3f 54 0a ad bb aa e5 23 3d
       0.5197625 0.5424905 -0.005280772 0.040013947
000260 b3 84 f2 3d ff 0d 6b 3e 63 ec fd be 38 b2 f7 3e
       0.118417166 0.22954558 -0.4959441 0.48378158
000270 3f 53 10 3e 7b f4 03 bf c1 b8 a8 be 13 5c 94 bd
       0.14094256 -0.5154492 -0.32953456 -0.07244124
000280 cd 69 cf 3c 0b 21 29 3d 9d 1b a3 3d 0e 68 9d be
       0.025319004 0.041291278 0.07964251 -0.3074345
000290 fd 3f ee 3d 78 27 8b be 5e 51 19 bc 82 7a 40 be
       0.116332985 -0.2717855 -0.009357778 -0.18796733
0002a0 53 ef f0 3d 60 3d e6 bd 50 a0 04 3f 5c cf db be
       0.117643975 -0.11242175 0.5180712 -0.4293164
0002b0 6b b0 9f be 68 e9 f6 3d 98 f9 94 3d e3 c9 d0 be
       -0.31189284 0.120562375 0.07274169 -0.40779027
0002c0 8e ba 3c be 30 fa b8 be b8 02 9c bd 20 60 97 bc
       -0.1843054 -0.36128378 -0.07617706 -0.018478453
0002d0 85 50 fb 3e f2 16 ed 3e d9 9e 08 3f 2a d4 2f bc
       0.4908487 0.46306568 0.5336738 -0.010731736
0002e0 58 be a0 3e cc 0f 8a be 24 61 ce bd d9 a1 f1 be
       0.3139522 -0.26965177 -0.10077122 -0.47193792
0002f0 a0 b4 a9 bd 99 d0 bb 3e 1e 10 f7 3e e5 1c 6b 3e
       -0.082864046 0.36682585 0.48254484 0.22960241
000300 12 86 ed bc c5 89 52 bc 1f bb 84 3e 70 ef dd 3e
       -0.028994594 -0.01285023 0.25924012 0.4334674
000310 1b c6 dd 3e d8 48 03 3f cf 25 0e be 12 5f 2b be
       0.43315205 0.51283026 -0.1388161 -0.16735485
000320 48 cd 03 3f 7a bc ba 3e 07 cb 0f bf 89 ef 22 bc
       0.5148511 0.3647192 -0.5616917 -0.009944805
000330 61 bb 13 bf 36 5b eb be 00 50 be be dd be 34 3e
       -0.5770779 -0.45968026 -0.3717041 0.17650934
000340 f2 86 c9 be 22 8d 35 3e 46 f8 af bd e8 6b 95 3e
       -0.39360768 0.17729619 -0.08592276 0.29183888
000350 33 16 f1 be 64 52 7e bc 0b 54 13 3f 90 a2 05 3f
       -0.4708725 -0.015522573 0.57550114 0.52201176
000360 ca d3 6e be 9c 9e 61 be a6 8f f7 be dd 11 00 bf
       -0.23322979 -0.22033161 -0.48351783 -0.5002726
000370 23 16 90 3d db b4 11 3f 70 b0 22 bf 5b 0d 02 3f
       0.07035472 0.5691659 -0.6355047 0.5080163
000380 ed d3 32 3e 7a 39 21 3d 6b 92 11 bf f0 05 7b 3e
       0.17463656 0.039361455 -0.5686404 0.24513984
000390 e9 a8 c9 be d8 5c c1 3e 03 4b b0 3e 44 34 85 3e
       -0.3938668 0.37766147 0.3443223 0.26016438
0003a0 94 ac a2 3e c7 1a 05 3f f3 94 54 bd b4 4f 31 3e
       0.31772292 0.51993984 -0.05189986 0.1731556
0003b0 90 47 bb be f5 3e 15 bf 54 77 9d 3d 1c ff 2d be
       -0.36578035 -0.5829919 0.07688776 -0.16991848
0003c0 56 cc e1 3e 32 1c 00 3f 23 d0 fd 3e 61 93 cb 3c
       0.44101208 0.5004302 0.49572858 0.02485055
0003d0 72 71 6a 3e 50 e9 71 3d 88 3b 0f 3f ec 47 ea 3d
       0.22894838 0.059060395 0.5595021 0.11439499
0003e0 2a cb 0a 3f 78 38 66 3e 2b bb bd bc b9 f6 53 be
       0.54216254 0.22482479 -0.023160538 -0.20699586
0003f0 2e e3 62 be 3e a6 42 3c d9 79 08 be 70 df bc be
       -0.22156975 0.011880456 -0.13327731 -0.3688922

fc1.bias f4 [400]
000000 7e 4f 0a 3f 55 98 ef 3e 73 89 c3 be 43 fa dd 3e
       0.54027545 0.46795908 -0.38190803 0.43354997
000010 36 b0 b2 3e 46 1e 42 be 31 c5 27 be b7 be ca 3e
       0.34900063 -0.18956861 -0.16383816 0.3959863
000020 04 e5 a5 3e db 75 fe be 60 10 3f bd 9b 03 08 3f
       0.32401288 -0.49699292 -0.046646476 0.531305
000030 33 40 c2 be e5 07 bb bb 08 ed 6e 3d d6 14 dd be
       -0.37939605 -0.005707728 0.05833152 -0.4317996
000040 48 73 f4 be f1 08 af 3e 72 7d 02 3f 01 e1 8d be
       -0.47744203 0.3418651 0.50972664 -0.27710727
000050 61 54 0c bf b4 cc 68 be 3c 62 25 be 5c 8b 88 3e
       -0.5481625 -0.22734338 -0.16150755 0.26668823
000060 d0 44 98 3e 98 ae 31 bd fb f8 ed be f4 5a 57 3e
       0.2974 -0.043379396 -0.4647902 0.2103079
000070 1c dd 52 be 1e 92 35 3e b6 e3 c6 3d b5 0d 1a 3e
       -0.20592159 0.1773152 0.09711401 0.15044291
000080 3a 0b ae 3e 47 01 ce 3c 3c 6a b7 3e 77 7b 74 3e
       0.3399294 0.025147093 0.35823238 0.23875223
000090 84 26 dc be 36 3c ee be 13 11 ca bc b6 8a 0b bf
       -0.42998135 -0.46530312 -0.024666345 -0.5450853
0000a0 60 b2 84 be 5c d9 a9 be 1b 53 0f be f6 21 13 3f
       -0.2591734 -0.33173645 -0.13996546 0.57473695
0000b0 fc cc 6f bd 5f a3 99 be ad ab 11 bf d7 0f 7b be
       -0.058545098 -0.30007455 -0.5690258 -0.24517761
0000c0 d2 5f a9 bd d7 e7 c6 3b af 21 65 be 09 c7 ca bd
       -0.082702294 0.006070118 -0.2237613 -0.09901244
0000d0 a8 97 fe 3e e5 c9 2f 3c 28 44 e5 3d 41 df de 3e
       0.4972508 0.010729288 0.111946404 0.43529704
0000e0 ba 75 a7 3e 69 27 84 3e 3a ab 9a 3e 00 b6 a9 bb
       0.32707006 0.25811318 0.3020876 -0.005179167
0000f0 f7 da e4 bd fe 3f f3 be 1a 9f df be 3c bb e4 be
       -0.11174577 -0.4750976 -0.43676072 -0.44674098
000100 39 55 cb be 9c c3 50 3e 23 9d cd be 67 45 37 be
       -0.39713457 0.20387119 -0.40158948 -0.17897569
000110 0a 99 bb 3e ac 8d 9a 3d 68 49 53 be c1 e3 08 bf
       0.36640197 0.07546553 -0.20633471 -0.53472525
000120 c6 a4 9c 3e e6 15 24 be 9f 10 ba be 52 3c 47 3e
       0.30594462 -0.16023979 -0.36340806 0.19456604
000130 c2 32 8a be 7f d5 f2 3e e0 bc 0c 3f 00 d9 b5 3e
       -0.2699185 0.4742851 0.549757 0.3551712
000140 fa 16 5b bd 82 4f 0c be e0 b2 df 3e 95 1f 96 3d
       -0.05348871 -0.13702205 0.43691158 0.073302425
000150 92 42 da 3e 31 82 0a 3f 8f 4f 52 3d ca 25 13 3f
       0.42628914 0.54104906 0.051345404 0.57479537
000160 aa 6b d9 be 13 1b 19 3f c2 17 86 be fb c9 20 3e
       -0.42464954 0.59806937 -0.2619 0.1570205
000170 13 a4 c9 3e 50 b3 03 bf df f9 99 be 26 cd 81 be
       0.3938299 -0.51445484 -0.3007345 -0.25351828
000180 c3 d5 f9 3e fd 53 dd 3d 21 42 6e be 21 8b b9 bc
       0.487959 0.10807035 -0.23267414 -0.02264935
000190 2f 42 f2 be 6f 49 13 3d f2 ca 11 39 fe 9b ea 3c
       -0.4731612 0.035958704 0.0001390388 0.028638836
0001a0 62 d3 80 be fe 58 dd 3e 4d 0e a4 3c 31 4c d0 3c
       -0.25161272 0.43231958 0.02002635 0.025426956
0001b0 f6 36 ef 3e fc e9 4a 3e d7 49 ae 3e 96 4f 4d 3e
       0.4672162 0.1981582 0.3404071 0.20049891
0001c0 aa 2c f7 be 15 c6 b0 be f0 f6 be be 0b d6 00 bf
       -0.48276263 -0.34526125 -0.37297773 -0.50326604
0001d0 0d 45 08 3f d5 47 9d bd 13 e5 e4 be 1f 01 19 be
       0.53230363 -0.076797165 -0.4470602 -0.14941834
0001e0 db a4 82 3d 89 40 0c 3f 25 09 09 bf 4a 7b 00 3e
       0.063791 0.5478597 -0.5352958 0.12547031
0001f0 f5 05 07 bf 4b 45 3b 3e 2e 36 fc 3e 9a d5 fc be
       -0.52743465 0.18288152 0.49260086 -0.49381715
000200 32 f0 8e bd 3c 6c c8 be 5f cf 94 be 6a 88 90 be
       -0.06979407 -0.39145076 -0.29064462 -0.28229076
000210 be fb 16 be 5f 98 e6 3e 9e d1 e6 3d af f3 ed be
       -0.1474447 0.45038125 0.1127045 -0.46474978
000220 88 bb 05 3e d5 7c cc 3e 2c ae 13 3f dc e9 6d be
       0.13059819 0.3993899 0.5768764 -0.23233742
000230 fc fa c4 be d8 87 4b be 6a 73 8c be dc 4f db 3e
       -0.38472736 -0.19876039 -0.27431804 0.42834365
000240 44 a3 b7 be f3 3b fa 3e 90 cf 04 3d ca 93 ef 3e
       -0.3586675 0.48873863 0.03242451 0.46792442
000250 fa 58 12 bf 00 52 0d be a1 56 09 3f b0 e6 92 3e
       -0.5716702 -0.13800812 0.5364781 0.28691626
000260 24 3b e6 3e 6d ef 96 3b b8 86 95 3e 30 6f d5 be
       0.44966996 0.0046061785 0.29204345 -0.41686392
000270 83 bc 7d 3e c2 c2 71 3e 95 fe de be 6a 12 c1 bd
       0.24778943 0.2360945 -0.43553606 -0.0942734
000280 db 87 58 3e 62 2c ba 3e 6e ea b3 3e b5 a1 9c be
       0.21145575 0.36361986 0.35139793 -0.30592123
000290 55 24 a6 3e c8 dc 2d be 09 f1 e0 3e d5 c4 04 bf
       0.32449594 -0.16978753 0.43933895 -0.5186284
0002a0 60 e1 03 bf ea 3a 4c be 5e 3c 3b be 1a 14 08 bf
       -0.5151577 -0.19944349 -0.18284747 -0.5315567
0002b0 06 ca e5 be ca 98 c2 3e b8 2d ee be bd d9 92 be
       -0.44880694 0.38007194 -0.46519256 -0.28681746
0002c0 93 ca 36 3e 32 ca 5f 3e fe 6e fa be 49 29 82 3e
       0.17850713 0.21854475 -0.48912805 0.25422123
0002d0 dc 92 d0 3e 10 fc 93 bd ea 97 1d 3c 1b 55 f4 3c
       0.40737045 -0.072258115 0.009618739 0.029825738
0002e0 0c 48 96 3e 85 3c 6a 3e 9e 9f c9 be 8d cd 79 be
       0.29351842 0.22874649 -0.3937959 -0.24394818
0002f0 bb 6d 01 3e ac fc b2 bd cf 05 1b bf 21 a5 bb be
       0.12639515 -0.087395996 -0.6055574 -0.3664942
000300 ee 02 f2 bd 5f f6 be 3e c8 22 ac be bc c3 38 3e
       -0.11816965 0.3729734 -0.33620286 0.18043417
000310 c1 95 9f be 9a ef 3a be c4 be 7d 3e 00 c0 ef 3c
       -0.3116894 -0.18255463 0.24779803 0.029266357
000320 fc 4b 0a bf ec f9 c2 bd fa 13 d7 3e cf bc c7 be
       -0.5402219 -0.09520325 0.42007428 -0.39011237
000330 9a f0 f4 3e 73 b2 ec 3e 4a b7 f1 3c a0 bf ca be
       0.47839814 0.46229896 0.029506344 -0.39599323
000340 73 85 fa 3e a7 68 11 be a2 94 70 be db 2e c5 3e
       0.4892994 -0.14200078 -0.23494199 0.3851231
000350 6d 8d f2 bc 58 fb 9a 3e c0 6f e9 be 82 5a df be
       -0.029608453 0.30269885 -0.4559307 -0.4362374
000360 bf 3f fe bd 5c a6 81 be e9 a7 ff 3e 4c 35 08 bf
       -0.12414502 -0.25322235 0.49932793 -0.53206325
000370 0b c4 f6 be 54 dc fb 3e f7 a6 8a be ca 94 06 bf
       -0.48196444 0.49191535 -0.2708051 -0.52570784
000380 9a 09 7a be 7e 00 4e 3d 4f b6 e9 bd 18 6f fb be
       -0.24417725 0.050293438 -0.11411726 -0.49108195
000390 cd ae ec be 37 db c4 be f4 96 16 3e dd 91 74 be
       -0.46227112 -0.38448498 0.14706022 -0.23883767
0003a0 48 e5 77 3e 44 b7 d0 be 6b bf bd be ea e9 3e 3e
       0.24208558 -0.4076482 -0.37060103 0.18643919
0003b0 7a 0e 48 3e 5c f0 9b 3e 8e 70 45 be ba f5 ce be
       0.19536772 0.30456817 -0.19281217 -0.4042185
0003c0 47 4d f3 3e 71 78 76 3e cd d6 af bc 16 dd 3a 3e
       0.47519895 0.24069382 -0.02146473 0.182484
0003d0 8c d5 9f 3d 96 d4 86 3d ee af e6 3e 27 ee 66 be
       0.07804403 0.06583516 0.450561 -0.22551785
0003e0 a1 9e 0f 3f 0a d5 d0 be 4f 47 56 3e f4 b9 ff 3e
       0.56101424 -0.40787536 0.2092564 0.49946558
0003f0 32 82 cb 3e 0e 65 14 bf c4 8a d1 3e 84 af c8 3e
       0.3974777 -0.579667 0.40926182 0.39196408

fc2.weight f4 [20, 400]
000000 cb 99 89 3b 24 e2 be 3c 64 d4 0b bd 4e 03 15 bc
       0.0041992418 0.023301192 -0.0341381 -0.009095026
000010 df a4 0e bd 49 7f 42 3d 66 6f d5 bc 97 24 a0 3d
       -0.034825202 0.04748467 -0.026054095 0.07819479
000020 a2 9b 3b bd 72 a7 c8 3c 66 ba a9 bc ff 1d 62 3d
       -0.04580272 0.024493907 -0.020718765 0.055204388
000030 ef 72 23 3d 85 c4 28 bd 22 4d a1 bd 12 cd 40 bd
       0.03990453 -0.04120304 -0.0787604 -0.04707057
000040 aa 3d 96 bd 39 04 06 3d 26 b9 22 bd bb 8b 2a bc
       -0.0733598 0.03271887 -0.039727353 -0.010409291
000050 f2 65 b9 3d 3f 5d c2 3b a9 8e 1b 3c c1 7d a2 3d
       0.09052648 0.005931526 0.009494462 0.07934142
000060 b5 58 e2 bb d6 7e ac bd 32 cc 83 3c 04 6d ff bc
       -0.0069075474 -0.084226295 0.016088579 -0.031179912
000070 53 71 f3 bc 7a ee 25 bd cd c0 a5 3c 80 1b 91 bc
       -0.029717123 -0.040510632 0.020233536 -0.017713308
000080 79 44 fb 3b 65 9c 04 bd 42 b9 c3 3c a2 d7 c9 bb
       0.0076680747 -0.032375712 0.023892049 -0.0061597386
000090 b5 5f 27 bd 04 e6 80 3d 8f 7f d9 39 00 d4 e0 3a
       -0.040862758 0.06293872 0.00041484504 0.0017153025
0000a0 7d d4 c1 bc 6c a5 95 3c 29 0f 32 bd dd 2a 78 bd
       -0.023660893 0.018267356 -0.04347149 -0.060587753
0000b0 e2 4c c3 3c 47 7e af bc 13 e9 1d 3d 89 7a bf bd
       0.023840372 -0.021422518 0.038552355 -0.093495436
0000c0 33 44 f3 3c 96 23 4a 3d 74 35 e0 3c 02 70 03 3d
       0.029695606 0.049350344 0.027369238 0.03208924
0000d0 92 92 d3 bd fc 8f ee 3c 76 4c 1d bd 6c 52 fb ba
       -0.103306904 0.029121391 -0.038402997 -0.0019174344
0000e0 9e 9d 21 bc 55 bb cd 3d 46 56 a8 bd a6 a2 e4 3c
       -0.009864239 0.100454964 -0.0821958 0.027909588
0000f0 c2 62 d3 3c 0c e8 82 bc 50 77 af bb b0 32 10 bd
       0.025803927 -0.01597979 -0.0053547993 -0.03520459
000100 f9 4d 88 3d 4b 19 2a bb ca 83 b9 bb 29 81 d6 bd
       0.06655497 -0.0025955017 -0.0056614624 -0.10473854
000110 84 c3 0a bd 8c de 51 3c af 80 7d bd 00 45 30 bd
       -0.033877864 0.012809407 -0.0618903 -0.043034554
000120 6d 8d e1 bc 0b 9a 09 3d 3c 3d a8 bd dc 17 2a bd
       -0.027533257 0.033594172 -0.082148045 -0.04152666
000130 1a 14 29 3c 93 f8 5b 3c 08 6a 72 3b 34 ac a5 bd
       0.010319734 0.013425964 0.003698947 -0.08089486
000140 77 c7 68 bc 69 e1 a0 bb 03 1f 24 3d 41 8a 13 bc
       -0.014207712 -0.0049096835 0.040068638 -0.00900513
000150 34 b6 fd 3b ac a2 b3 3c b5 e5 01 bd 52 6a 81 3c
       0.0077426676 0.021928154 -0.031713206 0.015797768
000160 a6 fb 8e bc d1 ef 98 3c b0 9f 41 3b 67 99 91 3d
       -0.01745398 0.01866904 0.0029544644 0.07109337
000170 b7 8d f7 3b 3e a3 23 3d f5 0e 96 bc 9d 4d 38 bd
       0.0075547355 0.0399506 -0.018317679 -0.044995893
000180 e7 f9 57 3d bb a1 cb bc fa 38 42 bd 82 a7 d2 3c
       0.05272856 -0.024857393 -0.04741762 0.02571464
000190 6d 3a c3 bc c1 63 38 3d 73 ca bb 3c 03 fb 18 3d
       -0.02383157 0.045017008 0.022923684 0.03734876
0001a0 21 82 37 3d 7b bf e4 3b 2b 9b 7f bc d2 1b ca 3b
       0.044801835 0.006980834 -0.01560096 0.006167867
0001b0 1b cd 9d 3d c2 a3 2f bc 15 91 da 3c 19 c0 40 bc
       0.077051364 -0.010720195 0.026680509 -0.01176455
0001c0 da 13 c4 bb 6f 26 4b bd fe ce 9b bd 74 af 52 bc
       -0.005983812 -0.0495972 -0.0760784 -0.012859214
0001d0 dc 15 67 bd 15 64 7c bc eb 20 b0 bd e9 6b 96 3c
       -0.05641733 -0.015404721 -0.086000286 0.018362002
0001e0 dc 2d 00 bc 7d b2 2f bc ad 9f 83 3c 3f 42 27 3c
       -0.007823434 -0.010723707 0.01606735 0.010208665
0001f0 f0 22 13 bc 8b 23 c3 bd 1f e1 20 3d d8 2f ae 3b
       -0.008980498 -0.09528264 0.039277192 0.005315762
000200 4b 94 83 bd 2e d1 bc 3c 2b 25 37 3d 6c 6a 88 bc
       -0.06424769 0.023048963 0.04471318 -0.016652308
000210 ec 55 78 3c 9c 74 8e bd c7 1e b0 bc 21 8e 73 bd
       0.015157204 -0.06955835 -0.02149905 -0.059461717
000220 60 56 b7 ba 75 57 b7 3a 5c fa 02 be d9 09 a1 bc
       -0.0013987534 0.0013987856 -0.12790817 -0.019658016
000230 41 26 63 3b 28 91 c6 bc c8 0b 45 3b 37 27 b5 bc
       0.0034660252 -0.024239138 0.0030066837 -0.022113426
000240 70 2e 21 bd 9c 30 c4 3d 99 3a 11 3d e7 8d ed 3a
       -0.039350927 0.09579584 0.035456274 0.0018123955
000250 67 cf e3 bc 67 1b 04 3e 10 04 3d 3c 64 19 0f bc
       -0.027808858 0.12901078 0.011536613 -0.008734081
000260 6e c9 90 3c 07 d4 59 3d d3 1e 29 bb f3 a4 e4 bc
       0.017674174 0.05318072 -0.0025805726 -0.027910685
000270 4b 54 8f bc e8 af bd bb 3e 70 e4 bd 19 da 46 bd
       -0.017496249 -0.005788792 -0.11154221 -0.048547838
000280 3d 36 18 bd 5b c7 e2 3c c8 49 4b bc b5 f8 8e 3d
       -0.0371611 0.02768295 -0.012407728 0.06981031
000290 6a d6 aa 3c 48 78 4e bd d8 4b 42 3d 75 36 83 bd
       0.020854194 -0.050407678 0.04743561 -0.06406871
0002a0 c6 26 3e bd cd 2c 64 bd ca b0 4e bd c6 5c 79 bd
       -0.046423696 -0.055706788 -0.050461568 -0.06087949
0002b0 5b ee c8 b9 50 11 ca bc 2b 04 2e 3d 1f 6f 85 bc
       -0.0003832456 -0.024666458 0.042484444 -0.016288338
0002c0 32 7d d2 bb 81 25 dd ba c3 58 9d bc b5 b3 b7 bc
       -0.006423616 -0.0016872139 -0.019207364 -0.022424558
0002d0 3a bd 93 bc 4e 5f 7a bd 9c a0 26 bd f1 53 0e 3d
       -0.018034566 -0.061126046 -0.040680513 0.03474802
0002e0 0f 7a b5 bc 51 6f 2e 3c de 39 11 bd 13 7a 7e bd
       -0.022152929 0.010646657 -0.035455577 -0.062128138
0002f0 75 a6 8c 3d 87 2c b2 3a e4 95 29 3d a6 ec 7e 3d
       0.06867687 0.0013593592 0.041402712 0.062237404
000300 ba 21 bb bc 52 37 5c 3d 42 49 e3 bc 45 8f 2e 3d
       -0.02284323 0.053763695 -0.027744893 0.0426171
000310 d9 54 2d 3d 8f a7 b4 3d fc bc 64 3c c2 43 12 bd
       0.042317245 0.08821022 0.013961073 -0.03570915
000320 c7 5f 0f 3b 80 cb 79 3b 8b 46 9d 3c cb e9 e9 3d
       0.0021877156 0.003811568 0.019198677 0.114215456
000330 13 11 e4 bc 42 37 39 3d b6 af e5 3c b5 9f 1b bd
       -0.027840173 0.045218714 0.028037887 -0.037994105
000340 17 4c 27 bd 60 72 cb 3c cb 0d 8a bd af 94 dd ba
       -0.04084405 0.024834812 -0.06740912 -0.0016905273
000350 06 9d 19 bd bf 2d 8a bd 4d 46 4b bd 6f 32 70 3d
       -0.037503265 -0.067470066 -0.04962759 0.058641847
000360 a4 7e 40 3d db ea 98 3d 35 89 0e 3d e0 58 3d bd
       0.046995774 0.0746667 0.03479882 -0.046227336
000370 c0 c0 58 3a 2a 2f 6b bd fc 25 20 bc ef b4 56 bd
       0.0008268468 -0.057418026 -0.009774681 -0.052418645
000380 41 49 6b bd b5 f4 77 bb 0c f0 e8 3c 7d 02 ad 3d
       -0.057442907 -0.0037835066 0.028434776 0.0844774
000390 27 df aa bd 1c e7 98 bd 31 89 4b 3d 2a 39 de bb
       -0.08343344 -0.074659556 0.049691383 -0.006781717
0003a0 3c bc e3 3a be c2 63 bd c7 f2 39 3d 97 bf 03 bd
       0.0017374824 -0.055605642 0.045397546 -0.032165136
0003b0 f0 9f d4 bc 84 22 27 3c b2 0e 77 3b 3e 0d 96 3c
       -0.02595517 0.0102011 0.0037697968 0.018316861
0003c0 63 38 04 3d d8 f4 56 bc d4 c1 08 3e 33 7e d8 3c
       0.032280337 -0.013119899 0.1335519 0.026427364
0003d0 1a 6a 28 3c 25 39 3d ba 80 c6 43 3b f7 99 0d 3c
       0.010279203 -0.0007218293 0.0029872954 0.008642665
0003e0 75 82 80 bd 93 05 d2 3d 1f db 0f bd 28 7c a0 bc
       -0.06274883 0.102549694 -0.03512108 -0.019590452
0003f0 ed 40 98 3d fa 78 df bd ad fc 04 bd e2 86 87 bd
       0.074342586 -0.10911746 -0.032467533 -0.06617524

fc2.bias f4 [20]
000000 01 22 2d 3d ef d2 88 bc 21 d6 98 bc af 3a 45 bc
       0.042268757 -0.016702143 -0.018656792 -0.012037917
000010 78 ba 35 bb 8c ec 1a bb 9a 92 6c 3c b8 18 bf 3c
       -0.0027729552 -0.0023639528 0.014439249 0.023327217
000020 bc f7 b3 3c 38 32 2c 3c 50 c2 4f bd e5 31 5a 3c
       0.021968715 0.01051002 -0.05072242 0.01331756
000030 ec 80 17 3c a7 ee 26 3c 00 eb 0c 3d c4 03 23 39
       0.009247046 0.010188735 0.0344038 0.00015546294
000040 dc a2 7f bc 07 a1 d5 3b 60 57 b7 3a f0 a8 e0 3c
       -0.015602794 0.00651944 0.0013987832 0.027424306

fc3.weight f4 [400, 20]
000000 1b 6a fd bc 72 3a 44 3e 87 88 15 be 9a db 08 3e
       -0.030934384 0.1916292 -0.14602862 0.13365021
000010 5e 0d 2c be a4 1b 4f 3d c3 23 fb bd 34 d2 72 3e
       -0.16801974 0.05056347 -0.122626804 0.23712999
000020 93 43 4c be 87 d6 a6 bd e9 42 d0 bc 55 12 8f 3d
       -0.19947653 -0.081463866 -0.02542253 0.069859184
000030 ef 40 0a be e5 07 05 3e 72 46 3e 3d cb be 14 3b
       -0.13501333 0.12991293 0.0464539 0.002269673
000040 ed da 06 be 4f 53 4f 3e d0 48 44 be 47 c2 e9 38
       -0.13169451 0.20246623 -0.19168401 0.00011146493
000050 a5 0f f4 3b 32 23 d5 bc 03 12 7a be 64 9f c1 3d
       0.007448154 -0.026017759 -0.24420933 0.094542295
000060 da ae 0b 3e e4 13 f0 bd e0 92 28 3e f7 35 b1 3d
       0.1364092 -0.11722544 0.16462278 0.08652871
000070 24 f9 2c 3e 79 78 53 3d 4d 8c ae bc cb dd cc 3c
       0.16891915 0.051628564 -0.021307135 0.025008103
000080 84 62 af bd b8 f8 4b 3c df cf 9a bd b8 d5 4e be
       -0.08563712 0.012449436 -0.075591795 -0.20198715
000090 43 3b 40 bd e3 a5 c2 bb e4 d6 57 be 72 6a 60 bd
       -0.046931516 -0.0059401854 -0.21078068 -0.054789014
0000a0 8d a7 dc bd 08 cf fa 3d 0e 22 08 3e ef b5 2f be
       -0.10774145 0.12246519 0.13294241 -0.17159246
0000b0 6f 58 3e be 9e e6 0d 3e 8c f1 d1 3d 6b 04 02 3e
       -0.18588422 0.13857505 0.102511495 0.12696998
0000c0 dd 7c 69 bd 0c f9 37 be 7a 30 4c 3e 54 ba a4 3c
       -0.057003845 -0.17966098 0.19940367 0.02010838
0000d0 a8 83 41 3e 11 36 3b 3c ec 7e 23 3e d0 df 4b 3e
       0.18897879 0.011426465 0.15966386 0.19909596
0000e0 0c e9 74 3c 7e ec 2c bd 52 b1 48 be a8 f2 76 3d
       0.014948141 -0.042217724 -0.19598892 0.06029001
0000f0 e7 47 51 3d 0f 7c 4b 3c 31 ae 07 3d 46 ac 1f 3e
       0.051093962 0.012419715 0.033125106 0.15593061
000100 81 90 05 3e ff b0 34 3e d3 82 3a be fa 54 ec 3c
       0.13043405 0.17645644 -0.18213968 0.028849114
000110 87 27 d4 3d c2 59 57 bd 51 a9 40 be 54 44 af 3d
       0.10359102 -0.052575834 -0.18814589 0.085579544
000120 47 1f 16 3e 2a ff 0f be a9 ad 2b 3d 01 80 48 3c
       0.14660369 -0.14062181 0.041913662 0.01223755
000130 1f 89 80 be 6e c0 b4 3d 86 ba 37 3e 9a db 8b bd
       -0.25104615 0.088257656 0.17942247 -0.06828995
000140 07 e5 32 3d e9 25 8c 3d 34 8c 86 bd df 36 52 3e
       0.04367545 0.06843168 -0.065697104 0.20528744
000150 26 2f 77 3e 17 d7 41 be d5 40 44 be f8 5f 54 3e
       0.2413908 -0.18929707 -0.19165356 0.20739734
000160 43 a1 2a bd d3 6c 27 3d ad 31 15 bc f6 42 35 3e
       -0.041657697 0.040875267 -0.009106082 0.17701325
000170 7c ff 92 3b 50 38 d6 3d 4e d4 2f 3e 5d 06 78 bd
       0.0044860225 0.104599595 0.17170832 -0.060552943
000180 93 c0 61 bd f9 10 14 3e e1 99 a8 3c db 38 f1 3c
       -0.055115294 0.144596 0.020581188 0.029446056
000190 00 15 e2 3d 8b 0b e9 bd 10 ba 0f be 07 27 c2 bc
       0.11039162 -0.11379155 -0.14035821 -0.02370025
0001a0 21 9f b2 3d 14 ad 23 be 7f b9 0f be 79 a6 17 3e
       0.08721758 -0.15983993 -0.14035605 0.14809598
0001b0 85 88 d5 bd 54 ee 41 3e 13 dc 3a 3c ed b2 5a 3e
       -0.1042643 0.18938571 0.011405009 0.21357317
0001c0 49 02 92 bd 9a 09 5b be 15 12 a2 bb f8 70 be bd
       -0.07129342 -0.21390381 -0.004946003 -0.09298891
0001d0 30 d9 07 be 1b 18 4c be b0 5e eb bc 9c 4c de bd
       -0.13266444 -0.1993107 -0.028731674 -0.10854456
0001e0 3e ae 9e bb c9 ab 3c 3e 1f 5a 49 3d 79 09 1b be
       -0.0048425486 0.18424906 0.04915821 -0.15140332
0001f0 3e 06 01 3e 9c ce ad bb 72 58 02 be 70 7c c7 3d
       0.12600037 -0.005304171 -0.12729052 0.097405314
000200 12 55 0f be 8d d7 1b be 1b 82 db 3d 7d ec 03 be
       -0.13997295 -0.15218945 0.10718175 -0.12883182
000210 35 39 97 3b 1b a1 32 3d f3 d0 3c 3e c6 45 9e 3d
       0.004614974 0.043610673 0.18439083 0.07728152
000220 64 53 0c be 39 40 83 bd a3 e8 88 3d e6 ac 3b 3e
       -0.13703686 -0.06408734 0.06684997 0.18327674
000230 ec 28 89 3c 53 6b 36 be 24 f8 2a 3e 2a fd bc bd
       0.016743146 -0.17814378 0.1669622 -0.09227975
000240 b5 46 9b bc bd 05 d8 3d 88 e1 ec 3d 75 bd 2e 3e
       -0.018954614 0.105479695 0.11566454 0.1706446
000250 28 a5 d5 bc 6f 89 4d 3e 05 41 e2 3d 29 4d b2 3d
       -0.02607973 0.20071958 0.11047558 0.087061234
000260 5c 1a 3a 3e 04 5f 9d bd 48 cc 99 3d 51 d6 41 be
       0.18174118 -0.076841384 0.07509667 -0.18929411
000270 61 7e c2 bc a5 fc 92 bd b9 88 5f 3c 3c e5 47 3e
       -0.023741903 -0.07177094 0.013643437 0.1952104
000280 72 35 1b 3e 5c f7 cb bd 73 7c 43 3d 6d ce 3a 3e
       0.15157107 -0.099592894 0.047726106 0.18242808
000290 8b 9d 43 be b9 ce 36 bd cc 28 7d 3d 7c 1e 67 3e
       -0.19103067 -0.04463074 0.061806485 0.22570223
0002a0 24 71 82 bd c7 bf 20 3e 75 ec 10 3c 27 a4 6e be
       -0.06369236 0.15698157 0.008845438 -0.23304807
0002b0 52 2f 10 be df 6e e7 bd 32 e5 1e be 90 ba 0d be
       -0.14080551 -0.11300444 -0.15517119 -0.13840699
0002c0 fc 8b 09 3e f8 6d 7c 3e 8c 71 c2 3c 85 fa 59 be
       0.13432306 0.24651325 0.023735784 -0.21286972
0002d0 bf 57 1e be f3 b9 20 be ee ac bc 3d 74 7d 91 3d
       -0.1546316 -0.15695934 0.09212671 0.071040064
0002e0 ad bc b2 3d 05 c1 88 bd ff 32 1f 3e 04 d3 33 3e
       0.08727393 -0.066774406 0.15546797 0.17560965
0002f0 fa d4 6f 3e 95 9b 42 3c e2 07 6f be ab 58 1f 3e
       0.23421088 0.011877914 -0.23342851 0.15561168
000300 71 1d 4e bd 8f 38 1b 3e 71 51 2c be 17 f3 3b be
       -0.050321046 0.15158294 -0.16827942 -0.1835445
000310 56 79 4d bc 54 1a 61 3d d9 a5 31 3d d3 dd 1d bd
       -0.012541136 0.05495675 0.043371055 -0.038541626
000320 83 18 ea 3d d2 47 82 3a 53 ca 14 be fe 4e ae bd
       0.114304565 0.0009939617 -0.14530306 -0.0851116
000330 51 7f 37 be aa c3 16 be 5b d3 e1 bd f1 78 1c be
       -0.17919661 -0.14723077 -0.11026641 -0.1528051
000340 cc 43 e3 3d 8f 4e d4 bd c4 28 71 bc 36 05 65 3c
       0.110969156 -0.10366546 -0.014719192 0.013978293
000350 e9 02 c5 3d 81 95 27 be 32 0c 51 3e 73 23 2b 3e
       0.09619696 -0.16365625 0.20414808 0.16712742
000360 58 c3 ff 3d d1 bf e6 3d 70 27 07 be 2d 1e 32 bd
       0.12488431 0.11267055 -0.13198638 -0.04348581
000370 46 a2 af bd 0b ca ee 3d 42 fb 0b 3d f4 ba 2f 3e
       -0.08575873 0.116596304 0.034175165 0.1716116
000380 3e 3c c8 bd 37 a2 25 bd 4c 65 a3 3d c8 48 46 3e
       -0.09777115 -0.040437903 0.07978305 0.19363701
000390 3f 55 6f 3e bb e2 82 bd 04 21 d3 3d 65 78 23 3c
       0.23372363 -0.06390902 0.103090316 0.009977435
0003a0 15 97 e9 3c 11 78 99 3d 5b b5 44 3d f5 88 dc bc
       0.028514424 0.07493604 0.048024517 -0.026920775
0003b0 b2 39 cf bc ef 61 3a 3e e1 1b c5 bd 37 38 ab 3d
       -0.025296066 0.18201421 -0.09624458 0.083603315
0003c0 c3 21 34 be 36 a4 f6 bd 7d f0 09 3e 0b 87 52 be
       -0.17591004 -0.120430395 0.13470645 -0.20559327
0003d0 d6 2e 6f 3d 40 da eb bd 87 ec 5f 3e de bf b6 bd
       0.058394276 -0.11516237 0.21867572 -0.089233145
0003e0 d2 9c ce 3b 9b 31 d8 3d 77 de f0 bd 85 91 11 bd
       0.0063053155 0.105563365 -0.11761182 -0.03553917
0003f0 66 59 b3 bd db 01 d7 3d 1a 8b fb bd 70 74 fc 3b
       -0.08757286 0.10498401 -0.12282391 0.00770431

fc3.bias f4 [400]
000000 c8 61 0d be f4 ec ca 3c e8 92 d7 bd e6 18 20 3d
       -0.13806832 0.024771191 -0.10526067 0.039086245
000010 57 5b d6 3d 5f 1b 4a 3e 6e 86 ae 3b 30 27 72 3e
       0.104666404 0.19737004 0.005326084 0.23647761
000020 18 e2 ac bd 32 e8 f0 bd 95 e3 42 be 5a 67 50 3e
       -0.084415615 -0.11763038 -0.19032128 0.20351925
000030 f0 80 10 bd 44 63 2a be a7 4f 09 3e c1 0b 61 bc
       -0.035279214 -0.1663943 0.13409291 -0.0137357125
000040 7f 6f 59 3c 33 a4 4a 3e 03 de a6 3d 89 e6 57 be
       0.013271212 0.197892 0.08147814 -0.21084036
000050 f9 f3 fe bd 6a ea f6 3d 64 9e e0 bd 67 12 bd 3d
       -0.12448878 0.1205643 -0.109677106 0.092320256
000060 6a 3a 16 3e 96 cc f0 bd 55 47 54 3d 8d e0 27 be
       0.1467072 -0.11757772 0.05182584 -0.16394253
000070 ce 2f 16 be 05 2a e3 bd 57 f7 4f be 30 70 c3 3d
       -0.14666674 -0.11091999 -0.20309196 0.095428824
000080 e8 eb 3d be f4 3c 9f bd 2b b1 34 3e b4 68 78 bc
       -0.18547022 -0.07775298 0.17645709 -0.015161682
000090 97 2b 48 be 79 e5 d7 bd bc 58 40 be 50 a7 24 3e
       -0.19547878 -0.10541815 -0.1878385 0.1607945
0000a0 b5 91 01 3e cf 4d f4 bb 12 71 c3 bd 0b 28 30 3e
       0.12653239 -0.0074555646 -0.09543051 0.17202775
0000b0 44 60 c4 3d b9 63 35 3e 0c 2c ba bb 98 e5 9c 3d
       0.09588674 0.17713822 -0.0056815203 0.07660979
0000c0 a3 d9 71 3d 08 c8 56 3c cf ea 34 bd df cd 41 3e
       0.059045445 0.013109215 -0.044169243 0.1892619
0000d0 67 14 fe bd 9f 17 06 be be ea 39 be 33 cb 3c be
       -0.12406235 -0.13094948 -0.18155953 -0.1843689
0000e0 2f e1 7d bd ae 68 e2 3d 87 26 27 3e f9 2c ff bd
       -0.06198233 0.11055122 0.16323291 -0.1245975
0000f0 b6 a7 38 be e3 b0 5e be 9d 76 5e 3d cf d2 11 be
       -0.18032727 -0.21747164 0.054312337 -0.14240573
000100 14 ee 09 3e 6f 50 ec 3d ed dd ab 3d 53 1f a4 bc
       0.13469726 0.11538779 0.08391938 -0.020034468
000110 d6 b6 9a bd a1 bf 4f be da 3d 89 be dc 4d 10 3e
       -0.075544044 -0.20287944 -0.26805001 0.14092201
000120 7c 84 d5 3d c5 17 33 3e 6a 0d 87 3d 50 5d 29 be
       0.1042566 0.17489536 0.065943554 -0.16539502
000130 aa dc 63 be 49 18 cf bd 5d 1c 65 3d c5 30 0c be
       -0.22252145 -0.10112054 0.055935252 -0.13690479
000140 e7 80 27 bd f1 3c ff bd db eb 7d 3c cb 74 29 bd
       -0.040894415 -0.124627955 0.015498127 -0.041371148
000150 b7 04 fc bd 79 42 aa bc e2 5c 93 bd 51 fb c0 bc
       -0.12305587 -0.02078365 -0.0719545 -0.023557337
000160 93 38 07 3e 6d 00 26 be 0c 8f 2e 3e 89 a7 9e 3d
       0.13205175 -0.162111 0.17046756 0.077467985
000170 be 21 1d bd 7b 5c b7 bb 1a 51 37 be bd dd 57 bd
       -0.038362257 -0.0055957413 -0.17902032 -0.0527017
000180 9d a0 3a 3e 5e 8d 35 be 56 60 87 3d 0b b5 42 be
       0.18225332 -0.17729709 0.066101715 -0.19014375
000190 67 e6 e7 3c 2d 1a f7 bd e1 77 14 3e 00 28 0a be
       0.028308107 -0.120655395 0.14498855 -0.13491821
0001a0 76 af b9 bd 42 e8 d9 3d 5a b1 45 be cd ef 97 3b
       -0.0906667 0.10640003 -0.19305936 0.004636741
0001b0 c5 b3 ae 3c b2 ef 01 bd 09 b8 31 be 5a 54 2a be
       0.021325955 -0.031722732 -0.1735536 -0.1663374
0001c0 1a 04 b7 3d 89 04 10 be d1 ef 02 3e e1 2b 40 be
       0.08936329 -0.1406423 0.12786795 -0.18766738
0001d0 d1 57 34 3d da 9d 3d bb 81 90 80 3d 0d 0a b9 bd
       0.04402906 -0.0028933198 0.06277562 -0.0903512
0001e0 c6 56 b6 3d fc 41 04 3e 34 f5 9b 3d 71 52 62 bd
       0.089032695 0.12915796 0.07615128 -0.055254404
0001f0 ac 25 39 3e 70 ee 4a 3e 0e 61 f7 bc 42 00 2e 3e
       0.18080777 0.19817519 -0.030197646 0.16992286
000200 18 91 b2 3d d7 7c 09 be ad 5a 0f be 4d 39 b5 bd
       0.08719081 -0.13426529 -0.13999434 -0.0884882
000210 ac 67 7a 3b ce 88 a0 bc 0e a0 05 be b0 d7 e3 ba
       0.0038208766 -0.019596484 -0.13049337 -0.0017383005
000220 b4 60 6f 3e 16 c2 a5 bc 67 ab ca 3b 99 b9 42 bd
       0.23376733 -0.020234149 0.0061849835 -0.04754028
000230 a2 35 3e be e6 6e 42 3e 33 6d 69 bd 77 ac 16 be
       -0.18575147 0.18987617 -0.056988906 -0.14714228
000240 9e d8 ab bc e9 9e 66 be 48 83 14 3e 85 8b f2 bd
       -0.020977315 -0.22521557 0.14503205 -0.118430175
000250 ae 2b b0 bd aa 7e a4 3d 9f 4b cb 3d f3 22 4b be
       -0.08602081 0.08031972 0.09926533 -0.19837551
000260 03 d3 c5 bd b3 d0 27 bd 27 31 51 be 73 42 8c bd
       -0.09659388 -0.040970515 -0.20428906 -0.06848612
000270 01 8c d2 3d d4 e8 f6 3d 1e 8b 6f bd 41 9b db 3d
       0.1028061 0.12056127 -0.058482282 0.10722972
000280 6a 9e 65 bd e5 b1 54 be d3 79 1a be 15 fa 0a 3e
       -0.05605928 -0.20770986 -0.15085535 0.13571961
000290 0f 11 a0 bd a4 13 10 3e a0 2e dd 3d 5a 9c 0f 3e
       -0.07815754 0.14069992 0.10799909 0.14024487
0002a0 27 18 a4 bd 02 94 04 be 52 99 3e be 3a 21 e7 bd
       -0.08012419 -0.12947085 -0.18613175 -0.11285634
0002b0 8a 46 01 3e d0 7f dd 3d ba 74 28 3e fd b8 18 3d
       0.12624565 0.10815394 0.16450778 0.037285794
0002c0 66 1d 3d 3e 76 d6 4e be 94 41 19 3e 67 97 69 bd
       0.18468246 -0.20198998 0.14966422 -0.057029154
0002d0 99 6f 09 bc ac 85 db 3c da d5 57 3c 00 ae ac 3d
       -0.008388423 0.026797138 0.013173545 0.08431625
0002e0 4f 9e 51 be 50 ad 2a bd ff 14 29 3e aa 86 39 3d
       -0.20470546 -0.04166919 0.16511916 0.04529444
0002f0 9e 38 0f bd 03 b5 86 bd 14 b4 f6 bd 1f a7 4e be
       -0.034966104 -0.06577494 -0.12046066 -0.20180939
000300 93 05 e0 bc e5 bd 11 be 76 7d 38 3d 7f 0d e7 bd
       -0.027346408 -0.14232595 0.045041524 -0.11281871
000310 59 64 9a 3d b8 e4 b9 bd b0 0f 91 3d 59 e5 39 3c
       0.07538671 -0.09076828 0.0708307 0.011346185
000320 45 e3 2c 3c d3 d8 df 3d d7 a6 a3 3d f3 e7 33 3e
       0.010552232 0.10930028 0.079908065 0.1756895
000330 c2 87 0c 3e 94 de ff bd 67 6a d9 3d a1 e3 93 3d
       0.13723662 -0.12493625 0.10615998 0.07221151
000340 d2 8a 94 bd b6 c4 57 be 2a a7 40 be c7 f9 80 3d
       -0.072530404 -0.21071133 -0.18813768 0.06297641
000350 89 09 3d be 01 4e fb bd 47 25 85 3d bd 94 4d 3e
       -0.18460669 -0.122707374 0.06501251 0.2007627
000360 8d 4a 2f bd 5c e3 30 be 0f 3a fd 3d b3 62 a8 3d
       -0.042795707 -0.1727423 0.123645894 0.082219504
000370 be eb da 3d 4d 4a 50 3e 51 db 32 be 57 63 35 be
       0.106894955 0.20340843 -0.17466475 -0.17713676
000380 03 a2 c6 bd 04 71 00 be 93 4c ae bd a8 36 cc bd
       -0.0969887 -0.12543112 -0.08510699 -0.09971362
000390 1d d4 0b be df be 0f be 52 e5 cb bc 4b e7 35 be
       -0.13655134 -0.14037655 -0.024889622 -0.17764013
0003a0 c5 3f 46 be 5d 82 93 3c 50 35 2a 3e c5 0f cc bd
       -0.19360264 0.018006498 0.166219 -0.09963945
0003b0 41 90 89 bd 4e 74 a2 3d 24 00 15 3e 79 51 b8 3d
       -0.067169674 0.079323396 0.14550835 0.08999915
0003c0 f2 89 62 be 02 86 55 be e6 cf 61 be e6 a0 04 be
       -0.22122934 -0.20851901 -0.22051963 -0.12952003
0003d0 d1 1b 28 3d 91 0d 4e bc 92 5d 7e 3c 7c fb 32 3c
       0.041042153 -0.012576477 0.015525239 0.010924216
0003e0 b8 6a ea 3c fc bf 55 3e 60 8a 1f be 93 0f 15 3d
       0.02861534 0.20874017 -0.1558013 0.036391806
0003f0 63 27 c5 bd 50 03 73 bb 41 de 68 be b8 8a 5f 3d
       -0.09626653 -0.0037080832 -0.22741033 0.054575652

fc4.weight f4 [2, 400]
000000 19 c6 f2 3c a1 5a 50 bc b2 b0 28 3d 29 d2 2c bd
       0.029635476 -0.01271692 0.041184135 -0.04219261
000010 c0 61 29 bd 98 0b 40 bd 28 61 ba 3c 46 1d 19 bd
       -0.041352987 -0.046886057 0.022751406 -0.037381433
000020 c1 75 21 3d 71 e5 3d 3d d2 84 97 3a ae f5 20 bd
       0.03941894 0.04636139 0.0011559969 -0.0392968
000030 06 9f a8 bc e9 a4 ac 3c 77 22 42 3d b6 9c 13 3d
       -0.02058364 0.021074729 0.04739615 0.036038123
000040 14 b2 4c 3d 42 f4 26 3c 0f 84 9c bb 79 3b 4d 3d
       0.049974516 0.010190072 -0.004776485 0.050105546
000050 df 6e b9 bc 76 e4 d2 3c 06 e9 a8 3c 38 81 c9 3c
       -0.022635875 0.025743704 0.020618927 0.02459775
000060 70 45 20 bd 90 cd 0c 3d d6 05 86 bc b2 c1 d9 bc
       -0.03912872 0.034375727 -0.016360205 -0.026581619
000070 78 a7 38 3b 2b 2e 93 3c d0 1c f6 bc 05 85 3f 3d
       0.002817599 0.01796635 -0.030043036 0.046757717
000080 39 b3 60 3c 94 8a 0d 3d 0c 03 e3 bc 8f f3 45 bd
       0.013714605 0.034555987 -0.027711414 -0.04832798
000090 77 5a 7e bc 48 6a 46 bc 99 44 08 bd 02 55 e8 3c
       -0.015524498 -0.0121103 -0.033268545 0.028360847
0000a0 99 bb 13 3d c9 01 39 bc 49 42 21 bc e4 29 2d bd
       0.03606758 -0.0112919295 -0.009842464 -0.04227628
0000b0 77 a3 13 bc 34 ce 1e bd c3 27 cd bc 19 48 cb bc
       -0.009011141 -0.03877087 -0.025043374 -0.024814652
0000c0 7f d5 62 bd 49 98 61 3c d5 60 48 bc 74 3a 9e bc
       -0.055379387 0.013769218 -0.012230118 -0.019314982
0000d0 89 2a 7d bd 1e 24 27 bd 5c ea 38 bd 94 1e ce 3b
       -0.061808143 -0.04080593 -0.045145378 0.0062902663
0000e0 1b 18 2f 3d 53 fa 74 3d 19 d4 41 3d 16 a4 34 3d
       0.0427476 0.05980904 0.047321413 0.044101797
0000f0 4e fa 81 bc 50 f6 de 3c 78 2e 20 bd 7b 97 4d 3d
       -0.015866425 0.02721706 -0.039106816 0.05019329
000100 f7 90 85 3c 7f 48 6c 3d f8 4b 29 3d 2f b5 e4 3c
       0.016304476 0.057686325 0.041332215 0.027918426
000110 f3 f6 4c 3d c6 4c 79 3c aa a2 86 3c 7b 53 34 bd
       0.050040197 0.015216058 0.016434986 -0.044024926
000120 5e 8f cc 3c c9 ad 0e bd a1 5c 9c 3c 17 fd f3 3c
       0.024970707 -0.034833703 0.019087138 0.029783769
000130 a4 50 0c 3c 0d 81 57 3d 57 59 f5 3c 9f 30 88 bc
       0.008564148 0.052613307 0.029949827 -0.016624747
000140 e4 53 02 bd 32 b3 03 3d 73 52 3c 3d f8 bd 03 bd
       -0.031818286 0.032153316 0.045977067 -0.03216359
000150 f8 f8 d7 3c 52 53 19 bd 1e f9 10 bc 92 bf 06 3d
       0.026363835 -0.037432976 -0.008848457 0.03289754
000160 1e a8 cc 3c 57 81 4b bc fe bd 15 bd bc 53 09 bd
       0.024982508 -0.012420974 -0.036558144 -0.03352712
000170 1a 05 2d 3d 94 f3 9e bb 14 0b ab bc 3d 6a 15 bd
       0.042241193 -0.004850814 -0.020879306 -0.03647827
000180 46 d1 69 ba d5 2d 0a bd 4d a0 22 3c f8 4c 1b bc
       -0.0008919429 -0.033735115 0.009925914 -0.0094788
000190 35 9b 1f bd 56 e6 11 3d 38 f4 b2 3c 7f 8d fe bc
       -0.038966376 0.035620056 0.021844968 -0.03107333
0001a0 a8 1b 32 3c 80 c1 20 3d e5 be 2b 3c 8c 68 0e bd
       0.010870852 0.039247036 0.0104825245 -0.034767672
0001b0 b6 30 99 bc b4 a4 dd bc 4f 0d af bb f1 f5 3e bd
       -0.018699985 -0.027056076 -0.0053421627 -0.046621267
0001c0 12 eb 93 3b c2 8b d5 bb 22 fb 36 3d f0 a0 4c 3d
       0.0045141065 -0.0065169046 0.044673093 0.04995817
0001d0 2b 01 2b bc 09 11 e4 bc 46 13 30 3d 0f 10 83 3d
       -0.01043729 -0.027840154 0.04298713 0.06399547
0001e0 73 de 79 bd bc 10 71 3d 95 a4 d3 bc cd 08 44 3d
       -0.06100316 0.05885385 -0.025835315 0.047859956
0001f0 57 10 81 3c cf 60 d1 3b e0 d2 2c 3d 54 8c 9d bc
       0.015754862 0.0063897143 0.042193294 -0.019231953
000200 f2 f4 31 bd 65 8b 1a 3c d4 af a6 bc 6d fb 30 3d
       -0.04344649 0.009432648 -0.020347513 0.04320853
000210 6a 8b 5c bd 2f c9 1e bd 20 e1 20 3c 61 78 b6 bb
       -0.053843893 -0.038766082 0.009819299 -0.0055685495
000220 eb ee 2b bd ff 91 3e bd 4b 4e 4a 3d df 8f 63 bc
       -0.041975897 -0.04652595 0.049391072 -0.013889282
000230 f4 4a da 3c 3f 75 3d 3d e1 46 1f 3d e8 ef 88 3c
       0.026647069 0.046254393 0.038885955 0.016715959
000240 1c a5 fd bc 8f 8b 46 bc 4a 38 1e 3c 76 42 29 3d
       -0.03096252 -0.012118234 0.009656975 0.041323148
000250 fb 88 68 ba c6 e5 1d 3d 24 ca 19 bd 73 b3 fa bc
       -0.00088705093 0.038549207 -0.037546292 -0.030603146
000260 ea c5 81 3c bf 79 05 3c f2 32 23 3d 5b 47 e9 bc
       0.015841443 0.008146702 0.039843507 -0.028476408
000270 b7 53 8c bc ec 9e f2 bc b9 d6 a2 3c bf 36 b8 3c
       -0.017129762 -0.029616795 0.019877778 0.022487042
000280 9d 9e 13 3c 8c 84 0f bc c3 96 2e bd 43 28 47 3d
       0.009009984 -0.008759629 -0.042624246 0.04862238
000290 67 29 2f 3d 54 2c 3b 3b a3 7c 0b bd 34 3f 1c 3c
       0.042764094 0.0028560357 -0.03405441 0.009536553
0002a0 eb e7 2e bc c8 0c af bc 3f 27 b4 bc 4d 0b 56 3d
       -0.010675411 -0.0213684 -0.02199137 0.05225687
0002b0 25 17 23 3d b9 13 9b bb 4c dd 79 3b fa 69 6c 3c
       0.039816994 -0.0047325757 0.0038126288 0.014429564
0002c0 70 3a c7 3b fc 5c d4 3b ad 8f 4f bb 8b 0d 18 bd
       0.0060799643 0.006480811 -0.003167133 -0.03712229
0002d0 01 bb 25 bc 77 4c e6 3a 84 ba d0 3c b4 d2 e1 3b
       -0.010115386 0.0017570396 0.025479563 0.006891573
0002e0 93 31 01 3b 08 4e c7 3c 40 70 42 bd 81 3c 52 3d
       0.0019713386 0.0243292 -0.04747033 0.051327232
0002f0 07 4c 63 3c a2 d6 92 3b 64 d6 7e 3d cc e3 83 bc
       0.013873107 0.0044811526 0.062216178 -0.016099833
000300 29 84 db 3c 63 7c f5 3c e6 57 3d 3c b8 67 f7 bb
       0.026796417 0.029966539 0.011556601 -0.007550206
000310 45 29 86 bd 12 ff ea bc 11 34 27 3d c1 e9 be ba
       -0.0655084 -0.02868608 0.04082114 -0.0014565514
000320 b3 4b ce 3c 91 85 05 bd a9 55 b4 3c a3 ac 8f 3c
       0.02518258 -0.032598082 0.022013502 0.017538374
000330 a3 ea 88 bc 84 bf 51 3c b8 41 9f 3c 2f 8d ff 3c
       -0.016713446 0.012802009 0.019440517 0.031195251
000340 72 88 5e bd 7e 33 5f 3d 6d 62 23 bd 55 cc 75 3c
       -0.054329343 0.054492466 -0.039888788 0.01500233
000350 cb 4f 37 bc 5a a5 28 3b e8 95 e8 3c 1e b1 ca 3c
       -0.011188458 0.0025733323 0.028391793 0.02474266
000360 e2 e9 07 3b 35 e2 0c 3d 41 e0 30 ba fa 0a 71 bd
       0.002073877 0.034395415 -0.00067472836 -0.05884836
000370 56 c4 e6 bb c0 0a 81 3a 34 67 c8 3c 16 d6 22 bd
       -0.007042448 0.0009845123 0.024463274 -0.03975495
000380 08 a9 c0 3a 85 8f ec 3c 14 39 2d 3d 3d 58 dc 3c
       0.0014698813 0.02887703 0.042290762 0.026897544
000390 e1 37 a8 3a b6 50 cd 3b b4 f5 1b bd 3c 6d ca 3c
       0.0012834036 0.006265725 -0.038076118 0.02471029
0003a0 de e6 35 bd 82 78 5b bb 83 d4 6c bc 71 4c 22 3d
       -0.044409625 -0.0033488576 -0.014454964 0.03962368
0003b0 60 8f d3 bb f1 bf 25 3d fb 3a 1e 3d 92 13 88 3c
       -0.0064563006 0.040466253 0.038630467 0.016610894
0003c0 b3 ed 61 3d 10 c0 81 bc 71 f6 78 3d a5 e1 36 3d
       0.05515833 -0.015838653 0.0607819 0.044648785
0003d0 f0 1b 49 3b 9b 65 f5 3c 61 52 01 3d b7 26 0b bd
       0.0030686818 0.029955676 0.031572703 -0.03397247
0003e0 b4 dc 54 3b c0 f1 a2 3c 35 c5 60 ba b2 2f 3a 3d
       0.0032480182 0.019890666 -0.0008574308 0.045455642
0003f0 4c d3 6f bd bf 7d 32 3c 0b a3 97 3c 5e e9 1d bd
       -0.058551118 0.010894238 0.018510362 -0.038552634

fc4.bias f4 [2]
000000 6a 4d 1f bd a4 8b 18 3d
       -0.038892187 0.037242547

cls.weight f4 [2, 48]
000000 6b b1 8a bd 49 28 2d be 2c c3 a8 3d 6d f2 cd bd
       -0.06772121 -0.16909899 0.08240351 -0.10056005
000010 7b 39 0d 3e 43 ed 33 bc 21 bf 12 3e 97 cb 2b bd
       0.13791458 -0.010981861 0.14330722 -0.041942205
000020 2f be 94 3c 57 b1 fd 3b a8 e3 80 bd 30 4d 21 3e
       0.018157093 0.007742088 -0.06293422 0.15752101
000030 f4 a7 39 3e 8d 81 2b be 9b a1 a4 3c 8a fa d8 bd
       0.18130475 -0.16748638 0.02009659 -0.105946615
000040 06 fd c5 3d cd cd c1 3c 7b 5d 1e bd c9 0c 0f be
       0.09667401 0.023657704 -0.03866337 -0.13969721
000050 7b 7a c8 3d cc 01 90 3d e3 1b f6 3d 1d 44 2d bd
       0.09788986 0.07031593 0.12017038 -0.042301286
000060 a0 38 dd bc 8c d8 dc bd 5f e2 b6 3a cc 49 88 3d
       -0.02700454 -0.107834905 0.0013952962 0.06654701
000070 dd 5d 21 be a2 28 cb bd a0 39 8f bd 4a c6 5f bd
       -0.15758462 -0.099198595 -0.06993413 -0.054632463
000080 f4 69 c5 3a c4 46 fe 3d dd 9d 48 bc f9 59 8e bd
       0.0015061484 0.12415841 -0.012244669 -0.06950755
000090 9e 54 d5 3d 80 ab 3a 3d d2 46 f5 3d ae a8 cb bc
       0.1041653 0.04557371 0.119763985 -0.024860706
0000a0 29 cb 47 bd 28 be 88 bc bc 3a ef 3d 7b ab 40 3b
       -0.048777733 -0.016692236 0.116811246 0.0029399085
0000b0 56 be 2a 3d 9a b2 05 3e ff 5f 00 3c 20 c9 89 3c
       0.041685425 0.13056412 0.007835387 0.016819537
0000c0 0f 42 99 3d 1b 6a 16 3e b9 a9 3e 3a 94 04 7f bd
       0.07483303 0.14688914 0.00072732155 -0.062260225
0000d0 ac 20 dc 3d 90 68 06 bd 6d bb 5f 3d b4 8a ae bd
       0.10748419 -0.032814562 0.054622103 -0.08522549
0000e0 47 39 8c bd d0 db 99 bc 69 9e 0e be ac 51 95 3d
       -0.06846862 -0.018781573 -0.13927616 0.07290968
0000f0 63 e4 05 be ed 69 da bd 94 9f a4 bc a0 79 91 bc
       -0.13075404 -0.10664735 -0.020095624 -0.01775819
000100 29 db ca 3d 0f 6d 98 3d 91 77 fb 3d 40 6d e5 3c
       0.09905083 0.07442676 0.12278665 0.028006196
000110 55 cb 31 bd 4f 95 de 3d aa 9b 13 bc f6 bd fe bd
       -0.043406803 0.10868322 -0.009009281 -0.12438576
000120 c3 5b 36 bd a5 39 ac bd b0 b0 7f 3d 59 26 35 3e
       -0.044521105 -0.08409432 0.06242436 0.1769041
000130 26 2c a9 3d 44 f8 3b 3d 32 a7 e9 bd 0d 59 d0 bc
       0.08260374 0.04589106 -0.11408843 -0.025433088
000140 98 05 a8 bc 89 43 08 3e 8d 5f 0d 3e 5f 14 6c 3d
       -0.02051048 0.13307013 0.13805981 0.057636615
000150 91 d6 a3 3d 99 e0 97 3c 28 f9 88 3d 98 1e b7 3d
       0.0799991 0.018539714 0.06688148 0.08941382
000160 28 91 e0 bd 58 e5 d2 bd 83 b6 9e 3d 6d 0a 47 bd
       -0.10965186 -0.1029765 0.07749655 -0.048593927
000170 91 62 7f bc 86 54 dc 3d 32 1d 14 be e1 3f 5b 3d
       -0.015587465 0.10758309 -0.14464262 0.053527717

cls.bias f4 [2]
000000 0a 77 ca bd dc 88 ba 3d
       -0.09885986 0.09108135
