result/train_2/model.pt (torch, 78535 bytes, 10 tensors)

fc1.weight f4 [400, 3]
00000000: 9816 80be bb45 1f3e f9a4 a7be 4341 583e
00000010: 4b9a 55be 448d 6dbf c35b 68be 6827 eabd
00000020: 94e3 95bd 1040 02bf bb31 f4bd 13be f93e
00000030: cd41 a2be 5c9b 083e b937 2b3e a4f2 12bf
00000040: dc5e e8bd 3fd8 2ebd e8ed 9c3d 182f a93d
00000050: ad8c e4be f629 9d3b a94a 2abf d775 11bf
00000060: a24b 3b3e 7596 c4be 29d0 663c 929a 213e
00000070: 3f9e 04bf 0d7e ba3d c7f0 33bd da68 dabe
00000080: 21d4 b13d 4025 a3be b4ca 383d 8242 2a3e
00000090: e3ce 47bf a0e5 373d 86bf fb3d 06c4 b9be
000000a0: f66a 00bf 78c0 96bd 067a f9be ea49 71be
000000b0: 0282 5fbe 7da0 b0bd 0ed8 ccbe 0177 4b3e
000000c0: 3a9f c0be 00b3 46bd 84e6 acbd e47d 773d
000000d0: 453b 1f3e e491 273e 846f 13bf 41b6 c63d
000000e0: 70bc 14bf f274 6ebe 7a18 f6be 8a0f 57ba
000000f0: a493 b03d 25d2 43bf 65f3 5ebd 4ae6 10be
00000100: 7012 47bd 0f47 19bd d0c9 50be 7aa7 c23d
00000110: 9b60 82be 3032 a43d c20b 2abe 81c6 febf
00000120: 6983 76bd da14 7bbc 7227 d9bd 7b84 253e
00000130: 88d9 22bf 735b d6bd 1ba9 2fbf fac6 973c
00000140: 349e c1be 18bf eabe 1b79 693d 30aa 1cbf
00000150: c27d b8bb 2cc3 abbd 8839 44c0 da16 3f3e
00000160: 4793 dcbd d972 34c0 f22f 05bf b659 303c
00000170: a7e0 383e 5454 3cbf 709a ba3d f6ef 2b3e
00000180: 36a9 0cbf 66ae 66be 20ef 0dbd f45e 5abd
00000190: 24b6 b53d e2eb e1be f801 1cbf 56ee 083c
000001a0: 703b e5be 2fff 573d d638 48be ec0e 9a3d
000001b0: 9920 c8be 8a3a 253e d629 293e d921 adbd
000001c0: af5c 40be 0fc6 52c0 06a8 08bf 728d 3dbd
000001d0: 0248 ca3c bf25 6bbe 1272 3d3c 89c6 5a3c
000001e0: dbc2 20be 388c 05be dc5b c2bd 0c4b 143e
000001f0: 4670 10bf 3947 22be ff88 c6bd 1117 93be
00000200: c289 f5be af58 78be 149d c73d 991a 2b3e
00000210: 7d70 a5bc 07e3 15bf 5942 48bf 1225 bfbe
00000220: 7f4e 97bc 36d3 d63d cb99 003e 70f8 9abd
00000230: 9a37 d3be 8494 78be 360c 343e 1cb1 e3bc
00000240: 2385 debe 8cc0 e63d 9da2 123e 84b8 59be
00000250: 4492 8ebc 17dd 213c 34fc c7be ab72 fd3d
00000260: ec40 a53e 8797 fbbe 5448 28be f999 cabe
00000270: aaf5 233e 9049 0abd fafd 85bb e045 2a3d
00000280: 9800 b53d 78d7 da3d 576a 8fbe d09b bcbd
00000290: 9516 883c 46e4 8e3e 6fff 7c3e 7b70 66c0
000002a0: a784 70be 9f3a f3bd b61e 54bc acdd 263e
000002b0: 8c33 4e3e f495 da3d 0006 da3b 90df d1bd
000002c0: 94ca 60be e7de cbbe 40b3 9bbc e88e 0bbe
000002d0: 3d39 93be 68f4 2c3e 6b7c 553e b152 4d3e
000002e0: dccd 4c3e 9bc8 fbbd bfce 1fbe 4aaa edbd
000002f0: 22fc d1bd 8f4d b7be 73f2 dd3d 4b4e 113e
00000300: 00d2 513e 156c 053e ff93 42c0 5670 533e
00000310: 486e f93d 50de 40c0 d56b 44be 60b9 92bc
00000320: 462b 723c ee1b b6bd 51a4 323e 75dc 833d
00000330: 3c9d 88bd 5c9e 5abf 6ea0 8dbe 035f 44be
00000340: a808 bebc 6c40 803d 10b9 0fbe 367b 433e
00000350: 3836 c0bd e4c8 76be f02b 84be 8138 9d3d
00000360: 689c e4be 0bf8 4f3d ebdc ad3d 6d78 aabe
00000370: 7db5 2dbc e51a da3c 2487 02be ca01 1ebe
00000380: b091 2d3d de94 b8bd df4c 39be 4e4c 52c0
00000390: 7d95 063e 588b 49bf f52e 3ebf 1ed6 21bf
000003a0: ccaf a23b a52f 7bbe f0e0 bfbd d74b e5be
000003b0: 599c 3bc0 6073 f43c 0418 9cbe 3f93 b7be
000003c0: 3806 30be c7a7 2fbe cbf6 39be 9ec5 dfbc
000003d0: 2e79 a73e fa0b 3f3e 51c7 09be d102 20c0
000003e0: b335 d93e ad00 1d3f 45ab 4abf ba41 223e
000003f0: bca6 8d3d 6c1f 4dbf 6b1a 31bd f317 97be
-0.25017238 0.15553944 -0.32743052 0.21118645 -0.2085964 -0.9279368 -0.22691254 -0.114332974
-0.07318798 -0.50879 -0.11923548 0.48777828 -0.31690827 0.13340515 0.16720475 -0.5740149
-0.11346218 -0.042686697 0.076625645 0.082609355 -0.44638577 0.004796262 -0.6652017 -0.56820434
0.1829057 -0.3839604 0.014087715 0.1578162 -0.51803964 0.091060735 -0.043930795 -0.4265812
0.086830385 -0.31864357 0.045115188 0.16626933 -0.7805006 0.04489672 0.122923896 -0.36282367
-0.5016321 -0.07360929 -0.4872591 -0.23563352 -0.21826938 -0.08624361 -0.40008587 0.19869615
-0.3762148 -0.04851055 -0.08442405 0.060422793 0.15549953 0.16364247 -0.57592034 0.09702731
-0.5810003 -0.23286799 -0.4806555 -0.00082039146 0.0862191 -0.7649253 -0.054431338 -0.14150348
-0.048601568 -0.037421282 -0.20389485 0.095046 -0.2546433 0.08017385 -0.16606048 -1.9904329
-0.060183916 -0.015324796 -0.10603227 0.16163819 -0.63613176 -0.10466661 -0.6861741 0.018527497
-0.37816012 -0.45848918 0.05700026 -0.61197186 -0.005630226 -0.083868355 -3.0660114 0.18661061
-0.107702784 -2.8195097 -0.52026284 0.010763576 0.18054448 -0.73566175 0.09111488 0.16790757
-0.54945695 -0.22527465 -0.034651875 -0.05331321 0.08872631 -0.44125277 -0.60940504 0.008357605
-0.4477191 0.052733596 -0.19552931 0.07522377 -0.3908737 0.16135612 0.16519865 -0.084537216
-0.18785356 -3.2933385 -0.53381383 -0.04627747 0.02469254 -0.22963618 0.011562841 0.0133529985
-0.15699331 -0.1304177 -0.09490177 0.14481753 -0.56421316 -0.15847482 -0.09694099 -0.28728536
-0.47956663 -0.2425258 0.09746757 0.16709365 -0.02019524 -0.5854954 -0.7822624 -0.3733297
-0.018470047 0.10489504 0.12558667 -0.07566917 -0.41253358 -0.24275404 0.17582783 -0.027794413
-0.4346095 0.11267194 0.14319845 -0.21261793 -0.01740373 0.009879372 -0.39059603 0.12375387
0.32276094 -0.49139044 -0.16433841 -0.39570597 0.16011682 -0.03376156 -0.0040891143 0.041570544
0.08838004 0.10685629 -0.28010818 -0.092094064 0.01661233 0.27908534 0.24706815 -3.6006153
-0.23488103 -0.118764155 -0.012946775 0.16295499 0.20136851 0.106731325 0.0066535473 -0.10247719
-0.21952277 -0.39818498 -0.019006371 -0.13628733 -0.28754607 0.16890109 0.20848243 0.20051076
0.20000404 -0.12294122 -0.15606211 -0.11604746 -0.10253169 -0.3580136 0.10837259 0.14190023
0.20490265 0.13029511 -3.040283 0.20648322 0.121792376 -3.0135689 -0.1918176 -0.01791066
0.014780825 -0.08892046 0.17445494 0.06438533 -0.06670615 -0.8539789 -0.2766146 -0.19176869
-0.023197487 0.062622875 -0.1403544 0.1908997 -0.093853414 -0.24100071 -0.25814772 0.07676793
-0.44650578 0.05077366 0.084894024 -0.33295003 -0.010602352 0.026624152 -0.12746865 -0.1543037
0.042375267 -0.09012769 -0.1809573 -3.2859073 0.13142963 -0.78728247 -0.742904 -0.6321734
0.0049648043 -0.24529894 -0.09369075 -0.44784424 -2.9314177 0.029840171 -0.30487072 -0.35854527
-0.17189872 -0.17153846 -0.1816055 -0.02731591 0.3270964 0.18656912 -0.1345494 -2.500172
0.42423782 0.61329156 -0.79167587 0.15845385 0.06916568 -0.8012607 -0.043238085 -0.2951046

fc1.bias f4 [400]
00000000: 25dc 0fbf 3a64 d9be 1bac 5e3e 79c9 12bf
00000010: 71af 1abf 099c b23e ef80 b8be f6f4 6b3e
00000020: f856 29bf cdd1 12bf 6c79 a0be 5dc4 ccbe
00000030: 75ce 863e d24f 50be 20b9 a8bc a35f 3fbf
00000040: 508d e2be 21e7 18bf b2cf b3be dea9 4fbb
00000050: 2a1d a1be b800 573d 6d4e afbe 520e 9dbe
00000060: 85e9 a53e 2173 ed3d 86b0 943e 8e74 5cbe
00000070: 0e7d 373e 9c4a 1abf b7d0 dfbc 7dbf e43d
00000080: 90ce ffbd b336 a8be a5bf 19bd 2a54 8ebe
00000090: e51b 1ebf deb4 b83e f065 a33e 3784 87bd
000000a0: 2035 ad3e 67a3 08bf 8ffb af3e 5696 fbbe
000000b0: c64c 583d ff31 20bc 537b efbe 43c4 22bf
000000c0: 34f7 05bf dc92 22bd cddb 12bf c0fe a5bc
000000d0: 8e90 14bf 6dc3 0fbf 1226 85bd 9024 40bf
000000e0: f1e4 9b3e 3220 3abf eae6 dcbe 6ac0 2dbe
000000f0: d900 41bf f369 39bf ddf9 ba3e 2dcf 04bf
00000100: 4a85 0bbf bd24 0ebf 5886 1f3e b179 3dbe
00000110: 2319 f83b 68b5 78be a03b 8e3e 80df 90be
00000120: 9a0d 9dbe f5bd c4bd 9abc 25be 7b94 bb3e
00000130: ea98 a7bd 76b3 083e aae5 ab3e 98d5 77be
00000140: 743a 163f 349e 33bd 411b ccbe d51c 73bd
00000150: e2ce 8fbe 3c92 273e 2f88 a9bd 3442 f4b9
00000160: 35ca debe 6d55 00bf 0cd5 493d 5eee 693e
00000170: 8d93 92b9 eb40 1dbf 0fd2 3bbd 1f94 8e3e
00000180: 6986 82be 4e5f b63e b59a abbe fa90 07bf
00000190: 1e50 dcbe 53f7 e8be 04f5 4fbf 49c5 9fbe
000001a0: f15f d4bd 485a 15be 5404 c33d 3a54 44bf
000001b0: df73 25bf 1037 37bf 1ec2 3dbf e82e e2be
000001c0: c5f7 f8be 0b91 cc3e 03ad cbbe ff1e 10ba
000001d0: 0eda 2cbf 7d26 483c 68f8 a03e 0580 d73d
000001e0: 719d 5a3c d6cc abbd 60af 1cbe 45a0 b53e
000001f0: 8c3e 63be 5afb a83e 0909 28bf 1e69 05be
00000200: c2c7 d5bc a6ec 713e b00f 51be 65eb f23d
00000210: 39ef 58bf ef22 843e d376 19be 2215 943e
00000220: f1d7 34bf 0f01 a93e d14f 21bf aad7 7bbe
00000230: 8294 6fbe be16 9a3e 49a5 2cbf 8aa4 acbe
00000240: b542 d9bd 447c 10bf d05a 93be f165 0f3e
00000250: 93a7 24bf 27f0 acbe d7b4 09bf be08 c4be
00000260: 92f1 8d3e 2339 86be 4c98 32bf 8ed3 8cbe
00000270: 55ae 5bbe 2029 edbc 8102 60bf 636e 1ebf
00000280: 04b8 31be a9fb 123e 742e 8a3e 4c50 0ebf
00000290: 6c8f a7be 5b4b 2abf e90a 1c3f 50ad 11bf
000002a0: e83f 5dbe 01dd 84be 1d8c d13e 1998 95be
000002b0: 714e d73d b197 813e 6a15 38bf d79c 783d
000002c0: 00ec 30be f5e5 8bbe 23bc 0fba f33d 79be
000002d0: 5e5f f33e 3875 14bf 40fa afbd e194 84be
000002e0: 8d7f dcbe b9be 55bf b1f7 a93e f0bf a83d
000002f0: 46cd 773e 0174 babe 85e4 073e 7dbc 02be
00000300: c2c5 61be 9f4f 073e 6bd4 6ebe 3974 a73e
00000310: e2ee b8be 5c4d 6d3e 5343 a1be a2f1 d9be
00000320: f5f7 b3be 4b46 abbd b6c3 5ebe aed3 babe
00000330: 2aa6 a8be cfab e2be 70e9 d2bd 55c4 a5be
00000340: 4056 43be b38c 03bd d4cb f8be 2924 2dbf
00000350: 847a 473e 3f05 95be d447 9bbe 9ef0 353e
00000360: 40fb bfbe beca 603e 208e 25bf 393f c5be
00000370: 2ec7 1ebf 3d5a 94be bb7a efbe bd5d efbe
00000380: 6257 56bf ddc9 49bf 57b2 9abd 1c3e 50be
00000390: b5d1 73bc 135a 66be bad9 34be eed2 b2bd
000003a0: 3806 f8be 7773 b53e cdc0 24bd 9653 f53d
000003b0: 3956 0abe eff0 2ebf 9230 d2bd 8cc3 84bd
000003c0: 39ba a8be f391 3abe 5940 dbbd 28e2 a03e
000003d0: 8aa9 fc3d 8394 8abe 296f 34bf 5b8c a0be
000003e0: 107d 113f a5b7 e6be 7e72 c23e 9e3f 37bf
000003f0: 8638 aabd 2583 1dbe 0efd 80be f76c 44be
-0.5619529 -0.4245928 0.2174534 -0.5733867 -0.6042395 0.3488467 -0.3603587 0.23042664
-0.6614833 -0.5735138 -0.31342638 -0.39993563 0.2632939 -0.20342949 -0.020596087 -0.74755305
-0.44248438 -0.59727675 -0.35119396 -0.0031686942 -0.31467563 0.05249092 -0.34239522 -0.30674988
0.32404724 0.11594225 0.29040927 -0.21528837 0.17918798 -0.60270095 -0.027321203 0.11169336
-0.124905705 -0.32854232 -0.037536282 -0.27798587 -0.61761314 0.3607549 0.3191371 -0.06617015
0.33829594 -0.5337433 0.3437161 -0.49138135 0.05280759 -0.009777545 -0.46773776 -0.6358072
-0.5233033 -0.039690837 -0.5736664 -0.020263076 -0.5803307 -0.5615757 -0.06501402 -0.7505579
0.30448106 -0.72705376 -0.43144923 -0.16967931 -0.7539192 -0.7242729 0.36518756 -0.51878625
-0.5450026 -0.5552481 0.15578592 -0.18503453 0.007571356 -0.24287951 0.27779865 -0.28295517
-0.3067444 -0.09606544 -0.16185227 0.3663672 -0.08183463 0.13349709 0.33573657 -0.24202573
0.5868294 -0.043852046 -0.39864543 -0.05935367 -0.28087527 0.16364378 -0.08277928 -0.00046588632
-0.43513647 -0.5013035 0.049275443 0.22844836 -0.00027957224 -0.6142718 -0.045854624 0.27847382
-0.25493172 0.35619587 -0.3351647 -0.5295559 -0.43029875 -0.45501193 -0.8123324 -0.31205204
-0.10369862 -0.14585221 0.0952231 -0.7669102 -0.6462993 -0.71568394 -0.74124324 -0.44176412
-0.48626533 0.3995441 -0.39780435 -0.0005497783 -0.67520225 0.012216208 0.3143952 0.10522465
0.013343201 -0.08388679 -0.15301275 0.35473838 -0.22191828 0.33004266 -0.65638787 -0.1302838
-0.026096229 0.2362543 -0.2041614 0.11861304 -0.84740025 0.25807902 -0.14986734 0.28922373
-0.70642 0.3300862 -0.63012415 -0.24593988 -0.23396495 0.30095476 -0.67439705 -0.33719283
-0.106084265 -0.56439614 -0.28780222 0.14003731 -0.643182 -0.33776972 -0.53791565 -0.3828792
0.27723366 -0.26215467 -0.69763637 -0.27505153 -0.21453221 -0.028950274 -0.8750382 -0.61887187
-0.17355353 0.14353813 0.26988566 -0.55591273 -0.3272661 -0.66521233 0.6095415 -0.5690508
-0.2160641 -0.25949863 0.4092721 -0.29217604 0.105130084 0.25311044 -0.71907675 0.06069645
-0.17277527 -0.2732388 -0.00054830516 -0.24340038 0.47533697 -0.5799136 -0.08592653 -0.25894836
-0.43066064 -0.83494145 0.33196786 0.08239734 0.241994 -0.3641663 0.13270767 -0.12767215
-0.22048095 0.13213967 -0.23323219 0.32705858 -0.36119753 0.23174042 -0.31496677 -0.42567164
-0.35150114 -0.08363017 -0.21754345 -0.36489624 -0.32939273 -0.44271705 -0.10298431 -0.32376352
-0.1907587 -0.032116603 -0.4859301 -0.676333 0.1948033 -0.29105565 -0.30328238 0.1776757
-0.37496376 0.2195234 -0.6466999 -0.38524798 -0.62022674 -0.28975096 -0.46773323 -0.46751204
-0.83727086 -0.78823644 -0.07553547 -0.20336193 -0.014881541 -0.22495298 -0.17661181 -0.08731638
-0.48442245 0.35439655 -0.04022293 0.119788334 -0.13509454 -0.68336385 -0.1026317 -0.0648261
-0.32954577 -0.18219738 -0.10705633 0.31422544 0.123370245 -0.2706643 -0.70482117 -0.31357083
0.56831455 -0.45061985 0.37977976 -0.7158145 -0.08311562 -0.15382059 -0.25193065 -0.19182192

fc2.weight f4 [20, 400]
00000000: cc62 043d 6e1a 733d c49a a03e 70c6 1b3e
00000010: 1cca 0d3e 1422 af3e 21db 483d 51f7 d83c
00000020: 9fa9 5abc 891b 633d d633 40be e722 5a3d
00000030: 7ab6 c03b 3082 8f3b 9bb6 383d fba2 6a3d
00000040: f26c 35bd a410 04bd 8f2b ffbb 4bef ae3c
00000050: 39ee 22be 2725 943e d7d3 bd3b d8a3 44be
00000060: 32ce bd3e 36dd b53d 54ad c4bc d1fb b8bc
00000070: 774b 7abe 51b3 5bbe 2af6 833e f9b6 a83c
00000080: 744a 71bc cf9c a33c dcf2 16bd 1b8e 30bd
00000090: 2aaf 143d 985e 4e3c 1007 b13e 535f 333d
000000a0: 7a35 0f3f 70c2 b03c 3705 4bbc 5978 7f3e
000000b0: 5610 5c3d 3b51 923e dff6 53bd a180 003d
000000c0: 8d0c 7a3d f22a 883d 512c 913e c1bc 2a3d
000000d0: 1191 1fbd 66ea f93c 8c48 7bbc c1a9 97be
000000e0: 1e71 d43e e5a9 b9bc 32ed c33c c28c fc3c
000000f0: 4c42 823a 46c1 373d cdca 3f3e 75b9 db3c
00000100: eb45 9dbe c7df 86be 516a d73e 2ac6 b83c
00000110: f83f 0abd 07cf 2cbd de6e 4cbb fa60 93bc
00000120: 87b4 e83c 4f53 d7ba f54f 0b3d c8a9 913c
00000130: 2daa bdbd 589b e73d 91d0 e6bd 6cb9 13bc
00000140: c758 5e3f 769e 14be 434c 44be ffc7 a6bd
00000150: 040c e6bd 9f0d 0fbe b7bc 88bb 2dad a03c
00000160: 5246 8cbe e66a fa3c 80f2 04be edc0 da3d
00000170: 8e7c 503d 0f63 cd3d 040d 953e 8d01 8a3d
00000180: 2a55 86bd 99cb 8ebc 991f dc3c 6f59 a53c
00000190: ec08 a0be 9771 243d 79a0 b1bd 9482 1dbd
000001a0: 39bb 1c3e 17be 2dbc 328e 853e 1b38 4b3d
000001b0: ba40 07bd 10aa f8bd f00d 743d a137 3f3d
000001c0: 80d3 c43e 6b50 563e 7a48 84be e422 86bc
000001d0: 5e2e f73c 4f5e e7bd b76a 2cbe a3de 4f3d
000001e0: 51ce b8bc b946 9cbe f07c adbb d6e0 2a3f
000001f0: d8fb 4dbe cb76 5c3d fee0 bc3c 7a56 713d
00000200: 7ee7 043d dc42 9e3e 6e87 22bd eef1 053c
00000210: 76bb e13d d1f5 adbd f82e 5dbc f2cd 8bbe
00000220: 9836 473b dd99 173f 137c 423c 0e3f 153d
00000230: 6060 eabc 4ca5 3dbe 878d d33d fcb2 373d
00000240: 01ba 2d3e cecb c13d 5b0b 0cbe cdb3 c03e
00000250: 61b2 5a3d ca5b 26bc 4a59 bd3c d000 87be
00000260: 6876 8c3d 3956 c6bd 2691 a83d c76f 4f3d
00000270: 91b8 8abc f4c5 513c 6f5a 163d 2e33 2abd
00000280: da7a 38bd dfc7 98bd 64a1 033e a946 303d
00000290: 4adc 13be 872e 373d 7038 9e3f 2321 22bc
000002a0: e9d6 253c 3646 a03a 92c2 e83d 40c8 f93c
000002b0: 6751 ab3e 27dd 05be 64fb 16bd 631e 893e
000002c0: 9b78 b0bb ba8b 33bd 7a02 13bb 2774 ba3c
000002d0: 444a 343f fe41 80bd 9561 0ebd 1f97 243d
000002e0: ff3c c7bd b152 993d 68de 423e 8a29 b63d
000002f0: 3217 c13e 1547 adbb 2867 293d dbda 9abe
00000300: ffeb 373d 2614 b13d a088 c5bc 33a7 81be
00000310: 165f 08bc 3fef 4f3f b72c f33c 5f67 dcbc
00000320: 312e ca3d 3a3b 633c 5980 b33e e7fa f83c
00000330: 0b45 d33c 48fd 5bbd 676a 16be 6fb8 42bd
00000340: 7246 a23d f8cc 403b 57fe 483c c94c 71ba
00000350: 9f4c e3bd 885c 823d 4e4c 813c 4905 053d
00000360: 3f7c 283d 1204 0d3d e7ec e23d be27 283d
00000370: 3b82 0ebb 0fa7 303c 01d7 0dbe 0b59 1dbd
00000380: aa46 913c ebac a0be cfa9 a1be a787 993e
00000390: 4661 3a3d e0c2 473e 11bc ca3d 9ffb 853d
000003a0: 0411 aabd c7fe d03e cd03 acbd 0634 003f
000003b0: 7dd6 66be 6718 c23e 1f53 b43c b2a8 8a3d
000003c0: 401a 403e 3efb 0e3e 7ca1 cf3b 89d9 5c3f
000003d0: f54a 7e3e b2a4 9d3d 8f65 7c3e 7e6d 693e
000003e0: 8fe4 1f3f 6f1b 6abe 1965 2e3f 5a3b b43e
000003f0: faaf 4c3c 37e2 18bc d0cd 4638 f25d 2dbe
0.032320783 0.059351377 0.31368077 0.15212417 0.1384663 0.34205687 0.049037103 0.026485117
-0.013346105 0.05544618 -0.18769774 0.05325594 0.005881128 0.004379533 0.04509602 0.057284337
-0.04429335 -0.032242432 -0.007787175 0.021354338 -0.15911187 0.28934595 0.0057930755 -0.19203126
0.37071377 0.08880083 -0.02400843 -0.022581013 -0.2444285 -0.21455123 0.25773746 0.02059506
-0.014727224 0.019972233 -0.036852702 -0.043104272 0.036299862 0.012595795 0.345757 0.04379208
0.55940974 0.02157709 -0.01239138 0.24948253 0.053726517 0.285776 -0.051749106 0.03137267
0.061047126 0.06648816 0.28354123 0.041683916 -0.038956705 0.030507278 -0.015337121 -0.296217
0.41492552 -0.02266402 0.023916814 0.030828837 0.0009937971 0.044862054 0.18729706 0.026821831
-0.30717406 -0.26342604 0.420733 0.02255543 -0.03375241 -0.042189624 -0.0031194012 -0.017990578
0.028406395 -0.0016428026 0.0340118 0.017781153 -0.09260974 0.11308926 -0.1127025 -0.009016376
0.86854213 -0.14513573 -0.19169717 -0.08143615 -0.112327605 -0.1397004 -0.004172887 0.019613827
-0.273974 0.030568551 -0.12983131 0.10681329 0.050900035 0.100286596 0.29111493 0.06738577
-0.065592125 -0.017431067 0.026870536 0.020184247 -0.31256807 0.04014739 -0.08673186 -0.038454607
0.15305795 -0.010604403 0.2608505 0.049614053 -0.033020712 -0.12141812 0.059583604 0.04668391
0.38442612 0.20929115 -0.25836545 -0.016374059 0.030173477 -0.11297285 -0.16837583 0.050749432
-0.022559317 -0.30522707 -0.0052944347 0.6674932 -0.20115602 0.053824227 0.023056503 0.05892036
0.03244733 0.30910385 -0.039679937 0.008175356 0.110220835 -0.084941514 -0.013499968 -0.2730556
0.003039753 0.5921915 0.011870402 0.036437087 -0.028610408 -0.18520087 0.103297286 0.044848427
0.16965486 0.09462701 -0.13676207 0.37637177 0.05339277 -0.01015372 0.023113865 -0.26367807
0.06858522 -0.096844144 0.0823081 0.05064371 -0.016933711 0.012803543 0.036707338 -0.041552715
-0.045039035 -0.074599974 0.12854534 0.043036137 -0.14439502 0.044722106 1.2360973 -0.009895596
0.010122039 0.0012227956 0.11365236 0.030490994 0.33460543 -0.13072644 -0.03686084 0.26780996
-0.005385471 -0.043834426 -0.0022431896 0.022760464 0.7042582 -0.06262587 -0.03476103 0.040183183
-0.09728431 0.07486475 0.19030154 0.08894642 0.3771301 -0.0052880147 0.041358143 -0.30245098
0.044902798 0.08646421 -0.024113 -0.25322875 -0.0083234515 0.81224436 0.029684408 -0.02690476
0.098720916 0.013869101 0.3505886 0.030393077 0.025789758 -0.053708345 -0.14689027 -0.04753917
0.079235926 0.0029419046 0.012267671 -0.0009204862 -0.11098599 0.06365305 0.015783455 0.032475743
0.041134115 0.03442771 0.11080342 0.041053526 -0.0021745104 0.010782017 -0.13851549 -0.038414996
0.01773389 -0.31381926 -0.31574866 0.29986307 0.045502923 0.19507933 0.09899152 0.065421335
-0.08304027 0.4081938 -0.083991624 0.5007938 -0.22542758 0.37909243 0.022012291 0.06770457
0.18760014 0.13963029 0.006336389 0.8626943 0.24833281 0.07697429 0.24648117 0.22795674
0.6245813 -0.22862028 0.6812301 0.35201532 0.012493128 -0.009331278 4.7398556e-05 -0.16930369

fc2.bias f4 [20]
00000000: 44db 52be 4c22 08bf f7f1 093d 5097 0fbb
00000010: 9675 f2bd 2082 1cbd e304 a3be 9a6c 90be
00000020: 9a6f a6be 1f4b c9bd 81f1 38be c73d 21bf
00000030: 601c edbd 4828 8ebe d78d c9be d4bb c8be
00000040: 4a50 5dbf 3569 16be 2249 a6bc 9f2f 86be
-0.20591456 -0.5317733 0.03367802 -0.0021910258 -0.11838834 -0.038210034 -0.31839666 -0.28207856
-0.3250702 -0.09828781 -0.18060876 -0.6298489 -0.11577678 -0.27765107 -0.39366028 -0.392058
-0.86450636 -0.14688571 -0.020298544 -0.26208207

fc3.weight f4 [400, 20]
00000000: 1220 053e 5710 ef3d 296f c23d 20dc c0bd
00000010: 4676 90bd b633 e53d d846 ddbd 66ea 313e
00000020: 6be2 bb3d 29f6 2c3e 78a4 043e d943 d43d
00000030: 8a27 81bd 6147 ab3d 3ebe b83e cbe1 233e
00000040: 3c9d 653e 1f52 0c3e 163b 903e 403f 7a3e
00000050: 8b14 b2bd b543 d23e 0781 bb3e 9f54 8bbd
00000060: dfae a3bd 7804 5a3e 2b34 973e 68b6 24bc
00000070: e4cb e23e a896 9a3e cfee a83d 0c4e 4d3e
00000080: 3c56 903e 4ce9 acbe b77b 513d b36d 083e
00000090: 221b 5dbb 8f90 8bbe 54ef ad3e 3771 253e
000000a0: ea5b a1bd ba14 383d 363b 253e 3c62 bdbe
000000b0: 01d7 783d 55e7 eb3e 1f8b 643e d676 8dbe
000000c0: fabc e53e 1a8e 6dbe 4f14 ef3d 8f55 f8bb
000000d0: 5429 7abe 1abf eb3e 74ff 6bbd a0e0 6abe
000000e0: fad3 6b3e 4d7b bf3c 2e50 7bbe 73bf dabd
000000f0: f424 0c3e cd8b 8dbe 3dd0 f03c 7cd9 84be
00000100: 2d06 4ebd 5dc2 693d 822b 2b3e f71f 43bd
00000110: b50f b0be 299e f23e 9826 183e 1e56 06be
00000120: ac5e 223f fce8 a7bd 2104 a23e a74a 223d
00000130: c4dd 883e bc2c 93be b1ee 58be 29f4 913c
00000140: 20f1 cd3c c561 a4bd 7404 ff3d 5b7c b63d
00000150: 129d c93d 6e93 5bbd 9955 8cbe a277 2dbe
00000160: 7d93 4bbe 6c45 203e 87e0 043f 37b4 4d3e
00000170: 9a17 a33e bc82 efbd a33a 883d 40e1 72be
00000180: 56f7 5fbc 8352 803d ffbc 0b3e f955 bebc
00000190: db59 203f be47 4b3d 62cb d83e bc2b ecbe
000001a0: c9d8 013f 6a62 2a3e d114 d03c 5cd5 8b3e
000001b0: 2ced 17be ee9d 02bf 8f8b b4bd 98ae f63d
000001c0: 70f9 0dbf 12f6 ad3e 76ef c2bd 840b 1c3e
000001d0: f2ad e73c 4292 8d3e 31b8 ffbe 7d5f d13d
000001e0: a8a7 f2be 8396 32be 4f94 9e3c cbeb 643e
000001f0: 2a9b 1f3d c829 acbe 2c77 a63d 74eb 95bd
00000200: 72f8 26be 0d45 b4be a460 c5bd e087 2fbe
00000210: 67a4 523e c74c 5d3e 9a1f 1b3d b35d b43d
00000220: 941d e73e 7be8 d4bd 3491 113f b4e7 4bbd
00000230: b65b c33e 54a5 debd b298 fb3d 6b01 91be
00000240: 8543 793e 47fc afbe df10 6bbd 8483 b73e
00000250: 0fd4 dabe 5db1 503e 7189 0fbe b9e2 e53c
00000260: 003d ee3e d05e 363f f89c 883e f6cb 413f
00000270: 2594 1a3e 78b5 b93e b509 a4be 9c0f d43d
00000280: 9568 ee3e 4a11 da3c fc87 4dbe 3447 b0be
00000290: cc19 06bd 21fe a8be aeb3 483a fc0b c1be
000002a0: 3b42 38bd 4949 41be d72d 03be 7434 ad3e
000002b0: 42a9 2bbe e379 fb3d 71c9 e43d 558b 753d
000002c0: 84e1 22be 8a2c 95be 7481 03bf 0acd 8c3e
000002d0: 50aa c83e 74ea d53c 027c 13bd 6c77 303d
000002e0: a4e5 f7bd 82fc 39bd b158 44be c00a 93bd
000002f0: 3f3d 1c3f ec68 92bd 48b0 d5bc 37a1 31be
00000300: bee0 383f 575c 053d b7c8 62bd 1b5a 933e
00000310: 860f 283e 8a52 b3be 0600 cbbe 40e9 1cbe
00000320: 1a80 bebe 5e85 823d 1b28 cd3e 1bea 183e
00000330: d59b 3d3e a3f7 a13e e5fe 4b3d 63e4 c93d
00000340: bfbc c83c 82ef eabe a14b 9d3e 38ea 393e
00000350: b00b 153d c9cc 30be 4404 d63c 7113 363c
00000360: 201e b13d 1719 f23e fcc0 013f d1e9 603d
00000370: f67f 6c3d f5fc c53d 8482 21bc 86a9 a43e
00000380: 7ae5 41bc 2ac3 12bc 2614 1b3e 68ad 22be
00000390: 17b5 523e 61db 3ebe 7a4f cc3e f8a4 1bbe
000003a0: a3fb 16be 5556 2bbe 7efa 10be 9b33 b5bd
000003b0: bf2a 1e3e a567 88bc 3c51 d23e 5dd6 9cbd
000003c0: d75a 65be 870b 6c3c 5444 eb3c 3187 cbbc
000003d0: 7911 8bbd f503 48bd e935 40bd b9ed 4b3f
000003e0: e3a5 6a3e 1d99 50be c5c3 48be d0a7 583e
000003f0: 5a0d b4bd 6dfc 823e b832 9abd 1f1d a23d
0.13000515 0.116730385 0.09493858 -0.094169855 -0.07053809 0.11191504 -0.10804528 0.17374572
0.09174045 0.16890778 0.12953365 0.103645034 -0.063063696 0.08363224 0.36082643 0.16004102
0.22423261 0.13703202 0.2817008 0.2443819 -0.086953245 0.4106728 0.36621878 -0.068032496
-0.079923384 0.21290767 0.29531989 -0.010053255 0.4429618 0.30193067 0.08248674 0.20049304
0.28190792 -0.3377174 0.051143374 0.13323097 -0.0033738096 -0.27258727 0.33971655 0.1615647
-0.07878859 0.04494164 0.16135868 -0.3698901 0.06075192 0.4607493 0.22318695 -0.27629727
0.4487074 -0.23198739 0.116737954 -0.0075785588 -0.24429828 0.46044236 -0.057616666 -0.2293725
0.23030081 0.023374224 -0.24542305 -0.10681047 0.13685971 -0.27645722 0.02939617 -0.25947177
-0.05029886 0.057070125 0.16715816 -0.047637906 -0.34386984 0.47386292 0.14858472 -0.13118789
0.6342571 -0.08198735 0.31643775 0.039621975 0.26731694 -0.28745067 -0.21184804 0.01781662
0.025139391 -0.080264606 0.12452021 0.08910438 0.09844412 -0.053607397 -0.27409056 -0.16940168
-0.19880481 0.15651482 0.519051 0.20088278 0.31853944 -0.116948575 0.06651809 -0.23718739
-0.013669809 0.06265738 0.13646315 -0.023234354 0.6263711 0.049628966 0.4234267 -0.46127117
0.5072141 0.16639104 0.025400551 0.27311218 -0.14836568 -0.5102223 -0.08815681 0.1204502
-0.55458736 0.339768 -0.0951833 0.15238768 0.028281186 0.27650648 -0.49945214 0.10223291
-0.47393537 -0.17440228 0.019357828 0.22355573 0.038966335 -0.33625627 0.08128199 -0.073203
-0.16305712 -0.35208932 -0.09637573 -0.17141676 0.20570527 0.2161132 0.037871934 0.08806934
0.45139754 -0.10395905 0.5686219 -0.049781516 0.38155907 -0.108713776 0.12284984 -0.28321394
0.24342163 -0.3437216 -0.057389136 0.35842526 -0.42739913 0.20380159 -0.14017273 0.028062211
0.46530914 0.7123842 0.26682258 0.75701845 0.15095575 0.36271262 -0.32038656 0.1035454
0.46564165 0.026619572 -0.20071405 -0.34429324 -0.032739446 -0.33006385 0.0007656169 -0.37704456
-0.044985037 -0.18875612 -0.12810455 0.3382908 -0.16763785 0.122791074 0.111712344 0.05994733
-0.1590634 -0.29135543 -0.51369405 0.27500182 0.39192438 0.026112773 -0.036006935 0.04308264
-0.12104347 -0.045406826 -0.19174458 -0.07179785 0.61030954 -0.071489185 -0.026085034 -0.17346655
0.7221793 0.032558765 -0.055367198 0.28779683 0.16412172 -0.3502391 -0.39648455 -0.15323353
-0.3720711 0.06373094 0.4006966 0.14933054 0.18516476 0.31634244 0.049803633 0.098580144
0.024504064 -0.45885855 0.30721763 0.18155754 0.0363881 -0.1726562 0.02612508 0.011113034
0.08648324 0.47284767 0.50685096 0.054910485 0.05773922 0.09667388 -0.0098577775 0.32160586
-0.011834497 -0.008957664 0.15144405 -0.15886462 0.20576893 -0.18638374 0.39904386 -0.1519965
-0.1474443 -0.16732152 -0.14158055 -0.088477336 0.15445994 -0.016650984 0.41077602 -0.07658074
-0.22397934 0.014407045 0.028719105 -0.024844738 -0.06790442 -0.0488319 -0.046926413 0.7965961
0.22914843 -0.20370908 -0.1960593 0.21157765 -0.08791609 0.2558321 -0.07529205 0.07915711

fc3.bias f4 [400]
00000000: 15b3 ddbe fd02 c1be d17d cbbe 9f89 75bc
00000010: d876 113e 4202 133e 0d9d 52bd 05ac 38be
00000020: 69a1 8cbe 1c7c 313d cba0 debe 838a cbbe
00000030: 96c4 c5bd 0388 9abd 0b2e 28be 29af ad3e
00000040: a1ee 86be d9a9 64be e320 b1bd 67e2 99be
00000050: 5147 98be e31a 87bd e8fc dfbd 307e 4abe
00000060: f8a8 ac3d 4856 5bbd 3457 0fbe 9444 09be
00000070: a0fc 20bc a5d9 60be d577 0dbc e8cb ba3e
00000080: a2e5 d9bd 1f06 9fbe 8a9f c2bd 4c0d 94bd
00000090: 1980 cbbd 8057 bcbe 9c50 89be e140 17be
000000a0: 582a c2be 83b4 d5be b4ef 6fbe 21ce 83be
000000b0: 8d77 a4be 3343 d2bd f785 1c3e bb79 61be
000000c0: 945a 85bc 3799 96be fd3a 673e 8edd 2a3d
000000d0: 9290 d5bd 0706 d9be 4ce5 1abe 30c1 0f3b
000000e0: 7516 d8bd 9abe 8fbe f4b8 e8be 84f1 03be
000000f0: e2cf 06be 6360 dabd aa6a 9bbe f604 89bd
00000100: 6437 9fbe 60c4 a4be 6f95 d2bd 7f2e 6bbe
00000110: 80f7 35be d746 1bbe aca7 a5be 00c1 a13c
00000120: 2dac 7d3c b770 07bd c83e 91bd f60f cbbe
00000130: 6ec1 12be d8de 61be b147 a8be 09bc d9be
00000140: bf2f b3be d041 d4bd 384d 2d3d 8c36 173a
00000150: 65f7 ccbe 54f3 b4be c29a 63be 6831 90bd
00000160: 8ad8 c6be 5de1 4cbe 3d35 87be d3b8 b4bd
00000170: a53b b23d 3089 b13c 506d b6bd cc3e 2fbe
00000180: 4ce6 6ebe a697 bcbd ba2f 66be 0e98 83be
00000190: 6f95 e73d 3376 f43c 2d65 2a3d 59a3 20be
000001a0: 04a1 34be 0e2f 94be ca0f c8bd fbff 24be
000001b0: 9b17 6a3d 6a04 1cbe bba7 94be 2a78 34be
000001c0: 9461 24be 43de ab3c 3a82 aabd 0801 d23c
000001d0: 2d7d ddbe 14d3 61be 368e acbe cded 90be
000001e0: 7a22 dabe afbb 383d 1c80 8abe 5141 303e
000001f0: 9455 84be 8ce5 423e b318 60bd 144d febe
00000200: 34f7 aabe 51f1 e8bd ff6f 0cbe a533 d8bd
00000210: 5aa4 abbd b370 c8bc 68ce 60be 5c91 09bd
00000220: 5e8c 37be 2d70 8ebd e3ca cdbe 6626 afbe
00000230: 7716 a2be 0639 f6bd b682 e1be 6848 06be
00000240: 7ede 87be 972a 19bd b125 d5bd 815a 06be
00000250: 74c2 91bd a024 8bbe 67bc 06be 7af3 70be
00000260: 79ec 98be 8480 a9be af54 f2be 657f 0abf
00000270: 266d 6cbe 7ae2 28be e3a9 40be 23c7 8fbd
00000280: 580e 8bbe c083 50be 11c0 d0be 9f73 e83d
00000290: c1c4 793d 70cc 53bd 6b0c c7be 1478 bcbc
000002a0: b0f4 a6be 1b78 6c3c 5747 a3be b842 b2be
000002b0: bab2 7139 1015 2fbe a2e2 42be 44d9 37bd
000002c0: a04e 94be 4cbd e1be 7b78 9fbd 4bd7 96bd
000002d0: e6b6 7fbe 199e 8fbd 8b07 8a3e 76a8 e9bd
000002e0: d598 4dbd 7861 a73b 4e32 bc3e 3b0b d1be
000002f0: 2b1b 58be 5378 55be ba6a 64bd da90 a8bd
00000300: 2574 8ebd db49 9fbd f638 c0bd 10b5 1bbd
00000310: a087 38be 933b 9bbe 4507 63be 0fba 84be
00000320: cfb0 7fbe 3913 b2be dff0 a8be b0a9 afbe
00000330: 1d49 09be 7bfc b0bd b73f 03bd b16e ecbc
00000340: dc3c c6be 0628 a9bd 913a 15bd cc77 91be
00000350: 7157 883c deb5 46bc 0159 d9be a491 ddbd
00000360: 14ce 27be cd58 0bbe fbd3 12bf 52fd d4be
00000370: da74 73be db1a 383d 8295 f5bd 398c 9fbe
00000380: 996d debd 3ff2 1bbe 414c 46be 5c95 dabd
00000390: c61a 82be 2c23 09bf 2f72 3bbe 1698 f33d
000003a0: 1182 063b a3bb 7b3b 52ff 26be d00e 81be
000003b0: f3b2 0abe 1326 41be 5cb1 8bbd 9323 bcbe
000003c0: 79e4 01be c24f d4bd f28f 6b3c 9fe4 32be
000003d0: b9f1 54be 68e1 1fbe 1425 233e 02c4 89be
000003e0: 28ac f7be f3e8 e63c 5a7b 8ebe a5a4 ecbd
000003f0: 2923 1dbe d0cd c7be 8e1d 35be 9921 fbbe
-0.4330069 -0.37697592 -0.39744428 -0.014986425 0.14205492 0.1435633 -0.051419307 -0.1803437
-0.27466896 0.04333125 -0.4348205 -0.39754114 -0.096566364 -0.075454734 -0.16423814 0.339227
-0.26353934 -0.22330417 -0.08648851 -0.30055544 -0.2974191 -0.06596925 -0.1093691 -0.19774699
0.08430666 -0.05354908 -0.13998109 -0.13405067 -0.0098258555 -0.21958025 -0.008634527 0.36483693
-0.10639502 -0.31059358 -0.09503086 -0.07229099 -0.09936542 -0.36785507 -0.26819313 -0.14770843
-0.3792293 -0.41739282 -0.23431283 -0.257432 -0.3212246 -0.102667235 0.15285479 -0.22019093
-0.016278543 -0.2941377 0.22581096 0.041715197 -0.10427965 -0.4238741 -0.15126532 0.0021935217
-0.10551158 -0.28075105 -0.45453608 -0.128851 -0.13165238 -0.106629156 -0.30354816 -0.06690399
-0.31096947 -0.32181072 -0.102824084 -0.22966956 -0.17770195 -0.15163742 -0.32354486 0.01974535
0.015482944 -0.033066478 -0.07092053 -0.39660615 -0.143316 -0.22057664 -0.32867196 -0.42526272
-0.34997365 -0.10364115 0.04230997 0.0005768321 -0.40032497 -0.35341895 -0.22227004 -0.070406735
-0.3883708 -0.20007844 -0.26407805 -0.08824315 0.087027825 0.021671861 -0.089075685 -0.17113799
-0.23330039 -0.09208612 -0.22479144 -0.25701946 0.11307799 0.029841518 0.041600395 -0.15687312
-0.17639548 -0.2894215 -0.097686365 -0.16113274 0.05715142 -0.15236059 -0.29034218 -0.17623964
-0.16052848 0.020980006 -0.0832562 0.025635257 -0.43259564 -0.22053176 -0.33702248 -0.28306428
-0.4260443 0.045100864 -0.27050865 0.17212416 -0.2584654 0.19032878 -0.054711055 -0.4966818
-0.33391726 -0.113741525 -0.13714598 -0.105567254 -0.08380957 -0.024467802 -0.21953738 -0.03358589
-0.1792464 -0.069549896 -0.40193853 -0.34208983 -0.31657764 -0.12022595 -0.44045037 -0.13113558
-0.26536936 -0.037394132 -0.1040758 -0.13120462 -0.07117167 -0.2717638 -0.13157807 -0.23530379
-0.29867914 -0.33105862 -0.47330233 -0.5410064 -0.23088512 -0.16492644 -0.18814807 -0.07020404
-0.2715938 -0.20362759 -0.40771535 0.11350178 0.060978655 -0.05170864 -0.38876662 -0.023006476
-0.32608557 0.014432932 -0.31890365 -0.34816527 0.00023050132 -0.17097878 -0.19031766 -0.044884935
-0.28966236 -0.44089735 -0.07786652 -0.073652826 -0.24972114 -0.070125766 0.2695888 -0.114090845
-0.05019458 0.0051080547 0.3675713 -0.4082888 -0.21104114 -0.20846681 -0.055765845 -0.08230753
-0.069557466 -0.07777759 -0.093858644 -0.03801447 -0.18020487 -0.3031889 -0.22170742 -0.259232
-0.24969791 -0.3478029 -0.3299627 -0.3430915 -0.13406797 -0.08641907 -0.032043185 -0.028861376
-0.38718307 -0.08259587 -0.036432806 -0.2841171 0.016643258 -0.012128321 -0.42450717 -0.10818794
-0.16387206 -0.13608094 -0.57354707 -0.41599518 -0.23775044 0.044947486 -0.11991407 -0.3116167
-0.10860748 -0.15229128 -0.19365026 -0.10673019 -0.25411052 -0.53569293 -0.18305276 0.118942425
0.0020524303 0.00384114 -0.16308334 -0.25206614 -0.13544826 -0.1886218 -0.06820938 -0.3674589
-0.12684812 -0.10366775 0.014377581 -0.17470025 -0.20795335 -0.1561333 0.15932113 -0.26907355
-0.48373532 0.02818725 -0.27828485 -0.11554841 -0.15345444 -0.3902421 -0.17687055 -0.4904907

fc4.weight f4 [2, 400]
00000000: 00a7 643e 29ee dd3d f63d 3a3e cacb 013d
00000010: e8b4 953d eab8 8d3e d4e8 a23e d7e8 b13c
00000020: 5192 d33c dd49 eb3e 7ae0 c23d 6462 4abc
00000030: 0439 8d3e ca7d e83d 04a2 423e 44bc c23d
00000040: d0ea c03d dc48 a63d 876e 0b3f d10e 3a3e
00000050: 78fd bc3e b0c5 2c3e 1502 8e3e 3874 b2bd
00000060: d6bb 2c3f f69d bb3e ca8d b53d d767 e73e
00000070: f3b4 853e 0c39 ed3e 1c33 d0bc 98dd 143e
00000080: 2272 ba3e 10f2 7d3c 0a08 343e 38ac d73d
00000090: 62b4 f43d bdb9 f7bd a9a0 a43e 404f ec3e
000000a0: e5a1 293e 0453 973d 8903 013e d169 8d3e
000000b0: a4ec 8f3e 1b3d bcbd b184 623e 7c23 143e
000000c0: 0a64 ab3e e38f 5f3d 1bdb 573e 9c15 663d
000000d0: bb5a c73e 9f6e ab3c 52bd 42bc c83d f63e
000000e0: 0c37 293f b527 b0bd d128 58bc 0876 63bc
000000f0: 8ab5 903e 6b8c e73d bcbc c13d e5d2 a9be
00000100: 18c6 0c3e 93d4 123c 7bbc 5f3e 863d d93d
00000110: e0f5 a93e f40e abbe abf9 8dbc 7bca b93e
00000120: 9105 923e 3184 8d3d be73 693e ed80 d4bb
00000130: 728e 873d 0bee 643c 5d50 913e 6461 3f3e
00000140: 758b e53e 8731 ce3e dd52 5a3e ae2c c73d
00000150: 5ba9 863e 4438 e23e 2c06 263d b50b 203e
00000160: d56f 6c3e 6622 a03e 167d 503e 7cf0 e23d
00000170: 41ba 513d dedf 5e3e b78e abbd b85d 303d
00000180: ee73 153e 9a34 573e bdb1 943e bc48 183e
00000190: cd9b 2bbf 6c43 1a3e 0269 513e e84e 883e
000001a0: c6ea 583d 9e6b df3e ac33 3d3e a3bb 02bc
000001b0: 2e8a e43d d909 10be b4bd 2a3e ec7f c23e
000001c0: 46e5 733e 2ae0 1e3d d3e6 8b3d 0d57 b93e
000001d0: a7e8 b73d b455 bb3e f554 c03e 8789 833e
000001e0: a818 563e 7c11 b33e 9eca c03e 1a98 493e
000001f0: f694 b53d 8ca1 383e c1e5 873e 4fc7 a33d
00000200: dcd0 53be d23a d83b ebd3 493e 4e42 d93d
00000210: f950 363e 43d0 203f 4cdb a8bb 4126 f43e
00000220: 3c1c 8d3e adfa 543e 0d11 c73d 238f b43e
00000230: a632 3bbd 8ecc 9b3d 1e33 663e 48b8 e83c
00000240: 87ae f73e abbd 323f a2f3 683d 5768 133f
00000250: abbd 69bc 6b65 c33e 83e5 173e 46c2 093b
00000260: b88c 253e e0d6 a13e a17d 34bd 84fd 633e
00000270: 8b0e bd3c 85d5 9d3e 725c 103e 7719 9f3e
00000280: 8b61 9a3e ab06 d33e 5a64 b63b 8acc b03e
00000290: 1190 473e 5294 a23d df6b 193e 811c fb3e
000002a0: a837 0a3e deeb 633e 57ad 073e dd04 033f
000002b0: c7d2 2f3e 8239 cfbd 36a0 263e 816b 3e3e
000002c0: 5c41 28be 990f 763d 56a2 21be 9c2c c13e
000002d0: 3b1f f23d 9263 4bbd 2813 853e a3c7 f93d
000002e0: 2d4a f73c 56da 133d 0943 a9be fae9 f23d
000002f0: 55c2 e43e e768 913e 2131 0f3f f5c1 4c3e
00000300: 893e 243e be94 25bd bbc9 f73d e591 d23d
00000310: be50 913e 3272 0cbd 51c4 3b3e 47a2 a93e
00000320: 378e 9fbd abf9 bc3e ac22 a93e 8e02 fd3c
00000330: 8cbd 813e cd10 6c3e 1eda a43e 134a 753a
00000340: 10e6 dc3d 3d52 033e 0c5c 143e c17c 863e
00000350: 1d26 163e bcaf 473e e87d b83a d71b 643e
00000360: bdb5 813e 490c 333d e37f e7bd a288 263e
00000370: 72c0 8e3e d38e 2d3e e9d3 033e d74e 1ebc
00000380: fc36 fc3e 3ccf f63d c77a f03d 0e42 f63e
00000390: e6ed 1b3e ee52 85bc 0370 a83d 6adb 7f3d
000003a0: 5d64 3c3d caa7 a83d ef26 633e 1975 2c3e
000003b0: 8b21 1e3e 8024 313c 4564 9d3e 7b76 9f3e
000003c0: 29ce 393e c43c ad3d 459a 483e bb5b 6c3d
000003d0: ff1c ce3e c24a 873d b9b0 c5be 6db9 db3d
000003e0: f04b 7e3e b8ea 003e 96ed d83c c557 e13e
000003f0: 6c37 8c3e d1f0 fe3e ca90 973e 5f8b 2b3d
0.2232933 0.10836441 0.18187699 0.03168849 0.07309896 0.2768014 0.3181826 0.021717472
0.025826605 0.4595479 0.09515472 -0.01235256 0.27582562 0.11352117 0.19007117 0.09508565
0.09419787 0.081193656 0.54465526 0.18169715 0.3691213 0.16872287 0.27735963 -0.08713573
0.67474115 0.36643952 0.08864935 0.4519641 0.26114616 0.46332586 -0.025414996 0.14537656
0.364152 0.015499607 0.17581192 0.10530895 0.11948468 -0.12095974 0.32153824 0.46154213
0.16565664 0.07388881 0.12599005 0.27619794 0.2811023 -0.091913424 0.2212093 0.14466661
0.3347476 0.05458058 0.21079676 0.056172952 0.3893641 0.020926772 -0.011885958 0.4809401
0.6609962 -0.086013235 -0.013193325 -0.013883121 0.28263503 0.113060795 0.09459826 -0.33168712
0.13747442 0.008961814 0.21849243 0.10607438 0.331954 -0.33409846 -0.017330965 0.36287293
0.28519872 0.06909979 0.22798058 -0.0064850957 0.06618966 0.0139727695 0.28381625 0.18689495
0.4483296 0.4027216 0.21320672 0.09725319 0.26301083 0.44183552 0.04053323 0.15629466
0.23089536 0.31276244 0.20360216 0.11081025 0.051203016 0.21765086 -0.0837683 0.043058127
0.14595005 0.2101616 0.29041854 0.14871496 -0.6703461 0.15064782 0.20450214 0.266227
0.052958272 0.43636793 0.18476743 -0.007979306 0.11159168 -0.14066257 0.16673928 0.37988222
0.2381793 0.038788 0.068311356 0.36199227 0.08979922 0.36588824 0.37564817 0.25690863
0.20907843 0.34974277 0.37654585 0.19686928 0.08866303 0.18030375 0.26542476 0.079969995
-0.20685142 0.006598809 0.19709747 0.1060835 0.17804326 0.6281778 -0.0051530953 0.47685435
0.27560604 0.2079875 0.09720049 0.35265455 -0.0457026 0.07607375 0.22480437 0.028408185
0.4837534 0.6982066 0.05687297 0.57581085 -0.014266412 0.38163313 0.14833646 0.0021020337
0.16166961 0.3160925 -0.04406512 0.22264677 0.023078224 0.30826965 0.14097765 0.31074116
0.30152544 0.41216025 0.005566162 0.3453105 0.1948855 0.07938446 0.14982556 0.49045184
0.13497794 0.22257945 0.13249718 0.51179296 0.17170249 -0.101183906 0.16272053 0.18595697
-0.16431183 0.06007347 -0.15784582 0.37729347 0.11822363 -0.049655505 0.25991178 0.12196281
0.030186737 0.036096893 -0.33058956 0.11861034 0.44679514 0.28400347 0.5593434 0.19995864
0.1603948 -0.040425055 0.12099024 0.102817334 0.28381914 -0.034288593 0.18336608 0.3313162
-0.07790797 0.36909232 0.33034265 0.030885007 0.25339925 0.23053284 0.3219766 0.0009357046
0.107860684 0.1282434 0.14488238 0.26267055 0.14662977 0.19500631 0.0014075609 0.22276245
0.25333968 0.043712888 -0.11303689 0.16263059 0.278812 0.16949014 0.12873806 -0.009662352
0.492607 0.120512456 0.11742168 0.4809727 0.1522747 -0.016274896 0.082244895 0.06246511
0.04599415 0.08235128 0.2218282 0.16841544 0.15442483 0.010811925 0.30740562 0.3114508
0.1814505 0.08458856 0.19590099 0.05770467 0.40256497 0.06606056 -0.3861139 0.107287265
0.24833655 0.12589538 0.026480477 0.44012275 0.27386034 0.49793103 0.29602653 0.04188096

fc4.bias f4 [2]
00000000: 54a0 483e f462 cc3d
0.1959241 0.09979811

cls.weight f4 [2, 48]
00000000: 1843 813c d739 1ebe cbbc 2c3e f72b 0dbd
00000010: 3c61 29bd a35c 36be 6b35 743b 5358 a6bd
00000020: 233f 58bd 2a72 d5bd 8097 6f3d a0af 19be
00000030: fbd2 3e3d e687 f0bd 28af 0dbd 460c 71be
00000040: 00f6 0a3e 1e14 be3c 451f c43b 6f9d b63c
00000050: 8b99 ac3c 46ec bbbd 2a28 823d 33ec 3e3d
00000060: 6805 0ebd de77 7f3d 9961 6abc 7b62 4d3d
00000070: 38d9 fbbc 3a20 4d3d 71cf 18bd 350d 0b3d
00000080: b5ba a83d 222e c2bc 15dc 183e 7b6a f3bc
00000090: 4fd9 af3d f189 713d 0e8b e93d ca0f de3c
000000a0: 8700 d43d e7be 213e 8387 523c 451b 8b3d
000000b0: 6bd9 7fbc e4b6 c5bd 0446 5d3d b0cd 04be
000000c0: 955b 83bd 2511 783d 0ff9 b93d 5177 7a3d
000000d0: 7f61 1ebd ece5 c53c 21ea f1bb 1968 d33c
000000e0: 83ec a3bc 35fe ed3d d1ef 763d 17e4 99bc
000000f0: c79e a2bc 5b10 e93d 38d4 b4bd 58cd 353d
00000100: a835 a43d 6823 fbbc 7cbd 69bd ed62 01be
00000110: f414 ecbc 42ed 47bd 6e15 bd3c 7a14 70bb
00000120: 02c6 95bd a246 d13d 713a b9bc 4499 0f3d
00000130: 3a02 49bd 73f8 b4bb 3d1b b1bd 5e84 28bd
00000140: fdd8 1f3d af21 fbbc 1e7b c33d f4e6 283d
00000150: d439 7b3d 33bf 48bd e93c e53d 4ee8 b23a
00000160: 3c5c f13d 4b87 413c 1c0e 28bc 2ddd ec3c
00000170: 4f5b b4bd 2712 b3bd ef98 b33d aeaa 1cbd
0.015779063 -0.15451752 0.16868894 -0.034465756 -0.041352496 -0.17808776 0.0037263285 -0.08122315
-0.052794587 -0.10422166 0.05849409 -0.15008402 0.046587925 -0.117446706 -0.03459087 -0.23539838
0.13570404 0.023202952 0.005985173 0.022291867 0.021069309 -0.09175925 0.06355317 0.046611976
-0.034673125 0.062370174 -0.014305496 0.050142746 -0.030743226 0.05007956 -0.037307207 0.033948142
0.082387365 -0.023703638 0.14927705 -0.02971386 0.0858637 0.05896944 0.11403476 0.027107138
0.10351663 0.1579548 0.012849691 0.067923106 -0.015615801 -0.09654024 0.05402185 -0.12969089
-0.06413952 0.060563225 0.09080707 0.061148945 -0.0386672 0.024157487 -0.0073826467 0.025806474
-0.020010239 0.11620752 0.0602873 -0.01878552 -0.019851102 0.11380073 -0.0882954 0.044385284
0.080180466 -0.030656531 -0.057065472 -0.12635393 -0.028818585 -0.04881025 0.023081508 -0.0036633299
-0.073131576 0.1021855 -0.022610875 0.035058275 -0.04907439 -0.0055227815 -0.086477734 -0.04114186
0.039025296 -0.03065571 0.09544967 0.04123588 0.061334446 -0.049010467 0.11193258 0.0013649554
0.117851704 0.0118120415 -0.01025727 0.028914059 -0.08806478 -0.08743697 0.08769404 -0.03824871

cls.bias f4 [2]
00000000: bb44 963f 759f 90bf
1.1739725 -1.1298662
