result/train_4/model.pt (torch, 78535 bytes, 10 tensors)

fc1.weight f4 [400, 3]
0	0xbecfab41	-0.40560344
1	0x3d985c88	0.07439524
2	0x3f1091a4	0.5647223
3	0xbed12b25	-0.4085323
4	0x3e800fd9	0.2501209
5	0x3f06e17c	0.5268781
6	0xbeefe689	-0.46855572
7	0x3e2a2d75	0.16618903
8	0xbe0a0a55	-0.13480504
9	0x3d0823f0	0.033237398
10	0x3ea52b8b	0.32259783
11	0x3ea51cf8	0.32248664
12	0xbc22017f	-0.009888052
13	0x3d778d3d	0.06043743
14	0xbeb6791b	-0.3563927
15	0x3e318ece	0.17339632
16	0x3e2aa52d	0.16664572
17	0xbe89d590	-0.26920748
18	0x3e38d60d	0.18050404
19	0xbe9f0c8f	-0.3106427
20	0x3e63aebf	0.22234629
21	0x3dc0aade	0.0940759
22	0x3efc471a	0.49272996
23	0xbeb62421	-0.3557444
24	0x3ebd8733	0.3701721
25	0xbea61437	-0.32437298
26	0xbed82c0c	-0.42221105
27	0xbee98a9f	-0.45613572
28	0x3ec5bd38	0.38620925
29	0x3f06710e	0.5251626
30	0xbf0f5111	-0.5598307
31	0x3ebda720	0.3704157
32	0xbf184583	-0.59481066
33	0x3ef654ab	0.48111472
34	0xbddfb372	-0.10922898
35	0x3ca1c9b4	0.0197495
36	0xbeee8984	-0.4658929
37	0x3ef15e19	0.47142103
38	0xbe48d71c	-0.19613308
39	0x3ee0c80e	0.4390263
40	0xbebdd660	-0.37077618
41	0x3ed37d43	0.41306505
42	0xbf104726	-0.56358564
43	0xbe8244cb	-0.2544311
44	0x3ebaf28c	0.36513174
45	0xbe6696a2	-0.225184
46	0xbdcc96b8	-0.09989685
47	0xbe5e2218	-0.21692693
48	0xbee3864f	-0.44438407
49	0x3d00cdf6	0.03144642
50	0xbed64134	-0.4184662
51	0xbe284ed8	-0.16436327
52	0x3e7bbb22	0.24583104
53	0x3e7c2b71	0.24625947
54	0xbe99f4e1	-0.3006964
55	0x3f030cc0	0.5119133
56	0x3d99554e	0.07486974
57	0xbf06baad	-0.52628595
58	0xbe95c067	-0.29248354
59	0xbeeb58da	-0.45966226
60	0x3e736f1e	0.23772857
61	0x3e6727c8	0.22573769
62	0xbf2444cd	-0.6416748
63	0xbeefc1c5	-0.46827522
64	0xbe20bc4b	-0.15696828
65	0x3d93dd4f	0.07219946
66	0x3b6434db	0.0034821543
67	0x3e79eb43	0.24406151
68	0xbdee29b8	-0.11629051
69	0xbeba422a	-0.36378604
70	0xbd94ebbf	-0.072715275
71	0x3e4fc837	0.2029122
72	0x3d144499	0.036198232
73	0x3ebc1ccd	0.36740723
74	0x3e480b0e	0.19535467
75	0xbef06154	-0.46949255
76	0xbe1d605a	-0.15368786
77	0xbf11116d	-0.56667215
78	0xbb4abec3	-0.0030936457
79	0x3f08d88e	0.53455436
80	0xbe07f49d	-0.13276906
81	0x3eabc8fe	0.33551782
82	0xbf16674b	-0.5875136
83	0x3f050cd0	0.51972675
84	0x3e017905	0.12643822
85	0xbeb49b1b	-0.35274586
86	0x3e2e612d	0.17029257
87	0xbe82d213	-0.255509
88	0xbe50819c	-0.20361942
89	0x3b9494f5	0.0045343586
90	0x3cd3cec2	0.025855426
91	0xbd41e5b7	-0.047338214
92	0x3f121f4e	0.5707902
93	0xbe877a4a	-0.26460487
94	0xbef87266	-0.4852478
95	0x3e31cabf	0.17362498
96	0xbe3dca59	-0.18534221
97	0xbf0a566a	-0.5403811
98	0xbc9af447	-0.018915309
99	0x3cbe9c1c	0.023267798
100	0x3cffbed3	0.031218922
101	0x3e1e5b4f	0.15464519
102	0xbe05fc78	-0.1308459
103	0xbea49114	-0.32141936
104	0xbf07929d	-0.5295809
105	0xbe8d243b	-0.27566704
106	0xbef8ee16	-0.48619145
107	0x3ed1131d	0.40834895
108	0xbf0e1820	-0.5550556
109	0xbea2aefe	-0.31774133
110	0xbdab5e65	-0.08367614
111	0x3e7e45cc	0.24831313
112	0x3ed19f78	0.40941978
113	0x3e14ec45	0.14543255
114	0x3d669a80	0.056299686
115	0xbeb0ce1d	-0.34532252
116	0x3da61170	0.08108795
117	0xbef91375	-0.48647657
118	0x3d43e759	0.047828052
119	0x3f11e737	0.5699343
120	0xbe7eff0a	-0.24901977
121	0x3e80d0dc	0.25159347
122	0x3bd42e1a	0.0064752223
123	0xbe765ed8	-0.24059618
124	0x3ef31527	0.47477075
125	0xbe28d315	-0.16486771
126	0x3e59c819	0.21267737
127	0x3ee90d89	0.4551814
128	0x3e7279ff	0.2367935
129	0xbdc68f40	-0.096952915
130	0xbe3e794f	-0.18600963
131	0x3f060a1f	0.52359194
132	0xbea53324	-0.3226558
133	0xbd922a3d	-0.071369626
134	0x3e9abbf2	0.30221516
135	0x3eeacf56	0.4586131
136	0xbe9851d3	-0.29749927
137	0xbe37458c	-0.17897624
138	0xbea09a67	-0.313678
139	0x3d8a68e0	0.067582846
140	0xbd722140	-0.05911374
141	0x3f05bafb	0.52238435
142	0x3df9f438	0.12204784
143	0xbd8f8898	-0.07008475
144	0x3d4fc421	0.050724152
145	0xbe9c3d3c	-0.30515468
146	0xbd97848d	-0.07398329
147	0x3d7d2c62	0.061809905
148	0x3e5506c9	0.2080337
149	0xbd5a3900	-0.053277016
150	0x3e8d26ee	0.27568763
151	0xbee711bc	-0.45130718
152	0x3c35e99f	0.011103063
153	0x3eacd552	0.337565
154	0xbf0f0135	-0.55861217
155	0x3efb20a0	0.49048328
156	0xbf03657f	-0.51326746
157	0x3ef1ef03	0.47252664
158	0x3e2e88be	0.1704435
159	0x3ef466a0	0.47734547
160	0xbe4620e9	-0.19348492
161	0x3efb2c61	0.49057296
162	0x3e62c572	0.22145632
163	0xbc4fb5d4	-0.012677629
164	0xbef9cf50	-0.4879098
165	0x3eb84468	0.3598969
166	0xbeae383a	-0.34027272
167	0xbb87ca3e	-0.004143982
168	0x3eb41d0f	0.3517842
169	0x3f0c29e4	0.5475142
170	0x3e28ea30	0.16495585
171	0x3e3f48e3	0.18680148
172	0x3e246731	0.1605499
173	0xbe2eb1e7	-0.17060052
174	0x3df5d3bf	0.12003278
175	0x3ddbdfe6	0.107360646
176	0xbf213045	-0.6296428
177	0xbeb232c0	-0.34804344
178	0x3ead3c42	0.33835036
179	0xbec70da3	-0.38877591
180	0xbf0568ea	-0.5211321
181	0xbd6e20df	-0.058136817
182	0xbe187b28	-0.1489073
183	0xbf12e436	-0.5737947
184	0x3ebcb0bf	0.36853597
185	0xbea276c0	-0.31731224
186	0x3e2f8aca	0.17142788
187	0x3dcdb7f1	0.1004485
188	0xbe1ddf31	-0.15417172
189	0x3e269303	0.16267018
190	0xbe355a0c	-0.17710131
191	0xbaed5756	-0.0018107693
192	0xbe030a09	-0.12796797
193	0xbe2c2f3b	-0.16814892
194	0x3e7f1284	0.24909407
195	0x3e19cc81	0.15019418
196	0x3ef836a4	0.48479187
197	0x3eacdbb6	0.33761376
198	0xbe349076	-0.17633232
199	0x3ec626d8	0.3870151
200	0xbeec0045	-0.46093956
201	0x3e0543a0	0.13014078
202	0x3eb464b7	0.3523309
203	0xbe940023	-0.28906354
204	0xbf146a6b	-0.5797488
205	0x3ed0ad20	0.40757084
206	0x3f060c04	0.52362084
207	0xbe5eea0e	-0.21768972
208	0xbe67fb26	-0.226544
209	0xbebc37b4	-0.36761248
210	0x3c4e3c99	0.01258769
211	0x3eefe202	0.46852118
212	0xbde6ca21	-0.11269022
213	0xbeb34822	-0.3501597
214	0x3ed58cfa	0.4170912
215	0xbea305d6	-0.3184039
216	0xbebb98b3	-0.36639938
217	0x3dd4b5f5	0.10386268
218	0x3ea419db	0.32050976
219	0xbed43b5f	-0.41451547
220	0xbea01ea6	-0.31273383
221	0x3e8951d6	0.26820248
222	0xbdc6a566	-0.09699516
223	0x3d24bcc8	0.0402191
224	0x3e05f597	0.13081966
225	0xbd6414b7	-0.055683818
226	0xbee2728c	-0.44228017
227	0x3e3cba1a	0.18430367
228	0xbee80c11	-0.45321706
229	0x3e299643	0.16561227
230	0x3d429933	0.047509383
231	0x3f02ad09	0.5104528
232	0xbdcf3340	-0.10117197
233	0x3e7745e3	0.24147753
234	0x3f1433c4	0.5789149
235	0x3f004e7f	0.50119776
236	0x3ef3d06f	0.4761996
237	0xbf0906c9	-0.5352598
238	0x3eed4ffd	0.4635009
239	0xbf08ddf2	-0.5346366
240	0xbea9f064	-0.33191216
241	0xbd71712a	-0.058945812
242	0x3f0f8ca3	0.5607397
243	0x3f152fec	0.5827625
244	0xbf15eb12	-0.58561814
245	0xbe33d96a	-0.17563406
246	0xbe96a3d0	-0.29421854
247	0x3da0cfd6	0.078521416
248	0xbdf47a57	-0.11937397
249	0xbe03b75e	-0.12862918
250	0xbec3ce9b	-0.38243565
251	0xbed6bbf4	-0.41940272
252	0xbed04b9d	-0.40682688
253	0x3e972b7d	0.29525366
254	0xbec40f4a	-0.38292915
255	0xbea5b6a0	-0.32365894

fc1.bias f4 [400]
0	0x3e89d45e	0.26919836
1	0x3e745e26	0.2386404
2	0x3db4a79a	0.0882103
3	0x3c809480	0.01569581
4	0x3ed5dc77	0.41769764
5	0x3eecc352	0.46242768
6	0x3ee7fe43	0.45311174
7	0x3d92cb54	0.07167688
8	0x3f002724	0.50059724
9	0xbe578fac	-0.210509
10	0xbeb6cc58	-0.35702777
11	0x3ef090e0	0.4698553
12	0xbed48767	-0.41509554
13	0xbed3e944	-0.41388905
14	0x3e96891f	0.2940149
15	0xbe7aef38	-0.24505317
16	0x3e8a3462	0.2699309
17	0xbeab2efb	-0.3343428
18	0xbe43af17	-0.1910976
19	0x3ebd8369	0.3701432
20	0xbeee55e6	-0.4654991
21	0x3ed90a36	0.42390603
22	0x3e76306d	0.2404191
23	0x3d046e05	0.032331485
24	0xbeff170e	-0.49822277
25	0xbecdf6f9	-0.40227488
26	0xbd8ef9c9	-0.069812365
27	0x3ddadba6	0.10686426
28	0x3e99bd4f	0.30027243
29	0x3eb7081d	0.35748377
30	0x3cccb0bb	0.024986615
31	0x3efab303	0.489647
32	0x3ef0b20c	0.4701084
33	0x3dede833	0.11616554
34	0xbe72d3dc	-0.2371363
35	0x3e8f52e8	0.2799294
36	0x3e4e14ec	0.20125169
37	0xbe525a8a	-0.2054235
38	0xbeb05b77	-0.34444782
39	0xbe986367	-0.29763338
40	0xbe47e5c0	-0.19521236
41	0xbefa85ab	-0.48930106
42	0xbf03fba2	-0.51555836
43	0xbec48c45	-0.38388267
44	0xbe5d95d0	-0.2163918
45	0xbebee6a0	-0.37285328
46	0xbec2e2f2	-0.3806377
47	0xbf08b839	-0.534061
48	0x3dc0eded	0.09420381
49	0x3efd0943	0.4942113
50	0x3e812f70	0.25231504
51	0xbe9b9a95	-0.30391374
52	0x3ed7e207	0.42164633
53	0xbe837c8a	-0.25680953
54	0x3dcebcfe	0.10094641
55	0x3e83be13	0.25730953
56	0x3e476976	0.19473824
57	0xbe1110ec	-0.14166611
58	0x3eb7dc8a	0.35910445
59	0xbd8b48d8	-0.06801003
60	0x3d31e854	0.043434456
61	0xbe90b016	-0.28259343
62	0x3edec262	0.43507677
63	0xbe738559	-0.23781337
64	0x3d2e4e8c	0.042555377
65	0xbd848790	-0.06471169
66	0xbdeffbcb	-0.117179476
67	0xbebdb037	-0.37048504
68	0x3bc289cc	0.005936837
69	0xbd4af120	-0.04954636
70	0x3de43707	0.11143308
71	0xbf08897a	-0.5333477
72	0x3ede8336	0.4345948
73	0xbdc1f096	-0.09469716
74	0xbadf18ad	-0.0017020904
75	0xbeba3aff	-0.36373135
76	0x3f016656	0.5054678
77	0xbedd3219	-0.43202284
78	0xbebd6628	-0.36992002
79	0xbf0f183c	-0.55896354
80	0xbe8ab92b	-0.27094397
81	0x3edd7728	0.43254972
82	0x3f0c6fda	0.5485817
83	0xbf072259	-0.52786785
84	0xbeb22935	-0.34797063
85	0xbf0a785a	-0.5408989
86	0xbe23bad2	-0.15989235
87	0x3e4ab058	0.19793832
88	0xbea92c0a	-0.33041412
89	0x3bde4f52	0.006784358
90	0x3dcf528e	0.10123168
91	0xbefccf66	-0.49376982
92	0x3ea21610	0.31657457
93	0xbe4ba1e4	-0.19885975
94	0x3f0de959	0.55434185
95	0xbf029713	-0.5101177
96	0x3f16b428	0.58868647
97	0xbf0b07d8	-0.54308844
98	0x3ee1cd07	0.44101736
99	0xbcce7ae4	-0.025205083
100	0xbedb104e	-0.42785877
101	0x3d142878	0.036171407
102	0xbe388fdb	-0.18023627
103	0x3e2d6488	0.16932881
104	0xbe635d9e	-0.22203681
105	0xbe039896	-0.12851176
106	0x3e801841	0.25018504
107	0x3e9042c2	0.28175932
108	0xbd751ad9	-0.059840057
109	0xbdb26af1	-0.08711804
110	0x3e819443	0.25308427
111	0xbe6dc0ea	-0.23218122
112	0x3f056cc3	0.5211908
113	0x3e69f411	0.2284701
114	0x3e167013	0.1469119
115	0x3d9413ed	0.07230363
116	0xbe2db7d8	-0.16964662
117	0xbdc250c6	-0.094880626
118	0x3d9a37e0	0.075301886
119	0xbf10bb2a	-0.5653559
120	0x3d40e489	0.047092948
121	0x3f0569e3	0.52114695
122	0x3e721b3a	0.23643199
123	0xbf04715d	-0.5173548
124	0x3e9c922c	0.3058027
125	0x3e9e054d	0.3086342
126	0x3edb0277	0.42775318
127	0xbe1eabc2	-0.15495208
128	0xbded26c9	-0.11579663
129	0xbe98efbe	-0.2987041
130	0x3c0fb715	0.0087716775
131	0xbee6617b	-0.44996247
132	0x3ebcec71	0.3689914
133	0x3f05e2d4	0.5229924
134	0x3f0d51f9	0.55203205
135	0x3ee42431	0.44558862
136	0x3ef38b21	0.47567084
137	0x3e945cc0	0.28977013
138	0x3e9a2f8f	0.3011441
139	0x3f0d70e7	0.552504
140	0x3f0eb2a8	0.5574136
141	0xbe2345f4	-0.15944654
142	0x3deb17ae	0.11479126
143	0xbe2d041a	-0.16896096
144	0x3ddbe89d	0.10737727
145	0x3e7e77bc	0.24850363
146	0x3f099197	0.5373778
147	0xbc478ffb	-0.012180324
148	0x3f04d2e5	0.518843
149	0xbddfaef2	-0.1092204
150	0x3eae85fd	0.340866
151	0x3e182736	0.14858708
152	0x3ef0e867	0.4705231
153	0xbebf69d6	-0.37385434
154	0xbf0a221e	-0.5395831
155	0x3dd958a8	0.10612613
156	0xbf067d8e	-0.5253533
157	0xbee78393	-0.4521757
158	0xbed4a644	-0.415331
159	0xbe194c7f	-0.14970587
160	0xbe5ebf02	-0.21752551
161	0x3e8b38ec	0.27191865
162	0x3e250d84	0.16118437
163	0xbddb5a54	-0.10710588
164	0xbde14ab5	-0.11000577
165	0x3f078ec5	0.52952224
166	0x3ec288c9	0.37994984
167	0xbdc2e85a	-0.09516974
168	0x3eb5c654	0.35502875
169	0x3eba7af3	0.36421928
170	0x3eb76c33	0.35824737
171	0xbe6270de	-0.22113368
172	0x3d7d5b62	0.061854728
173	0xbdf3dd34	-0.119074255
174	0x3e6fcdd6	0.23418364
175	0x3e96eeef	0.29479167
176	0x3efdb919	0.4955528
177	0x3e99851c	0.29984367
178	0x3ddc01c1	0.10742522
179	0xbdeb7c5f	-0.11498331
180	0xbe00c26b	-0.12574165
181	0xbdfec6b1	-0.12440241
182	0xbea0b4ba	-0.31387883
183	0x3e080705	0.13283928
184	0xbed58107	-0.41700003
185	0x3e84e37c	0.25954807
186	0xbe583cd3	-0.21116953
187	0xbeb29767	-0.34881136
188	0x3df3746b	0.11887439
189	0x3e9d7358	0.30752063
190	0x3ef0fa0b	0.47065768
191	0x3e93d0a1	0.2887011
192	0xbefe031f	-0.49611756
193	0xbd852d88	-0.06502825
194	0xbce23000	-0.027610779
195	0x3ea30d2c	0.31845987
196	0xbe2a626f	-0.16639112
197	0x3e8c0218	0.27345347
198	0x3d1d7c97	0.038448896
199	0x3efc6762	0.49297625
200	0xbefe719f	-0.4969606
201	0x3db66a74	0.08907023
202	0x3e963e27	0.29344293
203	0x3e030d45	0.1279803
204	0xbee41873	-0.44549903
205	0x3e956c31	0.29184106
206	0xbe87b1d7	-0.2650287
207	0xbead39e4	-0.3383323
208	0xbe2c2a4a	-0.16813007
209	0x3ee967f1	0.45587113
210	0xbe1d4b67	-0.15360795
211	0xbe90f125	-0.2830898
212	0x3f0466f3	0.5171959
213	0xbe76a4cf	-0.24086307
214	0xbed15d21	-0.40891364
215	0x3eb4f4d8	0.3534305
216	0x3f04ec75	0.51923305
217	0xbefcbe78	-0.49364066
218	0xbec8a0be	-0.39185137
219	0xbf0fad85	-0.56124145
220	0x3e825acf	0.25459906
221	0xbe6c9465	-0.23103483
222	0x3e3fc011	0.18725611
223	0x3eb9d79e	0.36297315
224	0x3ed0a01c	0.40747154
225	0xbec35694	-0.3815199
226	0xbea30b41	-0.31844524
227	0x3d3e36cd	0.04643898
228	0xbf09beab	-0.5380656
229	0xbec2b80e	-0.38031048
230	0x3e591c7b	0.2120227
231	0xbdd14641	-0.10218478
232	0xbe142fb5	-0.14471324
233	0xbeab450a	-0.3345111
234	0xbef7a706	-0.48369616
235	0xbe6148f7	-0.2200049
236	0xbef7a4d6	-0.48367947
237	0x3eac1723	0.33611402
238	0xbeeb09b4	-0.4590584
239	0xbe1fc146	-0.15601072
240	0xbe662c5f	-0.22477864
241	0xbe5e9d3c	-0.21739668
242	0x3f05ba62	0.5223752
243	0x3e96ed0a	0.2947772
244	0x3dfc421f	0.12317299
245	0x3f04f535	0.51936656
246	0x3e9cfe03	0.30662546
247	0xbd20da49	-0.039270673
248	0x3ee86191	0.45386937
249	0x3dad1688	0.08451563
250	0xbe3f656e	-0.18691036
251	0xbe5c7ca1	-0.21531917
252	0x3f109e5c	0.5649164
253	0x3f063624	0.5242636
254	0xbeb039ee	-0.34419197
255	0xbe9ca719	-0.30596235

fc2.weight f4 [20, 400]
0	0x3c6169b1	0.013758109
1	0x3d0249a4	0.03180851
2	0xbd8c19d4	-0.06840864
3	0x3b53ebc8	0.0032336581
4	0x3d2e76ab	0.04259364
5	0x3b561a85	0.0032669615
6	0x3d00a0b6	0.031403266
7	0xbcbc3164	-0.02297277
8	0x3ca8e66a	0.020617682
9	0x3d784d2a	0.060620464
10	0xbd30de62	-0.04318083
11	0xbd6773fb	-0.056507092
12	0xbd1d9edd	-0.038481582
13	0x3ac4bf75	0.0015010672
14	0x3d257c9d	0.040402044
15	0xbcdc6187	-0.026901973
16	0x3c9b709c	0.018974595
17	0x3c2e59f5	0.010641565
18	0xbd2eebb3	-0.04270525
19	0xbc4cfa7a	-0.01251089
20	0x3da1fa8b	0.079091154
21	0x3dd6b8bd	0.10484455
22	0xbc36e078	-0.011161916
23	0x3dea1a4f	0.11430799
24	0xbc6e43ee	-0.014542563
25	0xbd3ebbba	-0.04656575
26	0x3d2275af	0.039663013
27	0xbd2a4647	-0.041570928
28	0xbd7ae2bd	-0.06125139
29	0x3d9148ed	0.070939876
30	0xbb61a2be	-0.0034429277
31	0x3d6eb982	0.058282383
32	0xba3c76ce	-0.0007189334
33	0x3c6892b6	0.014195135
34	0x3cf5da12	0.03001121
35	0xbcea4aaa	-0.028600056
36	0x3b0d74a3	0.0021584413
37	0xbcbfb459	-0.023401426
38	0x3d2f537f	0.042804237
39	0x3d09ae4a	0.03361348
40	0xbc3591c5	-0.011082117
41	0xbc83d50e	-0.016092803
42	0x3cea4da6	0.028601479
43	0xbc915e5e	-0.017745193
44	0x3da9165c	0.08256218
45	0xbbe4b2c5	-0.006979319
46	0xbc994c74	-0.018713214
47	0x3d1bc2be	0.038027517
48	0x3c0b8dfd	0.008517739
49	0x3bc1aa14	0.0059101675
50	0xbdb30938	-0.08741993
51	0x3bad611b	0.005291117
52	0xbd2b062e	-0.04175394
53	0x3cb7ad40	0.02242148
54	0x3d9ba3f8	0.07599634
55	0xbd03002e	-0.031982593
56	0xbc18559e	-0.0092977565
57	0xbcac1e1a	-0.021010447
58	0x3d51cd78	0.05122134
59	0xbc3c9827	-0.011510885
60	0x3d1770af	0.036972698
61	0xbd1fa6c0	-0.038977385
62	0xbcf98caf	-0.030462591
63	0x3d19c28a	0.037539043
64	0x3bdb5772	0.006693774
65	0xba95e731	-0.0011436698
66	0xbd6c7d3e	-0.057736628
67	0x3b889302	0.0041679153
68	0x3b14c682	0.0022701328
69	0xbd0c80ee	-0.034302644
70	0x3ce09060	0.027412593
71	0x3c716518	0.014733575
72	0x3cc225f9	0.023699747
73	0x3d67c2af	0.05658215
74	0xbc853437	-0.01626025
75	0x3d9ae6b4	0.075635344
76	0xbcac5399	-0.021035956
77	0xbb4f5956	-0.0031638942
78	0xbc4f5f1c	-0.012656953
79	0xbc995161	-0.018715562
80	0x3cfc5ead	0.030806864
81	0xbdaa4135	-0.083132185
82	0xbd02ede4	-0.03196515
83	0x3d1b65d9	0.037938926
84	0xbd84cbce	-0.06484185
85	0x3dd1cb2a	0.102438286
86	0xbcb564d2	-0.022142801
87	0x3c132cf3	0.008982885
88	0x3d3e3453	0.04643662
89	0x3e00d603	0.12581639
90	0xbcce0dfa	-0.025153149
91	0xbd31de8b	-0.043425124
92	0xbd2417fa	-0.04006193
93	0xbd375fcb	-0.04476909
94	0x3c895ddc	0.016768388
95	0x3cc64ba6	0.024205994
96	0x3d5d5cc7	0.054043557
97	0x3dc27f76	0.094969675
98	0x3d7753d6	0.060382687
99	0xbcaf28fd	-0.02138185
100	0xbccabb2d	-0.024747455
101	0x3d1c4996	0.038156115
102	0x3d9d9a8b	0.07695492
103	0x3d675e75	0.056486566
104	0x3bf68518	0.00752319
105	0xbd04bed5	-0.032408554
106	0x3b3caeb4	0.0028790655
107	0x3d832ae8	0.06404668
108	0x3d076f21	0.033064965
109	0x3c2a890a	0.010408649
110	0xbd7e18df	-0.062035438
111	0x3cfb0746	0.030643117
112	0xbd63061d	-0.055425752
113	0x3d898c09	0.06716163
114	0x3be65eae	0.0070303297
115	0x3c8a7c94	0.016905107
116	0x3d1f1fac	0.038848564
117	0xbd3b26e1	-0.045691375
118	0x3cf0b561	0.029383363
119	0x3d3a58bc	0.04549478
120	0x3e0860b7	0.13318144
121	0xbc39977e	-0.011327622
122	0xbd96fa90	-0.0737201
123	0x3c811d61	0.01576108
124	0x3d15bbce	0.036556058
125	0x3b918405	0.004440787
126	0xbc9170be	-0.017753955
127	0xbd95a386	-0.0730658
128	0xbcc58b1b	-0.024114182
129	0x3cc51369	0.024057107
130	0x3d1068ab	0.03525607
131	0x3ad84d6f	0.0016502569
132	0xbd25b7ec	-0.040458605
133	0xbbc3e3ac	-0.0059780683
134	0x3ca6cd47	0.020361556
135	0xbb83a02e	-0.0040168976
136	0x3d5f85ae	0.054570846
137	0xbc604a03	-0.013689521
138	0xbd13923c	-0.03602813
139	0x3b1c63ae	0.0023863125
140	0x3cb95bdd	0.022626812
141	0xbbaf4690	-0.005348988
142	0x39937108	0.0002812224
143	0x3d282893	0.04105432
144	0x3b8f4db5	0.004373277
145	0x3c3ea3f3	0.011635768
146	0x3d6120db	0.054962974
147	0xbbbca947	-0.005757484
148	0x3d3bdec9	0.04586676
149	0xbb3188f3	-0.0027089685
150	0x3c9d1403	0.019174581
151	0x3c684024	0.014175449
152	0x3ba152d7	0.0049232054
153	0xbc5f62cc	-0.013634395
154	0x3cc98508	0.024599567
155	0xbd808d82	-0.062769905
156	0xbd288dac	-0.041150734
157	0xbd3f9f9c	-0.046783075
158	0xbcf8a8ee	-0.03035399
159	0xbce35b48	-0.027753487
160	0xbc2e2dd9	-0.010631048
161	0xbc0a9822	-0.008459123
162	0xbd1e20f1	-0.038605634
163	0xbceec3d3	-0.02914611
164	0xbcc9dc6f	-0.024641244
165	0xbbfc8123	-0.007705824
166	0x3c0871d5	0.008327921
167	0xbd0e4b42	-0.03473974
168	0xbd5b65ed	-0.053564
169	0xbbdbd65e	-0.006708904
170	0xbd24fee2	-0.040282138
171	0x3bba3a90	0.0056832507
172	0x3df27a44	0.118397266
173	0xbcff6613	-0.031176602
174	0xbc932d2b	-0.017965874
175	0xbcdadaac	-0.026715599
176	0x3d8a9bf3	0.06768026
177	0x3bd19e62	0.0063970545
178	0xbd36a6c8	-0.04459265
179	0x3db32ae3	0.08748414
180	0x3a38304e	0.0007026241
181	0xbbc11de7	-0.005893457
182	0x3c2c272c	0.010507386
183	0xbd6749d1	-0.05646688
184	0x3c96eeda	0.01842444
185	0xbc779c93	-0.015113014
186	0xbca0e7cb	-0.019641778
187	0x3bd3a59b	0.0064589507
188	0x3d867649	0.0656553
189	0xbcd20b38	-0.025640115
190	0x3c9e55b2	0.019327972
191	0x3bab01ea	0.005218734
192	0xbbf25fb2	-0.0073966617
193	0xbcbd9e6a	-0.023146827
194	0xbcaf253d	-0.021380061
195	0x3c18a8e4	0.00931761
196	0xbb37ed4f	-0.002806503
197	0x3d7cb98b	0.061700385
198	0xbcb6ada4	-0.022299595
199	0x3cb9d196	0.022682946
200	0xbd1cd18a	-0.03828577
201	0x3c8941ad	0.01675495
202	0x3c62f88c	0.0138532035
203	0xbc5bbdfa	-0.013411993
204	0xbb4fe83d	-0.0031724118
205	0x3cdfc1e2	0.02731413
206	0xbd940b6b	-0.0722874
207	0xbd5ed00d	-0.05439763
208	0x3c89f655	0.016841093
209	0xbd070137	-0.032960143
210	0x3cddf628	0.027094916
211	0x3c357e54	0.011077482
212	0xbd72954d	-0.059224416
213	0x3c8a40db	0.016876629
214	0xbc571481	-0.013127447
215	0x3d91ef52	0.07125725
216	0x3bbc277d	0.005742012
217	0xbd01169e	-0.03151571
218	0xbd9e01e2	-0.07715203
219	0x3bd06c0f	0.006360538
220	0xbd863838	-0.065536916
221	0x3c6da338	0.014504246
222	0xbc69a3fe	-0.01426029
223	0x3d5245ce	0.051336102
224	0xbd84d8d9	-0.06486673
225	0x3cb2b29a	0.02181368
226	0xbd641887	-0.055687454
227	0x3d834518	0.06409663
228	0xbc6d1447	-0.0144701665
229	0xbd0e3b28	-0.034724385
230	0x3ce68cc1	0.028143289
231	0xbd0a0978	-0.033700436
232	0x3cd573f7	0.026056273
233	0x3cf8eeb4	0.03038726
234	0xbd3edfa4	-0.0466
235	0xbd3b0b35	-0.045664985
236	0x3d43b299	0.047777746
237	0x3afe8e62	0.0019421095
238	0x3cf1225e	0.029435333
239	0xbd07370e	-0.03301149
240	0xbbac4a49	-0.005257879
241	0x3c30aff8	0.010784142
242	0x3c0c78fe	0.008573769
243	0xbc1cec88	-0.009577878
244	0x3d749f99	0.059722517
245	0xbbdfcdb3	-0.006829941
246	0x3bfc02dd	0.007690771
247	0x3cff5743	0.03116954
248	0xbce0d5c3	-0.02744568
249	0xbd0e0c9e	-0.03468
250	0x3dba2a3f	0.09090089
251	0x3d86efe6	0.06588726
252	0x3ba87973	0.005141431
253	0x3b98deae	0.0046652174
254	0xbbe941b4	-0.007118428
255	0x3df0b891	0.11753953

fc2.bias f4 [20]
0	0xbab21fa5	-0.0013589753
1	0xbd50fa75	-0.051020104
2	0x3b97751d	0.0046221153
3	0xbcdb1a5c	-0.026745968
4	0x3d26f0ea	0.040757097
5	0x3d28f832	0.041252322
6	0xbd56d9d3	-0.052453827
7	0xbc528fb2	-0.012851642
8	0xbd53ffe6	-0.051757716
9	0x3d08d6fb	0.033408146
10	0xbca22b7f	-0.019796131
11	0x3cad3f3d	0.021148318
12	0x3b7939d5	0.0038028855
13	0x3babec9b	0.0052467114
14	0xbca18664	-0.019717403
15	0xbc47422e	-0.012161775
16	0x3d188a07	0.037241008
17	0xbd2ad407	-0.04170611
18	0xbd31267c	-0.043249592
19	0xbc01be14	-0.007918853

fc3.weight f4 [400, 20]
0	0xbb96c2df	-0.004600867
1	0x3de3e50c	0.111276716
2	0xbe3a2d19	-0.18181266
3	0xbd2a2ab8	-0.041544646
4	0x3da3df5c	0.08001587
5	0x3e262f92	0.16229084
6	0x3debdaad	0.115163185
7	0xbe715bc1	-0.23570158
8	0xbe007d09	-0.12547697
9	0xbd982f1a	-0.07430859
10	0xbd8dc60b	-0.06922539
11	0xbd9fe635	-0.078075804
12	0xbdf696df	-0.12040495
13	0xbd3ae236	-0.045625888
14	0x3e12526a	0.14289251
15	0x3e5dce76	0.2166079
16	0xbdc42832	-0.09577979
17	0xbd5660a2	-0.05233825
18	0xbc2d6076	-0.01058208
19	0x3e5276f9	0.20553197
20	0xbc13267d	-0.008981344
21	0xbda7ac83	-0.08187201
22	0xbb8fb2de	-0.0043853363
23	0x3d1c14a9	0.03810564
24	0x3e49cc0b	0.19706742
25	0xbdc8737e	-0.097876534
26	0xbe2499d8	-0.16074312
27	0xbe4abd5f	-0.19798802
28	0x3e23d8a9	0.16000618
29	0x3db1bb7b	0.08678337
30	0xbc2d896c	-0.010591846
31	0x3d304914	0.043038443
32	0x3e3d6d67	0.18498765
33	0x3e5260f6	0.205448
34	0xbe521aa2	-0.20517972
35	0xbcda0e9c	-0.026618294
36	0xbdd8597f	-0.10563945
37	0x3dab4cbc	0.08364245
38	0x3b13b837	0.002254022
39	0xbc217459	-0.0098544
40	0xbe036cf5	-0.12834533
41	0xbd343be0	-0.044002414
42	0xbd9315d7	-0.071819
43	0x3da9e09e	0.082947955
44	0x3e57c6d4	0.2107194
45	0xbd0a499c	-0.033761606
46	0xbe1ed405	-0.15510567
47	0x3d45a75c	0.04825531
48	0x3e052bc1	0.13004972
49	0x3dfe1cf5	0.12407867
50	0x3cbbadfa	0.022910107
51	0x3c171d32	0.009223269
52	0x3c207390	0.009793177
53	0x3d90e422	0.07074763
54	0x3e00a7d0	0.12564015
55	0x3dd76b90	0.10518563
56	0x3e0badba	0.1364049
57	0x3df9694c	0.12178287
58	0x3e3fe754	0.18740588
59	0x3e4407e9	0.19143642
60	0xbdeab79a	-0.114608005
61	0x3e0d0a93	0.13773565
62	0xbd8ff46e	-0.07029043
63	0xbe37a2e7	-0.17933236
64	0xbddf7ad1	-0.10912097
65	0x3da3ae3b	0.07992216
66	0x3d38a0cb	0.04507522
67	0xbe40c635	-0.1882561
68	0xbe6189e6	-0.2202526
69	0xbe2495cc	-0.16072768
70	0xbe1340c3	-0.14380173
71	0xbe0b404c	-0.13598746
72	0x3df37356	0.11887233
73	0x3d83ecf5	0.0644168
74	0x3e45600e	0.19274923
75	0x3e0fa471	0.14027573
76	0xbe0f11e6	-0.13971671
77	0xbe166056	-0.14685187
78	0xbd614dbe	-0.05500578
79	0xbe2998f5	-0.16562255
80	0xbc87e7b3	-0.016589975
81	0xbd34c44d	-0.04413252
82	0x3c70ffba	0.014709407
83	0xbe0b3eec	-0.13598222
84	0xbe0ac68b	-0.135523
85	0x3dcbee6a	0.09957583
86	0xbd7c45c7	-0.061589982
87	0xbd7c9fb3	-0.06167574
88	0xbd483b60	-0.04888475
89	0x3d52e96f	0.05149215
90	0xbd491810	-0.049095213
91	0x3d822a17	0.06355684
92	0x3e009059	0.12555064
93	0x3e035d50	0.12828565
94	0x3dcb61de	0.09930776
95	0x3e02e7f8	0.12783802
96	0x3e2466f8	0.16054904
97	0xbe22d2e4	-0.15900761
98	0x3e7a4276	0.24439415
99	0xbe2b2a32	-0.16715315
100	0x3e27a801	0.16372682
101	0xbd7e3101	-0.062058453
102	0xbe2a4f3b	-0.16631787
103	0xbe67a567	-0.2262169
104	0xbdb38a49	-0.0876661
105	0xbe676418	-0.22596776
106	0xbdb0a710	-0.08625615
107	0xbe1b3f87	-0.15160953
108	0xbe19b2fa	-0.1500968
109	0x3ab08303	0.0013466779
110	0xbe55495b	-0.20828764
111	0xbe4d358a	-0.20039955
112	0xbcd992cb	-0.026559254
113	0x3d8d03a6	0.068854615
114	0x3e2aa52c	0.1666457
115	0xbdb38100	-0.08764839
116	0xbc0e417b	-0.008682604
117	0x3d957610	0.07297909
118	0x3bee7a75	0.0072777816
119	0x3e468497	0.19386517
120	0x3e00c111	0.12573649
121	0x3b7a8177	0.003822414
122	0xbe05bbe5	-0.13059957
123	0x3e2cd462	0.16877893
124	0xbcea4fc7	-0.028602494
125	0xbd79eaa0	-0.06101477
126	0xbdb6a1eb	-0.08917602
127	0xbe56c9a4	-0.20975357
128	0x3e014538	0.12624061
129	0xbe4ae518	-0.19813955
130	0x3e1f0303	0.15528493
131	0xbdadc4fd	-0.08484838
132	0xbe4b9cca	-0.19884029
133	0x3e52b386	0.20576295
134	0xbde17cb0	-0.110101104
135	0x3d9303b0	0.07178438
136	0xba676225	-0.00088265754
137	0xbd816273	-0.06317606
138	0xbd54f0b4	-0.051987365
139	0xbd83fd6f	-0.06444823
140	0x3e21d0f3	0.15802364
141	0x3d91c052	0.0711676
142	0xbe5f8a8b	-0.21830194
143	0xbe17c1f5	-0.14820082
144	0x3e13a2ec	0.14417619
145	0x3d7cf235	0.061754424
146	0x3e3ccffb	0.18438713
147	0xbdcbd251	-0.09952224
148	0xbc304efb	-0.010761018
149	0xbdac4142	-0.084108844
150	0xbd311850	-0.043236077
151	0x3e0a9dfb	0.13536827
152	0x3e3ee8b8	0.18643463
153	0xbdc3f10c	-0.095674604
154	0xbd5bc29f	-0.053652402
155	0xbd0ac5ee	-0.033880167
156	0x3e63a169	0.22229542
157	0xbe0eeba9	-0.13957085
158	0x3dbe0282	0.09277822
159	0x3dc1543d	0.09439895
160	0xbdc62c45	-0.096764125
161	0xbe19587b	-0.14975159
162	0x3e260010	0.16210961
163	0xbda0da74	-0.078541666
164	0xbdb930ac	-0.090424865
165	0xbd79d302	-0.06099225
166	0x3e219c40	0.15782261
167	0x3d6858dc	0.056725368
168	0xbe243d37	-0.16038977
169	0x3e3a092a	0.18167558
170	0xbb53f65a	-0.0032342882
171	0xbe0f4f37	-0.13995062
172	0xbdb6dcdd	-0.08928845
173	0x3df10cf6	0.1177005
174	0x3c899489	0.01679446
175	0xbe3c8c2b	-0.18412845
176	0x3e20f37a	0.15717879
177	0x3cd7bc87	0.026335014
178	0xbcaaa1fa	-0.02082919
179	0xbe243b4b	-0.16038243
180	0xbcce3ae4	-0.025174566
181	0xbe53b09e	-0.20672843
182	0xbd747b6a	-0.05968801
183	0x3d562336	0.052279674
184	0x3c0346b0	0.008012459
185	0xbb98bcf7	-0.0046611982
186	0xbe1e70ba	-0.1547269
187	0x3e48d351	0.19611861
188	0x3e50c9f8	0.20389545
189	0xbe11bd57	-0.14232384
190	0xbd196541	-0.03745008
191	0x3e5b1c07	0.2139741
192	0xbe0fa591	-0.14028002
193	0xbd8ebab4	-0.069692045
194	0x3c1a80e7	0.009430147
195	0x3d905cc4	0.07048944
196	0xbc721977	-0.014776579
197	0xbdcc34a3	-0.09970977
198	0x3e258c02	0.1616669
199	0xbe26462a	-0.16237703
200	0x3d9da3d6	0.07697265
201	0xbe192a30	-0.149575
202	0x3d327b54	0.043574646
203	0x3e1de7a0	0.15420389
204	0xbe30e5d8	-0.17275178
205	0xbdf2ee5b	-0.11861869
206	0x3e433061	0.19061424
207	0xbdfdcc15	-0.12392441
208	0x3e5dc4ff	0.2165718
209	0x3d5c5735	0.053794105
210	0x3dc9160a	0.09818657
211	0xbdca511e	-0.09878753
212	0x3e0a0222	0.13477376
213	0xbd704fd1	-0.05866987
214	0xbe3bf017	-0.18353306
215	0x3b568e84	0.0032738755
216	0xbda35f5e	-0.07977174
217	0x3e4c405f	0.1994643
218	0x3d6d4dbe	0.05793547
219	0xbe1a0cd0	-0.1504395
220	0xbdff552d	-0.12467418
221	0xbdca32ae	-0.09872948
222	0xbe34017b	-0.1757869
223	0x3e6d2d4d	0.23161812
224	0xbca9ce0e	-0.020728137
225	0xbe458b92	-0.19291523
226	0x3e114c38	0.14189231
227	0x3d181e89	0.037138496
228	0x3e78441d	0.24244733
229	0x3e37d44e	0.17952082
230	0x3df5a823	0.1199496
231	0x3e0ca799	0.13735808
232	0x3e2a0269	0.16602482
233	0xbddc2691	-0.107495435
234	0xbe4895b8	-0.19588363
235	0x3e0bd801	0.13656618
236	0x3e58267f	0.21108435
237	0xbde5d80f	-0.112228505
238	0x3c275f6e	0.010215623
239	0x3dd619bf	0.104541294
240	0x3db2b461	0.08725811
241	0x39ff1f9b	0.00048660938
242	0xbdf49f71	-0.119444735
243	0x3dce31fc	0.100681275
244	0xbe2e52f5	-0.17023833
245	0x3dacd47d	0.084389664
246	0x3e18f120	0.14935732
247	0xbd8dc1e9	-0.06921751
248	0xbe519ae0	-0.20469236
249	0xbe4d0641	-0.20021917
250	0x3e3e0cbd	0.18559547
251	0xbe39df71	-0.18151642
252	0x3d899f57	0.06719845
253	0xbdf3edb9	-0.119105764
254	0xbe16f599	-0.14742126
255	0x3e0af47a	0.13569823

fc3.bias f4 [400]
0	0xbc2ee5d8	-0.010674916
1	0x3d9f3017	0.07772844
2	0x3c80e713	0.015735185
3	0x3d3dd4e3	0.046345603
4	0xbe3f9a56	-0.18711218
5	0xbcd936b8	-0.02651535
6	0xbca101e2	-0.019654218
7	0x3df2ded0	0.11858904
8	0xbe2040f4	-0.15649778
9	0xbe585b1e	-0.21128508
10	0x3d4a8b67	0.04944935
11	0xbd9a7c59	-0.07543249
12	0xbd0cae0c	-0.03434567
13	0x3c767e8f	0.015044822
14	0x3d960619	0.07325382
15	0xbe1bef2d	-0.15227957
16	0x3d700bb0	0.058604896
17	0xbdc7b755	-0.09751765
18	0x3df7baaf	0.12096154
19	0xbe41cf5f	-0.18926762
20	0x3d1dd551	0.038533513
21	0x3d05b288	0.032640964
22	0xbda6275b	-0.08112975
23	0x3e000290	0.12500978
24	0x3e387f5a	0.18017331
25	0xbd9bcd5e	-0.0760753
26	0x3e32f187	0.17474948
27	0x3ddeea52	0.10884537
28	0xbe5d9d09	-0.21641935
29	0xbe2cd875	-0.16879447
30	0x3e196444	0.14979655
31	0x3dda13c0	0.10648298
32	0xbe58e407	-0.21180736
33	0x3bdf1cea	0.0068088667
34	0x3da31d0e	0.07964526
35	0xbdb767fa	-0.08955379
36	0x3d3bb3d2	0.045825787
37	0x3c235eb4	0.009971309
38	0xbdd6909e	-0.10476802
39	0x3c548309	0.012970694
40	0xbdab8a6b	-0.083760105
41	0xbddaaad4	-0.10677114
42	0xbe493fa7	-0.19653188
43	0x3bd31679	0.006441888
44	0xbdfe4a38	-0.124165
45	0x3e3b4f2b	0.18291919
46	0xbd2ced12	-0.042218275
47	0xbe0c64cb	-0.13710324
48	0x3c3a121e	0.011356859
49	0x3d8b86f3	0.06812849
50	0xbd905b69	-0.07048685
51	0x3d1a57bd	0.03768133
52	0x3e4f7057	0.20257698
53	0xbe489c41	-0.19590856
54	0x3dd7e99c	0.10542604
55	0x3e66a45b	0.22523634
56	0x3e10a047	0.14123641
57	0xbe155fce	-0.14587328
58	0xbd92e1b2	-0.07171954
59	0x3e3457f0	0.1761167
60	0x3e348981	0.17630579
61	0x3e0f578e	0.13998243
62	0x3bb1488a	0.0054102587
63	0x3cabf0c5	0.020988831
64	0x3df81ed1	0.12115253
65	0x3d91f520	0.07126832
66	0xbd842174	-0.06451693
67	0xbe2280b3	-0.15869407
68	0xbe32c454	-0.17457706
69	0x3ac5a72c	0.0015079728
70	0xbdeb072e	-0.11475979
71	0x3cc1780d	0.023616815
72	0xbd8944f2	-0.067026034
73	0xbe48315c	-0.19550079
74	0xbd23a39b	-0.03995095
75	0xbc561d29	-0.013068476
76	0xbdc61b63	-0.09673192
77	0xbe453561	-0.19258644
78	0xbd440467	-0.04785576
79	0xbacc060f	-0.001556577
80	0xbe41070f	-0.18850349
81	0xbc205e31	-0.009788082
82	0xbe4ab05f	-0.19793843
83	0xbd32c336	-0.0436432
84	0xbd4aabd5	-0.049480278
85	0xbde07d38	-0.109613836
86	0x3df81967	0.1211422
87	0x3dccd670	0.10001838
88	0x3e1b9f38	0.15197456
89	0x3e245152	0.16046646
90	0x3e5580e0	0.20849943
91	0xbe2224e9	-0.15834393
92	0x3e248621	0.16066791
93	0xbe32d822	-0.1746526
94	0x3ddfd021	0.10928369
95	0xbe069878	-0.131441
96	0x3cb45a46	0.022015702
97	0xbe3ee814	-0.18643218
98	0xbd984f29	-0.074369736
99	0x3da98d96	0.082789585
100	0xbe41f5e8	-0.18941462
101	0x3df920da	0.12164469
102	0xbe64f05d	-0.22357316
103	0x3e2075ec	0.15669984
104	0x3d1547c5	0.036445398
105	0xbe108f7b	-0.14117233
106	0x3d58fd2b	0.052975815
107	0x3e2378c8	0.15964043
108	0xbde2a0c6	-0.11065821
109	0x3d5bc187	0.05365136
110	0x3e3e3676	0.18575463
111	0x3e1c58ec	0.15268296
112	0x3d766822	0.060157903
113	0x3d369a36	0.04458066
114	0x3d9aab8c	0.07552251
115	0x3d828952	0.06373848
116	0x3e010de0	0.12602949
117	0xbd5ef0df	-0.05442893
118	0xbd1022df	-0.035189506
119	0x3d0b8c8e	0.03406959
120	0x3d597588	0.053090602
121	0x3d0d616c	0.034516737
122	0xbba85a95	-0.0051377513
123	0xbd2a5de6	-0.041593455
124	0xbd930a6d	-0.07179723
125	0x3ddab923	0.10679843
126	0x3e18d720	0.14925814
127	0x3c86e154	0.016464867
128	0x3dbd887f	0.0925455
129	0x3e25b41b	0.16181986
130	0xbdcb4bcb	-0.09926566
131	0xbd7c4594	-0.061589792
132	0x3e1b9bc9	0.15196146
133	0x3d346e14	0.04405029
134	0x3d214c35	0.039379317
135	0xbc8d5ea5	-0.017257044
136	0x3e1c0532	0.15236357
137	0x3dba70bf	0.09103536
138	0xbe0f6ed7	-0.14007126
139	0x3d8f841e	0.07007621
140	0x3e3625a9	0.17787804
141	0xbde6777d	-0.11253259
142	0xbe46e344	-0.19422632
143	0x3db4263c	0.08796355
144	0xbcb57653	-0.022151148
145	0xbe244ab5	-0.16044123
146	0xbddfcd23	-0.109277986
147	0x3dbb7cec	0.09154686
148	0x3e1f1bfc	0.15538019
149	0x3ddc375f	0.10752749
150	0x3c32b84e	0.0109081995
151	0xbe045849	-0.12924303
152	0xbe021490	-0.12703156
153	0xbb9f32a7	-0.004858333
154	0xbcdce825	-0.026966164
155	0xbc58ba31	-0.013227985
156	0x3dc0121d	0.09378455
157	0xbbaa7b64	-0.0052026976
158	0xbdd02d80	-0.101649284
159	0xbc216628	-0.009851016
160	0x3da2aee7	0.07943516
161	0x3e313dbf	0.1730871
162	0xbe3e7a85	-0.18601425
163	0xbd1ed6ba	-0.038778998
164	0xbdc454fd	-0.09586523
165	0xbd83b812	-0.06431593
166	0x3c8bacd8	0.017050192
167	0xbcb46c5c	-0.022024326
168	0x3dd785c6	0.10523562
169	0x3dcdfe53	0.10058274
170	0x3dae68c7	0.085160784
171	0x3d765c0b	0.060146373
172	0x3e2c3965	0.1681877
173	0xbe00bea6	-0.12572727
174	0x3d73c481	0.059513573
175	0xbdae8b21	-0.085226305
176	0xbe16ccb1	-0.14726521
177	0xbe2c403c	-0.16821378
178	0x3e042787	0.12905703
179	0x3cf09cca	0.029371638
180	0x3e4e932b	0.20173328
181	0x3df5f195	0.12008969
182	0x3e244232	0.16040877
183	0x3dce66bc	0.10078189
184	0x3dc5267a	0.096264794
185	0xbe5dd24f	-0.21662258
186	0xbe37d561	-0.17952491
187	0x3cfc7747	0.030818595
188	0x3e0128d9	0.12613238
189	0x3dc32a96	0.09529607
190	0xbdb0461e	-0.08607124
191	0xbe094539	-0.13405313
192	0x3d6c9bd5	0.0577658
193	0x3d4549b4	0.048165992
194	0xbddace08	-0.106838286
195	0x3db201ce	0.086917505
196	0x3d4d262f	0.050085243
197	0xbd7b6d8b	-0.061383765
198	0xbd8a7b9c	-0.06761858
199	0xbe0c63e3	-0.13709979
200	0xbe02b065	-0.12762602
201	0xbcf85bdf	-0.030317245
202	0x3d56f151	0.05247623
203	0x3e26d701	0.16292955
204	0xbe533ae7	-0.20627938
205	0x3e26fc63	0.16307215
206	0x3e4b5902	0.19858173
207	0x3de5406d	0.11193929
208	0x3e3497e4	0.17636067
209	0xbe16034b	-0.14649694
210	0xbcbd3a49	-0.023099082
211	0x3de882a2	0.11353041
212	0xbda75252	-0.08169998
213	0xbbd9f513	-0.0066515296
214	0x3d63c830	0.055610836
215	0xbe1a08f9	-0.15042485
216	0xbdb235ff	-0.08701705
217	0xbe587bb8	-0.21140945
218	0xbcfe5dc6	-0.031050574
219	0xbc1ba427	-0.009499586
220	0x3d128314	0.035769537
221	0x3caf46c5	0.02139605
222	0x3e66298e	0.2247679
223	0xbdb49655	-0.08817736
224	0x3b8dce12	0.004327544
225	0xbdf904a1	-0.12159086
226	0xbdc3575a	-0.09538145
227	0x3e59bee2	0.21264222
228	0xbd524086	-0.051331066
229	0xbe45c753	-0.19314317
230	0xbe291a75	-0.16513999
231	0x3dce291a	0.10066433
232	0x3d81d92d	0.06340251
233	0x3e30f98b	0.17282693
234	0x3daf4080	0.08557224
235	0x3c582a83	0.013193729
236	0xbe579bf1	-0.2105558
237	0x3e01b28c	0.12665766
238	0xbe1da2a4	-0.15394074
239	0x3e4666a5	0.19375093
240	0xbdcb5681	-0.09928609
241	0x3d5b1525	0.053486962
242	0xbba677a2	-0.0050801793
243	0xbe22a510	-0.15883279
244	0x3e1176fb	0.14205544
245	0xbca3aecf	-0.019980816
246	0x3d981a28	0.07426864
247	0xbd56a398	-0.05240211
248	0xbdc98dde	-0.09841512
249	0xbe5f3b4f	-0.21799968
250	0x3d5273c3	0.05137993
251	0x3dcf4fe4	0.1012266
252	0x3e2f497d	0.17117877
253	0x3de96045	0.11395315
254	0xbe06aed8	-0.13152635
255	0xbda08cf6	-0.07839386

fc4.weight f4 [2, 400]
0	0x3c6747c5	0.014116232
1	0x3b105842	0.0022025262
2	0xbc4135cc	-0.011792611
3	0xbccd7707	-0.02508117
4	0x3d123f9a	0.035705186
5	0xbd95efb4	-0.0732111
6	0x3d1bf4ec	0.038075373
7	0xbcc9618d	-0.024582649
8	0xbcc15856	-0.023601692
9	0x3d17ac61	0.037029628
10	0x3c22abca	0.009928653
11	0x3b9ec7af	0.0048455815
12	0x3d129b93	0.0357929
13	0x3ca5ec73	0.02025435
14	0xbacfcf86	-0.0015854693
15	0x3cbbf887	0.022945656
16	0x3bb3e9b9	0.0054905084
17	0x3d69f732	0.05712051
18	0xbc9d73b0	-0.019220203
19	0x3cd8bb16	0.026456397
20	0xbb421333	-0.0029613494
21	0xba7ed624	-0.00097212405
22	0x3c0b6cc9	0.008509823
23	0x3ca953ae	0.020669784
24	0x3d05bbfa	0.03264997
25	0xbd8cd53f	-0.06876611
26	0x3c14a335	0.009072115
27	0x3d10df68	0.035369307
28	0x3c533cdd	0.012892929
29	0xbcd352a0	-0.025796235
30	0x3d844662	0.06458737
31	0x3d1cf694	0.038321093
32	0x3c43dba9	0.0119542265
33	0xbcd3b2eb	-0.02584215
34	0x3d58d318	0.05293569
35	0xbca7eaea	-0.020497758
36	0x3d26dadf	0.040736075
37	0xbd2a1875	-0.04152723
38	0x3d475425	0.04866423
39	0xbc7fa705	-0.015603785
40	0xbcf89193	-0.030342853
41	0x3c30ccce	0.010791017
42	0x3c927b8a	0.017881174
43	0xbd25ddbb	-0.04049466
44	0xbd1ea338	-0.038729876
45	0xbbe40bca	-0.006959413
46	0x3c36b035	0.0111504095
47	0x3c5c99a9	0.01346437
48	0xbd869f8c	-0.065734
49	0xbc3e2f26	-0.011607921
50	0x3d95dbad	0.073172905
51	0x3cc88a69	0.024480062
52	0xbd2b2b24	-0.04178919
53	0xbd3b62c8	-0.045748502
54	0x3bb7e9e5	0.005612599
55	0x3d6bcf63	0.057570826
56	0x3b4f8053	0.003166218
57	0x3d0d96ab	0.034567516
58	0xbcbbca07	-0.022923483
59	0xbd099cfd	-0.03359698
60	0xbcd47cae	-0.025938358
61	0x3ca7d5fc	0.020487778
62	0x3d58e60e	0.052953772
63	0x3d098626	0.0335752
64	0xbd1d8f3c	-0.038466677
65	0xbc868402	-0.016420368
66	0xbc8fbd67	-0.017546369
67	0x3d231a6f	0.03982013
68	0xbd06849b	-0.032841306
69	0xbd1ff589	-0.03905252
70	0x3d194248	0.037416726
71	0x3c85eb16	0.01634745
72	0x3d818c2f	0.06325566
73	0x3bcd433d	0.006264119
74	0xbce3ded2	-0.02781621
75	0xbc3395a6	-0.010960972
76	0xbcdac52b	-0.026705345
77	0xbc977589	-0.018488662
78	0xbc2e0796	-0.010621926
79	0xbbd6bd1b	-0.006553305
80	0x3c9b217e	0.018936869
81	0xbd019686	-0.03163769
82	0xbd1740e0	-0.036927104
83	0x3c16b0d9	0.009197437
84	0xbd15dcb4	-0.036587432
85	0xbd3e48e5	-0.046456236
86	0x3d59d6fd	0.053183544
87	0x3d56d944	0.052453294
88	0x3d36b609	0.044607196
89	0xbad356fc	-0.0016123946
90	0xbb98849c	-0.00465448
91	0x3b638b7b	0.0034720588
92	0x3d1422bd	0.03616594
93	0xbc4e7c2e	-0.012602849
94	0x3d085666	0.03328552
95	0x3d004548	0.03131607
96	0xbce533f0	-0.027978867
97	0x3d54e401	0.051975254
98	0x3bafb5f1	0.0053622653
99	0x3c81d7c1	0.01584995
100	0xbc049a95	-0.008093496
101	0x3c18f371	0.009335385
102	0x3c585f69	0.013206341
103	0x3ca11c3e	0.019666787
104	0x3bde22a1	0.0067790304
105	0xbcd77d50	-0.02630487
106	0xbb8094cd	-0.0039239884
107	0x3ba7f223	0.0051253005
108	0x3a7512c5	0.0009348805
109	0xbd1a79f3	-0.037713956
110	0x3ca85612	0.020548854
111	0x3c49256b	0.012276988
112	0xbd50849f	-0.050907727
113	0x3d3a4754	0.04547818
114	0x3d511e39	0.051054213
115	0x3cbe08e0	0.023197591
116	0xbd0e149d	-0.034687627
117	0x3ce1eae7	0.02757783
118	0x3c1754c6	0.00923652
119	0x3d588a2a	0.05286614
120	0x3cca9014	0.024726905
121	0xbcbf8908	-0.023380771
122	0xbc4930cc	-0.0122797005
123	0xbd1004ce	-0.035160832
124	0x3d4679af	0.04845589
125	0xbd00ab22	-0.031413205
126	0x3caadae1	0.020856323
127	0xbb33638c	-0.0027372567
128	0xbca57855	-0.02019898
129	0xbcbb623e	-0.022873994
130	0xbd3bb44e	-0.04582625
131	0x3896d4b8	7.192179e-05
132	0x3d3e8ff7	0.046524014
133	0xbb08035d	-0.0020753958
134	0xbb0000b8	-0.0019531678
135	0x3d0280f2	0.031861253
136	0xbc3476b1	-0.011014626
137	0x3cab5cdd	0.020918304
138	0x3d417f8c	0.04724078
139	0x3c6cecb5	0.014460732
140	0xbd29107e	-0.041275494
141	0xbd075121	-0.033036355
142	0xbd53c25e	-0.051699035
143	0xbb854711	-0.0040673097
144	0xbd3488ad	-0.044075657
145	0xbbe58ebe	-0.0070055416
146	0x3cc81075	0.02442191
147	0xbd4df8b9	-0.05028603
148	0xbce5934c	-0.028024338
149	0x3c91174d	0.017711306
150	0xbb3fe512	-0.0029280824
151	0xbd2cd679	-0.042196725
152	0x3c144514	0.009049673
153	0x3cb4b2d5	0.02205793
154	0xbc4f5d11	-0.012656466
155	0x3c52c991	0.01286544
156	0x3c71477a	0.014726514
157	0xbc54cba3	-0.012988004
158	0x3d1eba44	0.038751855
159	0x3b710d75	0.0036781703
160	0x3b934475	0.0044942447
161	0x3c099d18	0.0083992705
162	0xbc11c6da	-0.008897508
163	0xbd1cca33	-0.03827877
164	0xbd1b9986	-0.03798821
165	0x3cda0eed	0.026618445
166	0xbbf8d90e	-0.0075942343
167	0x3d47e67b	0.048803788
168	0x3d517d53	0.05114491
169	0x3d05e0c7	0.032685068
170	0x3d415c7c	0.04720734
171	0xbd0ef605	-0.03490259
172	0xbd6f795f	-0.058465358
173	0xbd84f67d	-0.064923264
174	0x3d1f4efd	0.03889369
175	0xbb36088b	-0.0027776088
176	0x3c6b00fb	0.0143434955
177	0x3cf5ef08	0.030021206
178	0xbcd30637	-0.0257598
179	0xbb9a45c7	-0.004708025
180	0x3ccf9b74	0.02534268
181	0x3ca1a1ab	0.01973041
182	0x3d42a0f4	0.047516778
183	0xbb9fbd1e	-0.0048748394
184	0x3cc3d5b6	0.023905616
185	0xb8ad245a	-8.256054e-05
186	0x3d29af67	0.041427042
187	0xbc8e443b	-0.01736652
188	0xbc268534	-0.010163594
189	0xbc0e3168	-0.008678772
190	0x3cf0daef	0.02940127
191	0x3af3d01d	0.0018601451
192	0x3b39f2b7	0.002837343
193	0x3cccb55d	0.024988825
194	0xbc7d27bd	-0.015451369
195	0xbb868059	-0.0041046557
196	0xbce40fa9	-0.027839499
197	0xbb788a1d	-0.0037924119
198	0xbd2b0f80	-0.04176283
199	0xbcb79cfe	-0.022413727
200	0x3c8ac86f	0.016941277
201	0xbd020d94	-0.03175123
202	0xbcb8cab3	-0.022557592
203	0x3b95ac2a	0.0045676427
204	0x3d49febe	0.049315207
205	0xbca85143	-0.020546561
206	0xbc9e01a9	-0.019287901
207	0xbd87b708	-0.06626707
208	0x3c55d3ff	0.013051032
209	0xbbeef585	-0.007292452
210	0x3d46570e	0.048422866
211	0xbd2ab846	-0.041679643
212	0x3cba2baf	0.022725908
213	0x3cc89b03	0.024487978
214	0xbc0d92e7	-0.008640981
215	0x3d852aa3	0.06502273
216	0x3d706ef2	0.058699556
217	0x3d48e636	0.04904767
218	0xbc9afdd5	-0.018919865
219	0xba5309f6	-0.00080504955
220	0x3d227d4f	0.039670285
221	0xbd06a99f	-0.032876607
222	0x3d76f9a7	0.06029668
223	0x3c3c5508	0.011494882
224	0xbbaa7106	-0.0052014617
225	0xbc294b94	-0.010332961
226	0xbd43624a	-0.047701158
227	0xbd4c704d	-0.049911786
228	0x3d45f6b0	0.048330963
229	0x3cae5d5f	0.021284757
230	0x3c7e4389	0.015519031
231	0x3d0d07fe	0.03443145
232	0x3c3fe94d	0.011713338
233	0xbcec231e	-0.028825339
234	0xbd0f8837	-0.035042014
235	0x3c95fc5b	0.018308809
236	0xbca0a271	-0.019608708
237	0x3d67a427	0.056553032
238	0xbc94ca52	-0.01816288
239	0x3d661db5	0.056180675
240	0x3c54d467	0.012990094
241	0x3c9b6f04	0.018973835
242	0xbcfc5b86	-0.03080536
243	0xbd314e54	-0.04328759
244	0xbcec5a1d	-0.028851563
245	0x3ba4065d	0.0050056414
246	0x3cf6758e	0.030085351
247	0x3d46e7c6	0.04856088
248	0x3c1474b9	0.009061032
249	0xbcd33f55	-0.025787035
250	0xbd09f5d7	-0.033681717
251	0x3cf763af	0.0301989
252	0x3c55e2bc	0.013054546
253	0xbd2b3f5d	-0.041808475
254	0x3cf68dac	0.030096851
255	0xbb1b6c07	-0.0023715512

fc4.bias f4 [2]
0	0xbd2407ae	-0.040046386
1	0xbc437774	-0.011930335

cls.weight f4 [2, 48]
0	0x3d7ba87a	0.06143997
1	0xbd29ad60	-0.04142511
2	0x3b529767	0.00321337
3	0xbdae0987	-0.08497911
4	0xbc04b0a7	-0.008098758
5	0xbd827f64	-0.06371954
6	0x3d86f0ff	0.06588935
7	0x3e154256	0.14576086
8	0xbdf6c627	-0.12049513
9	0xbd8afd2d	-0.06786571
10	0xbc5a6b93	-0.013331312
11	0xbccf8299	-0.025330829
12	0x3e3cf432	0.18452528
13	0xbd1b3100	-0.037888527
14	0xba139dc3	-0.00056311133
15	0x3d277e15	0.040891726
16	0x3d87b1ce	0.066257104
17	0xbdc87210	-0.09787381
18	0xbd520769	-0.051276598
19	0x3e17034f	0.14747356
20	0x3d4e2303	0.05032636
21	0xbc8f86c6	-0.01752032
22	0x3d832feb	0.06405624
23	0x3de19385	0.11014465
24	0x3d4d9990	0.050195277
25	0xbd87c56e	-0.066294536
26	0xbd140e15	-0.036146242
27	0xbdeb9092	-0.11502184
28	0xbd8b164a	-0.06791361
29	0xbda79b3e	-0.08183907
30	0xbd79194c	-0.06081514
31	0xbd146505	-0.036229152
32	0x3df30cfc	0.11867711
33	0x3d28132c	0.04103391
34	0x3ccb5460	0.024820507
35	0x3d2652e9	0.040606413
36	0x3d8c6ada	0.06856318
37	0x3cfd5b42	0.030927304
38	0xbb73e71c	-0.003721661
39	0xbd9e8a6a	-0.07741244
40	0xbc95f96a	-0.018307406
41	0xbdcdd7f3	-0.10050955
42	0x3d90db00	0.07073021
43	0x3df6f46f	0.12058341
44	0xbdffa6ad	-0.12482963
45	0xbdb69c1f	-0.089164965
46	0xbd17ca89	-0.037058387
47	0x3c1a276c	0.009408813
48	0xbe2aca9c	-0.16678852
49	0xbd14a601	-0.036291126
50	0xbdc00834	-0.093765646
51	0x3da00960	0.07814288
52	0xbd852012	-0.065002576
53	0x3cc3c434	0.023897268
54	0x3c1090ef	0.008823617
55	0x3ca23486	0.019800436
56	0xbe0804b5	-0.13283046
57	0xbc4ce719	-0.01250627
58	0xbd04862f	-0.03235453
59	0xbcaab06d	-0.02083608
60	0xbe06abab	-0.13151424
61	0x3d61c9ed	0.055124212
62	0xbe18b6d9	-0.14913501
63	0x3e09f93a	0.13473979
64	0x3cf8fd25	0.030394146
65	0x3b751bd5	0.0037400622
66	0xbe1dc098	-0.154055
67	0xbdaf2037	-0.08551066
68	0xbd79c564	-0.060979262
69	0xbdda8824	-0.10670498
70	0xbcd4c53b	-0.025972953
71	0x3d53aee6	0.051680468
72	0x3ca8c213	0.020600354
73	0xbae1be41	-0.0017222838
74	0xbc541a94	-0.01294579
75	0x3e06db29	0.1316954
76	0xbe11a80a	-0.14224258
77	0xbe00dcba	-0.125842
78	0xbdda7473	-0.10666742
79	0xbce3eefc	-0.027823918
80	0x3d931288	0.07181269
81	0xbda58a33	-0.08083
82	0xbd819f20	-0.06329179
83	0xbd942b2f	-0.07234799
84	0x3da6b925	0.08140782
85	0x3cf5843a	0.029970277
86	0x3d659d75	0.056058366
87	0x3daed681	0.08537007
88	0x3caaa544	0.020830758
89	0x3db794d6	0.08963935
90	0xbbcd1040	-0.0062580407
91	0xbdf0e232	-0.11761893
92	0xbdf4b931	-0.11949385
93	0x3d600469	0.054691706
94	0xbd6aacee	-0.057293825
95	0x3e1c7734	0.15279847

cls.bias f4 [2]
0	0x3de8d877	0.113694124
1	0x3d905027	0.07046538
