result/train_5/model.pt (torch, 188935 bytes, 10 tensors)

fc1.weight f4 [400, 72]
000000 2e 09 e3 bb 29 42 b9 bd 69 46 09 bd 72 da 35 bd
       -0.0069285845 -0.09045822 -0.033514414 -0.04439778
000010 61 91 99 3d ae 54 9c bd ea f0 00 3d 93 5a d9 37
       0.07498432 -0.07633339 0.031479754 2.5910593e-05
000020 0a a8 87 3d c3 2e 2c 3d 04 63 a4 bd ae f8 79 bd
       0.06623848 0.042036783 -0.08026698 -0.061028175
000030 80 28 05 3e 50 47 8c bd b9 05 93 3c ad 07 b9 bc
       0.13003731 -0.06849539 0.017947065 -0.022586668
000040 45 2b a4 bd c7 ad c8 3c 12 ff 10 3d 06 b4 30 bc
       -0.080160655 0.024496926 0.035399504 -0.010785108
000050 67 ad 15 bb c0 4f 8f 3d 93 d7 65 3d e7 24 c7 bc
       -0.0022838952 0.06997633 0.05611379 -0.024309589
000060 3e dc 97 bd 3e cb be 3d 60 b1 2d bb 99 7a 03 be
       -0.07415055 0.09316109 -0.0026503429 -0.12839736
000070 dd 74 80 3d da 55 e0 bd 46 fd f0 bd 07 fb c9 3d
       0.0627229 -0.10953875 -0.11767058 0.09862333
000080 d7 d3 ed 3b 7b 48 30 3d 88 fc b9 bd e2 2e 96 bd
       0.0072579193 0.043037873 -0.0908137 -0.07333161
000090 72 5f 6b bd 97 ab 22 3d 9f 25 2f bd 54 0b 8a bd
       -0.05746407 0.039714422 -0.042760488 -0.06740442
0000a0 44 d4 60 3d c0 1f c5 3c a1 7b 60 3d 6f fe 75 3c
       0.054889932 0.024062991 0.0548054 0.015014275
0000b0 81 f2 e5 bd e6 cb f2 bd 33 66 15 3d 08 eb f7 bd
       -0.112278946 -0.11855297 0.036474418 -0.121053755
0000c0 d9 50 de bd b7 e1 eb bd cd 73 04 3e dd cc 74 bc
       -0.10855264 -0.11517661 0.129348 -0.014941421
0000d0 f2 01 82 3c e6 69 d4 bd 31 1e 82 3d 4b 55 a7 3c
       0.015870068 -0.10371761 0.06353415 0.020426413
0000e0 80 96 80 bc 91 5a 6d bd 4f 7a 37 3d 26 50 c9 3c
       -0.015696764 -0.0579477 0.044794377 0.02457435
0000f0 9e 70 cf 3d 65 01 e1 3d a2 89 fc 3b 01 43 b7 3b
       0.10128902 0.10986594 0.007706837 0.0055927043
000100 88 4c 1c bd 90 b2 b2 3d 49 13 89 bc be 67 db bd
       -0.038158923 0.08725464 -0.016732829 -0.107131466
000110 36 4e d1 bb 5b 52 a0 bc f8 f1 80 3d cc b2 0b 3b
       -0.0063874973 -0.01957052 0.06296152 0.0021316288
000120 3a ea d5 bd c9 19 02 bd 97 75 2c bd 0a bd b4 3d
       -0.10445066 -0.031762872 -0.04210433 0.08825119
000130 ea ce a2 bc d8 4d fe bd e5 26 24 bc 24 71 71 3d
       -0.019874055 -0.12417191 -0.010019039 0.05894579
000140 96 31 97 bd fc f5 05 bd 98 65 bd 3c 89 59 7e bc
       -0.07382505 -0.032705292 0.023119733 -0.0155242765
000150 9a ea 4b bd 61 cf aa 3d 46 51 a2 bd 82 6a b9 3d
       -0.04978428 0.08340336 -0.07925658 0.09053518
000160 fc 22 37 bd 83 01 89 bd 67 32 eb bd 8a 49 b7 bd
       -0.044711098 -0.066897415 -0.11484223 -0.08949573
000170 00 9e c2 3d 1b cc b1 3d 88 f2 50 bb d6 52 37 3d
       0.09502792 0.08681508 -0.003188284 0.044756733
000180 51 66 24 3c 37 84 ea 3b dc 99 5f 3d b2 82 55 bd
       0.01003416 0.0071568745 0.05459009 -0.052126594
000190 9c b2 95 3d c9 e3 ce 3d f5 8e d4 bd 82 89 6a 3d
       0.07309458 0.1010204 -0.103788294 0.057260044
0001a0 09 a3 b1 bd cc 2a c0 bd dc bc 20 3c e2 7f 51 bd
       -0.086736746 -0.09383163 0.009810653 -0.05114735
0001b0 a8 6a f1 bd fa 36 1f bc d5 b2 92 bd c3 11 b8 3c
       -0.11787921 -0.009717697 -0.07163016 0.022469407
0001c0 8b d5 a2 bc f7 5b 61 bc 82 91 9a 3c 20 f4 9a bc
       -0.019877216 -0.013754836 0.018868212 -0.018915236
0001d0 3a 3c 7f bd 9e fa 75 3c 14 8f d9 3d 72 3e d1 3d
       -0.062313296 0.015013365 0.10622993 0.102169886
0001e0 b8 74 67 3b f5 99 bf 3d ca 07 5f 3d cd 0a 9a bd
       0.0035317373 0.09355537 0.054450788 -0.07521591
0001f0 26 4a 60 3d 93 d5 8a 3d 3b ab c0 3c 9c 50 dc bd
       0.054758213 0.06779017 0.023519149 -0.107575625
000200 02 6d 16 bd 8a 06 f8 bc 87 13 dd bc b2 35 0f bc
       -0.03672505 -0.030276556 -0.02698685 -0.008740829
000210 5d 52 9c 3d f0 fa ee bc c2 9f 23 3c f4 29 8c bc
       0.07632897 -0.02917239 0.00998682 -0.017109849
000220 4e d1 a4 3d 5c 72 c7 3d c8 ca 40 3c da 1c ae 3d
       0.08047734 0.09738609 0.011767097 0.08501597
000230 25 b8 a4 3d 7b 41 b8 3d c0 c5 b5 3d 9b 8d b6 bd
       0.08042935 0.089968644 0.088756084 -0.08913728
000240 28 74 ba 3b b4 37 29 bd bd d6 ac bb 16 34 94 bc
       0.0056901164 -0.04131289 -0.0052746222 -0.018091243
000250 48 2d 41 bc 62 3b fe 3c 1a 12 fc bd 8c 7c 51 3d
       -0.011790581 0.031034175 -0.1230814 0.051144168
000260 47 3c 09 bd 87 9d be 3c bc 83 70 3d 91 b0 4d 3d
       -0.03350475 0.023268474 0.05871938 0.050217215
000270 2c d1 94 3c 2b 91 84 3d 76 3d 1b 3c 76 47 8b ba
       0.018166147 0.06473001 0.009475103 -0.0010626155
000280 2c 00 9d bd 23 98 0c 3e 68 bd 6a bd 2c b2 a6 3d
       -0.076660484 0.1372991 -0.057309538 0.08139452
000290 b0 0e 51 bc 93 a5 c1 3b 88 f9 99 3d 45 39 a5 3c
       -0.012759849 0.0059096306 0.075182974 0.02016891
0002a0 fb 48 11 3d 46 f5 4a 3d 93 07 a4 bd 29 c4 c1 3b
       0.03546999 0.049550317 -0.08009257 0.0059132767
0002b0 c5 0b 23 3d 68 2f 0b bd 68 22 d8 3d 92 da c0 3d
       0.039806146 -0.033980757 0.105534375 0.09416689
0002c0 99 5d 9a bc a0 7e 31 bd c4 57 d2 3b b0 a3 ab 3d
       -0.018843459 -0.04333365 0.006419154 0.0838083
0002d0 e7 02 b4 bd 6e 2c 92 3d 5c d8 88 bd 74 0b 2d bc
       -0.08789616 0.071373805 -0.06681892 -0.010561813
0002e0 da 4b 21 bb 03 44 54 bc ce 8e ba 3c 83 43 25 bd
       -0.0024611861 -0.012955668 0.022773173 -0.040347587
0002f0 73 69 64 3c 9b ad a9 bd 6f a0 f4 3d d5 25 e1 bd
       0.013941157 -0.08285066 0.11944663 -0.10993544
000300 a3 02 8e 3c 81 06 9f bd 76 46 70 bd be a8 fb 3c
       0.017335242 -0.077649124 -0.058660947 0.030720111
000310 c3 ea 6a bd f2 ab 8a 3d 46 a0 92 bb bb 7d 62 bc
       -0.057352792 0.06771077 -0.0044746725 -0.013823922
000320 23 ab a6 bd 79 99 82 bd 4c 8b de 3d a8 8b a8 3d
       -0.081381105 -0.06376929 0.108664125 0.08229762
000330 7d 76 50 3d 4d e3 4a bd 48 51 fa 3d 86 64 74 bd
       0.05089425 -0.049533177 0.122225344 -0.05966618
000340 81 1a 75 bd 45 3d 42 3c e1 8f d9 3d c0 2b b9 3b
       -0.05983973 0.011855428 0.10623146 0.0056509674
000350 12 2c d6 bb 62 23 6f bc b9 fd 90 bd 4f 95 28 3d
       -0.0065360153 -0.014595838 -0.07079644 0.041158017
000360 e9 f4 ae 3d d9 08 94 3c b5 bd e5 bb ef 63 02 be
       0.08542807 0.018070625 -0.00701114 -0.12733434
000370 8d c4 c1 3d f1 e8 97 3d f0 25 c1 3d df 9d a4 3d
       0.09461317 0.07417477 0.09431064 0.08037924
000380 9a 8a 24 3c aa 4d 07 bd 5c 20 d3 3d 6b 3c 1f bc
       0.010042811 -0.03303305 0.103089064 -0.009718995
000390 35 08 03 bd 45 be 9e 3d 67 80 9b bd 4b 7a 00 be
       -0.03199025 0.07751135 -0.0759285 -0.12546651
0003a0 76 38 ad bd 55 40 69 bd 0f b4 f9 bd 09 ec f3 3d
       -0.08458035 -0.056946117 -0.121925466 0.119102545
0003b0 03 72 c7 bd 37 7c 3c bc 70 c6 dc 3d a5 5d 14 be
       -0.09738543 -0.0115042245 0.107800364 -0.14488848
0003c0 dd 9f cd bd 31 2c a3 3b 63 07 08 3d 85 53 6d 3d
       -0.10040257 0.0049796333 0.03321017 0.05794098
0003d0 e0 87 0b bc 50 1f 42 bd f3 ff 73 3d a1 10 e7 bd
       -0.008516282 -0.047393143 0.059570264 -0.112824686
0003e0 32 17 82 3d 3f 7d 09 bd de 61 b3 bd fe bf 27 3d
       0.063520804 -0.03356671 -0.08758901 0.040954582
0003f0 56 4e a0 3d 0f c2 b1 3d 53 99 f2 3c 2c dc a3 bd
       0.078274414 0.08679592 0.029614126 -0.08000979

fc1.bias f4 [400]
000000 ad bc 00 3d 0b 82 ad 3d a5 71 b5 3d cb 23 eb 3c
       0.031429935 0.08472069 0.088595666 0.02870359
000010 21 ce 96 bc 45 6d bd bd e8 9e a7 3d 99 27 fa 3d
       -0.018408837 -0.09249357 0.08184606 0.12214584
000020 01 77 99 bd 8e f3 87 3d 18 98 ae bd dd e4 07 3d
       -0.07493401 0.06638251 -0.08525103 0.033177245
000030 fc 4a db 3c 3a 1a 07 bb 5c 7e b6 3d 92 af cf bd
       0.026769154 -0.0020614997 0.0891082 -0.10140909
000040 b9 4e 92 ba d3 78 87 bd f6 1d 51 bd f9 79 9d bd
       -0.0011162377 -0.06614842 -0.051053964 -0.0768928
000050 bc 03 ab 3d fa 0a cf 3d 77 bc 47 bc 12 29 1d 3d
       0.08350322 0.101095155 -0.01219093 0.038369246
000060 c5 4d 6e 3d 13 1f 81 bd b7 55 7d bc ca 2c cf bd
       0.058179636 -0.06304755 -0.015462331 -0.10115965
000070 02 95 83 3d 9d c4 a1 bd 2d b9 d7 3d 55 3b d1 3c
       0.06424905 -0.07898829 0.10533366 0.025540987
000080 22 fd fe bc 05 1f af 3d 44 f0 b7 bc c9 c1 17 bc
       -0.031126563 0.085508384 -0.022453435 -0.009262511
000090 c7 a7 41 bd 42 3e 24 bc a5 6e bb 3c 52 70 e1 3c
       -0.047279146 -0.010024609 0.022879908 0.027519379
0000a0 25 a2 a6 3c 84 36 93 bd 83 7a 8a bd 98 11 dd 3d
       0.020340988 -0.071881324 -0.067616485 0.10794371
0000b0 b9 d2 d8 bc 81 af 91 3d 58 fa 85 bd be 70 fe 3c
       -0.026467668 0.07113553 -0.0654189 0.031059619
0000c0 19 68 87 bd 7b 7a b2 bd cb d9 aa bc 63 f9 9e 3d
       -0.06611652 -0.087147675 -0.020855805 0.077624105
0000d0 45 da 0f 3d 07 2b 26 bb 19 b1 89 bd e3 f1 84 3d
       0.035120267 -0.0025355236 -0.06723232 0.06491449
0000e0 73 6c 3b 3d d2 9b a1 3d f6 1a e1 bd d8 da f0 ba
       0.045757722 0.078910485 -0.109914705 -0.0018375767
0000f0 6c 24 f8 3c 36 0f 9a 3d 28 27 3b ba 3c 31 9c 3d
       0.030290805 0.075224325 -0.00071393186 0.07626578
000100 90 8a 14 bd 5b 84 80 3d 01 a4 5e bd 64 97 a7 3d
       -0.036264956 0.06275245 -0.054355625 0.08183172
000110 5b 8f b9 bd 52 1f 3f 3c de e6 f1 3d 82 e5 92 bd
       -0.09060546 0.011665182 0.118116125 -0.071726814
000120 3f 52 18 3d f2 d6 01 3d 0c b4 1d bd f8 80 ab 3d
       0.03718781 0.03169913 -0.038501784 0.08374208
000130 1b e8 3d 3d 63 fa ed bb 3e 63 56 3d da 9b 95 bb
       0.04636393 -0.0072625144 0.05234074 -0.004565698
000140 22 70 fa 3d b7 40 4d 3d cd 5d c6 bd 3d ef 30 3d
       0.12228419 0.050110545 -0.0968586 0.043196905
000150 5c 4a a2 bc 5a 3b cb 3d b0 c9 91 bd f7 2c 4a bb
       -0.019810848 0.0992343 -0.07118547 -0.0030849555
000160 f7 56 cd bc 7e 4d 8b bc e2 22 4c bd 25 09 c2 bd
       -0.025065882 -0.017004725 -0.049837954 -0.094744004
000170 2c ca ad 3d cc d5 33 3c 13 3c d1 bd d0 94 41 bc
       0.08485827 0.010976266 -0.102165364 -0.011815265
000180 60 e4 16 3d 0b f9 6a 3d ed 79 f7 bd 0e 7a a8 bd
       0.03683889 0.057366412 -0.12083802 -0.08226405
000190 52 74 d7 3d 0a 64 1e bc b0 ae b9 3d fd 2c da 3d
       0.10520233 -0.009667406 0.09066522 0.10653112
0001a0 07 93 c7 bd ef 64 82 bd f1 6d 5b 3d bf bf 77 bd
       -0.0974484 -0.06366908 0.053571645 -0.060485598
0001b0 f8 bc 12 bc 89 88 fd 3c 83 78 e8 3c 7a 90 8b 3d
       -0.0089561865 0.030948894 0.028377777 0.06814666
0001c0 2b af e5 bd 33 45 bd bb 1b 5b cf 3c 8f 3e 8b 3d
       -0.11215051 -0.0057760715 0.025311997 0.067990415
0001d0 89 53 9e 3d c5 de 25 bc 4e 57 ed 3d 95 7c 72 3b
       0.07730777 -0.010123913 0.11588918 0.0037000526
0001e0 78 21 b2 3d 96 15 d3 bd ea 54 81 bc 01 06 c8 bd
       0.0869779 -0.103068516 -0.01578756 -0.0976677
0001f0 bd 92 a5 3d d1 dd 27 bd 85 28 83 3d 91 fa a7 3d
       0.08084629 -0.040983025 0.06404213 0.082020886
000200 1f 60 e0 3d c9 ed 73 3d 36 d9 92 3d e3 43 06 3e
       0.10955834 0.05955294 0.07170336 0.13111834
000210 2f 24 d5 bd ad cf d6 3d 12 5d 71 3d 6d 90 81 3d
       -0.10407292 0.1048883 0.05892665 0.06326375
000220 4e 58 88 3d c6 11 4d bd 3c ec 95 3d 8f 7a 88 bd
       0.06657468 -0.05006578 0.07320449 -0.06664001
000230 75 74 de 3d 17 2d 07 bd 08 59 fe bd f3 46 07 bc
       0.10862056 -0.033001985 -0.12419325 -0.008256662
000240 e5 7d b3 3d 6d 48 32 bd 3a 09 99 bd 12 82 c0 3b
       0.08764247 -0.0435261 -0.07472463 0.0058748806
000250 35 27 1c 3c ae e3 54 3d 60 27 cf 3c 48 83 29 3c
       0.009530832 0.051974945 0.02528733 0.010346241
000260 b8 8e bb 3d c2 ba bd bd 44 52 79 bd 2b ac 73 bc
       0.09158081 -0.09264137 -0.06086947 -0.014872591
000270 6c 97 a8 bd 00 bc d3 bd 0e a6 55 3d c6 9f d7 bd
       -0.082320064 -0.103385925 0.052160315 -0.10528521
000280 81 00 bf bc e3 0e c3 bd e9 76 d2 bb 46 c5 f4 bd
       -0.02331567 -0.09524324 -0.0064228666 -0.119516894
000290 0c 19 3b 3c 52 5d 85 3d cf ea fe 3c 00 d2 c8 bb
       0.011419546 0.0651194 0.031117825 -0.0061285496
0002a0 f8 0b c4 3d 23 6c 86 bd 16 c5 73 bd 85 54 5d bd
       0.09572595 -0.06563594 -0.059514128 -0.054035682
0002b0 40 eb db bd 85 cd d1 3c 76 82 14 3d b9 12 e5 3d
       -0.1073823 0.025610695 0.03625723 0.11185212
0002c0 dc cc 81 bd dd 18 b3 3d ad d5 b7 bd b5 2c 95 3d
       -0.06337902 0.08744977 -0.08976302 0.07283918
0002d0 70 65 70 bc e1 d7 95 3d da 5a 58 bb 91 1a 04 bd
       -0.014672622 0.07316566 -0.0033013136 -0.0322519
0002e0 81 c6 be 3c 6e 72 d0 bd db a2 de bd 56 71 81 bd
       0.023288013 -0.10178076 -0.10870906 -0.06320445
0002f0 10 40 4c bd 6d b5 b0 3d c6 e8 a6 3d e6 e9 e3 3c
       -0.049865782 0.08628354 0.08149867 0.027821492
000300 fd 56 a8 bd 1e 76 93 3d 7f b4 fe 3c 24 2c 7b 3d
       -0.08219717 0.072002634 0.031091927 0.061321393
000310 56 7d ac bc 4f 7e dc bc e4 d8 82 3d b8 56 98 bc
       -0.021055859 -0.026915697 0.06389025 -0.018596038
000320 5e 5a 4e 3d 7e cc 44 3d 04 9e f1 bc a6 92 75 3d
       0.05037915 0.04804658 -0.029494293 0.059954308
000330 f9 46 da 3d c7 25 94 3d 3d 48 53 3c 91 99 6b 3d
       0.10658068 0.07233768 0.012895641 0.0575195
000340 85 61 55 3c 64 b6 14 3d 8a 96 9b bd df 85 73 3d
       0.013023739 0.036306754 -0.075970724 0.05945384
000350 d0 d9 39 bd 4b 1a 3e bd 78 a6 c5 bd d3 d9 9d bd
       -0.045373738 -0.046411794 -0.09650892 -0.07707562
000360 ef 76 98 bd 7b f3 31 3d a6 98 9d 3c 15 90 24 bd
       -0.0744456 0.04344509 0.019237828 -0.04017647
000370 49 ab c6 bd fd e8 a3 3c 4f d4 f1 3c 6f 10 89 3b
       -0.09700639 0.020008558 0.029520182 0.0041828672
000380 7c e5 e4 bd 34 35 b4 bc e6 77 ea bd c5 7b 79 3d
       -0.11176583 -0.021998025 -0.1144865 0.06090905
000390 dc 00 17 bd fb e0 a3 3d 94 d0 b4 bd 62 b1 b3 3c
       -0.036866054 0.08001896 -0.088288456 0.021935169
0003a0 c8 51 e1 bd 0f f3 28 3d 9f b3 8b 3d 13 c2 43 bd
       -0.11001927 0.041247424 0.068213694 -0.047792505
0003b0 e5 db 63 3d 7c 1f 74 3b 0f fd 8e bd 17 24 c2 3c
       0.05562963 0.0037250211 -0.06981861 0.02369885
0003c0 2f 85 80 3d 4f 44 bd 3d 19 76 6f bd 49 02 9c bd
       0.06275403 0.092415445 -0.058462236 -0.07617623
0003d0 1c 2b ed bd a1 98 16 bd c7 94 fe bc 2f 0c 95 bd
       -0.11580488 -0.036766652 -0.031076802 -0.072777145
0003e0 5a cb e2 bc b2 bb 22 bc ec 91 c2 bd 6c 66 4d bc
       -0.027684856 -0.009932445 -0.09500489 -0.012536626
0003f0 0b 21 40 3d f3 bc 81 bd dd a5 a6 3c fa 2c 07 bd
       0.046906512 -0.06334867 0.020342762 -0.033001877

fc2.weight f4 [20, 400]
000000 40 55 01 bd 6a 2c bb 3b c8 43 80 3d f6 52 71 bc
       -0.03157544 0.0057120817 0.06262928 -0.014729252
000010 22 25 b9 3c a3 92 68 3c f8 57 1a bc bb 80 38 3b
       0.022600714 0.014195117 -0.009420387 0.0028152901
000020 7f a2 3b 3c 73 35 3d 3d fb f3 87 3c f0 49 6c bd
       0.011452316 0.04619355 0.016595831 -0.0576877
000030 73 1f 89 bc 9c c2 23 bd 7b 95 42 3c 73 c1 73 3e
       -0.016738629 -0.039980516 0.011876459 0.23804264
000040 16 4c 81 3d 89 8e 0b 3e c9 7c 15 bd 36 45 d4 bb
       0.0631334 0.13628592 -0.036495958 -0.006477977
000050 d8 e1 65 3d 59 28 63 bd 8a 17 0b bc fe d7 4c 3c
       0.056123585 -0.0554584 -0.008489499 0.012502668
000060 1e dd c6 bc 62 3d 45 3d 81 26 ae 3c 92 e8 10 bd
       -0.024275359 0.048154242 0.021258594 -0.035378046
000070 f4 81 4f 3d 31 ef 22 bc 7c ef 81 bd c2 e4 be bd
       0.050661042 -0.009944723 -0.06344506 -0.09320976
000080 04 f2 57 3d b4 b4 0f bd 48 9a f7 3b f1 99 9a 3d
       0.05272104 -0.03508444 0.0075562336 0.07548893
000090 ab 74 5d bd d8 f1 17 3e c2 5b 00 bd a0 ff 31 bc
       -0.05406634 0.1483835 -0.031337507 -0.010864168
0000a0 3b 82 09 3d 27 5f bb 3b 7a 69 f8 3c b5 cf c0 bd
       0.033571463 0.00571813 0.030323733 -0.09414617
0000b0 de e6 bb bc 5d ef 1c 3c 15 5f f2 bc e5 d3 c0 3c
       -0.022937234 0.009578553 -0.029586354 0.02353854
0000c0 c6 2f 7b bd 75 8d 63 3d f2 d3 ae 3d 4a dd 0b 3e
       -0.061324857 0.055554826 0.08536519 0.13658634
0000d0 c9 31 0b bc 48 7d b4 bc c8 84 d1 bc a3 d3 6d bd
       -0.008495756 -0.022032395 -0.02557601 -0.05806316
0000e0 7e 84 7d bc db 32 54 3d c4 a6 05 3d 71 ff a2 3c
       -0.015473483 0.051806312 0.032629743 0.019897195
0000f0 1f 3c 26 3c 77 e7 9f bd 35 e4 99 3d cd 63 3f 3d
       0.01014617 -0.0780782 0.0751423 0.046726037
000100 98 a3 3d 3d d6 9a 85 3c a4 89 83 bd e8 da 61 bc
       0.046298593 0.016309183 -0.06422737 -0.0137851015
000110 9c 4e 8b bb 21 ae 29 bd 6d 59 36 bd 7b b9 ec bc
       -0.0042513143 -0.041425828 -0.044518877 -0.028897038
000120 80 31 31 3d 5d 50 9d 3d f2 21 ef 3c 1f 03 8b 3c
       0.043260098 0.07681344 0.029190991 0.016969262
000130 5b fb 8d 3d 1e 56 4d 3d 82 80 a5 3b 66 fd ab 3d
       0.06932708 0.050130956 0.0050507197 0.08397941
000140 55 0b a4 bc 52 ce 98 bd 16 f9 87 bd d8 ae e0 3b
       -0.020024935 -0.074612275 -0.06639306 0.0068567805
000150 2d e1 9e 3c 93 42 3b 3d f4 fe 00 bd df a7 5e bb
       0.019394482 0.045717787 -0.031493142 -0.003397457
000160 6d fc aa 3c 22 59 ff 3c 4c d0 f8 3b 0a e9 56 bd
       0.02087232 0.031170432 0.0075931903 -0.052468337
000170 5e 72 c7 3d 9e c6 0a 3c eb 34 d4 3d a7 4b e3 bc
       0.09738611 0.008470206 0.10361656 -0.027746035
000180 9d 55 ac 3c f7 01 c5 bb c0 4e c1 bc 3f 9b 24 bd
       0.021036917 -0.006012197 -0.023597121 -0.040187117
000190 79 2a 2f bd 6c db a7 bc 16 61 90 bd d2 b8 1b 3d
       -0.042765114 -0.02049037 -0.07049768 0.038018055
0001a0 f3 fe 15 bd 31 85 02 bd 2b 54 00 bd 4c e8 65 bc
       -0.03662009 -0.031865302 -0.03133027 -0.014032435
0001b0 9e 57 bb bd 35 53 8b ba a4 68 a6 bc 5a db 16 3c
       -0.09147571 -0.0010629656 -0.020313568 0.009207571
0001c0 d5 51 50 3d 38 b2 f3 bb ed fb 94 3d 56 5e 13 3c
       0.05085929 -0.007437017 0.072746135 0.008994659
0001d0 59 34 49 3d 5d a7 73 bd 39 a5 0b bd 16 83 12 bd
       0.04912219 -0.059485782 -0.034093115 -0.035769545
0001e0 b4 9a da bd 52 bd 45 bd e1 49 fd bc 70 6c 53 3d
       -0.106740385 -0.048276253 -0.030919017 0.051617086
0001f0 c3 94 39 3d f6 c8 03 bc 77 22 ec bc 72 de 34 bd
       0.045307886 -0.008043518 -0.028825028 -0.044157453
000200 dd 82 17 3d 7b 55 df 3c 08 cc 03 bd 0e f2 23 3a
       0.036990035 0.02726244 -0.032177 0.00062540255
000210 cb ed 35 bb a3 7b 99 3c 71 53 b9 3d 5e 1b 5e 3d
       -0.0027760144 0.018735712 0.09049118 0.054225318
000220 69 30 8e bd 7d a2 8e 3d 30 70 29 bb aa 4b c6 bc
       -0.06942827 0.06964586 -0.0025854222 -0.024206001
000230 38 17 b5 bc 7b aa 0c 3c f0 ab 08 bc cc e9 8f bd
       -0.022105798 0.008585568 -0.008341774 -0.07027015
000240 bd 6d 05 3c 0e 09 4d 3d 36 f1 36 bd 1a 82 44 bc
       0.008143839 0.050057463 -0.04466363 -0.011993909
000250 75 d7 5b bd 88 45 c3 bc 04 c4 ff 3d 18 df 0a bd
       -0.053672273 -0.023836866 0.12488559 -0.033904165
000260 9d d4 81 3c 28 29 29 bd 5f ac 51 3d de 95 d4 3a
       0.015848452 -0.041299015 0.051189777 0.001621898
000270 59 fc 93 3b 32 93 51 3d da 70 4d bc 4e 9b 4a 3d
       0.004516166 0.051165767 -0.012539113 0.049464516
000280 68 5f 2a 3c 1a b9 20 bd 82 d1 d5 bb dc 22 8d bc
       0.010398723 -0.039239027 -0.0065252194 -0.017228536
000290 00 0d 29 3e 73 8a 55 3d f2 96 65 bd 71 11 2c bd
       0.16508865 0.05213399 -0.056052156 -0.04200882
0002a0 94 d8 79 3d 97 f5 ca bc 1e 2d 67 3c 8f 59 52 3d
       0.06099756 -0.02477531 0.014109878 0.05135494
0002b0 de 06 61 3d 89 45 42 3d ef 09 af bc bf 01 13 3d
       0.05493819 0.047429595 -0.021367041 0.035890337
0002c0 53 71 4f 3d 7b a4 15 bd 97 61 02 3d 21 a8 4e 3d
       0.050645184 -0.036533814 0.03183135 0.05045331
0002d0 19 98 6e bd 69 43 b4 bc 2b 3b 2a 3d 24 2e 14 bd
       -0.05825052 -0.0220048 0.041560333 -0.036176816
0002e0 cf 03 e1 3d da 77 4f 3d 83 01 9b 3c ca 3c f5 bc
       0.109870546 0.05065141 0.01892162 -0.029936213
0002f0 d4 73 39 3d cc 58 6c 3d a8 03 39 bd 7f 51 58 bc
       0.045276478 0.05770187 -0.045169502 -0.013203024
000300 82 6e b9 3c 61 5a 32 3d 37 13 92 bc 2f 6a ac 3d
       0.022635702 0.043543223 -0.017831428 0.084186904
000310 c9 32 00 3d 94 25 98 3d 4e 12 83 bc e6 3c d7 3c
       0.031298432 0.074290425 -0.01599994 0.026274156
000320 c8 b0 73 3c e9 91 10 3c dc 4b 95 3c 18 6a 64 3d
       0.014873691 0.00882385 0.01822465 0.05576524
000330 ec 68 ca 3b 71 e4 96 3c 45 cb 1a 3d 19 a2 68 bd
       0.0061770584 0.018419476 0.03779151 -0.056795213
000340 61 47 b7 bc 11 c3 6e bb 94 ed 52 bc db 1b f2 bb
       -0.022372903 -0.0036432187 -0.012874026 -0.0073885745
000350 ce 18 4d 3d 76 fb ba bc 94 3a 54 3d 41 74 c1 3c
       0.050072484 -0.022824984 0.051813677 0.023615004
000360 5a c0 36 bd 24 ef 8c bc f3 14 94 bd 78 ca 23 3d
       -0.044617034 -0.017203875 -0.07230558 0.03998801
000370 49 e4 a4 3d a5 e8 29 bd 52 32 0b 3d c2 08 9f 3d
       0.080513544 -0.041481633 0.033983536 0.07765342
000380 5d da 6c 3c 1e 02 1d bb 6f 6c 2a bd c4 d8 04 3e
       0.014456359 -0.002395756 -0.041607317 0.12973315
000390 30 fd a3 3d 43 52 11 3d 53 dc 0d bd e4 5b c6 bb
       0.08007276 0.03547884 -0.034633946 -0.0060534347
0003a0 63 1e a4 bc 3d 5c 6d 3c 8f e7 53 bd 41 e0 21 3d
       -0.02003402 0.014487323 -0.051734503 0.039520506
0003b0 92 04 9b bd 14 2f 44 3c 18 88 c5 ba d5 a3 0e 3d
       -0.07569231 0.011974115 -0.0015070466 0.03482421
0003c0 ca 96 7d 3c 0d 0b 9c 3c 01 fb 5b 3d 35 e7 90 bd
       0.015477845 0.019048238 0.053706173 -0.07075349
0003d0 c0 51 81 3d 6b 70 26 3c 8e a1 a0 bb 13 7a b2 bd
       0.06314421 0.0101586385 -0.0049020713 -0.0871469
0003e0 cc 5e 17 3e 19 7b d7 bc 25 52 b8 3d 8e 65 9a 3d
       0.14782256 -0.026303815 0.09000043 0.07538901
0003f0 28 ed a0 bc 2a f5 33 3a 9b 42 e9 bc eb 7e 9f bc
       -0.019644335 0.00068648404 -0.028474143 -0.019469699

fc2.bias f4 [20]
000000 3f d6 d7 bb e9 73 8d 3c 96 5a 31 3d 0a 9b 53 3d
       -0.0065868194 0.017267184 0.04329928 0.05166153
000010 4c ad a2 bc b3 c9 13 3d ea 64 23 3d 32 2c 1a 3d
       -0.019858025 0.036081027 0.03989116 0.037639804
000020 42 6c 24 3c 0b 2f 7f bc c5 ff 23 ba fb bd 85 bc
       0.010035576 -0.015575181 -0.0006256069 -0.016325941
000030 66 8d b5 bc 5c b2 d2 bc 8f 94 1f 3d bb 8f ee bc
       -0.02216215 -0.025719814 0.038960036 -0.02912127
000040 93 08 22 3d 10 1b a0 bc 03 bf 77 38 02 80 28 bd
       0.03955896 -0.019544154 5.9067283e-05 -0.041137703

fc3.weight f4 [400, 20]
000000 ae 76 96 3d f5 dc cb 3d 5a d5 f9 3c bd 71 85 3d
       0.07346855 0.099542536 0.030497242 0.065158345
000010 ae 92 2f 3e c4 07 23 3a 88 8f da bc 4e da 9e 3a
       0.17145798 0.0006219114 -0.02667977 0.0012119503
000020 37 be 1a 3d 39 83 21 3e 1b b4 36 3e 1a 14 3a be
       0.03777906 0.15772714 0.17842142 -0.1817173
000030 19 7b 96 bd f6 d8 8d 3d 65 d3 a7 bd 22 6d 24 bc
       -0.07347698 0.06926148 -0.08194617 -0.010035785
000040 ec 00 ca bd 69 e9 8f 3d fc 75 54 be 68 c2 65 be
       -0.09863457 0.07026941 -0.20748132 -0.22437441
000050 81 12 aa 3d 2e ec 0e be 16 68 36 3d 6a b4 13 3e
       0.083043106 -0.13957283 0.044532858 0.14424291
000060 ba f7 0f 3e 61 09 1f 3c 25 36 5b be e2 ff 0a bd
       0.14059344 0.009706826 -0.21407373 -0.033935435
000070 b5 72 bd 3c d5 1e a5 3b 8a bd 5e be 4b a5 0e 3e
       0.023125986 0.005039076 -0.21751991 0.13930242
000080 4b 3b 02 3d 1a 37 ee 3d 53 25 20 be 08 93 3d be
       0.031794827 0.116316035 -0.15639238 -0.18513119
000090 df 4a fa 3d f8 d6 19 be 51 af 82 be 10 16 3c be
       0.12221312 -0.1502341 -0.2552438 -0.18367791
0000a0 6c 09 8d bd c4 fa 44 3e cd 9b 87 3c e9 e5 82 bd
       -0.06886563 0.19236284 0.016553784 -0.06391508
0000b0 a4 ea 59 3e 96 a5 bc bc 15 6b 88 3d 9e 2e 5d be
       0.21280915 -0.023028176 0.06661049 -0.21599814
0000c0 bb 4e c1 3d 99 63 59 be c9 13 59 3e 24 48 8a 3d
       0.09438845 -0.212294 0.21198954 0.06752041
0000d0 79 a0 94 3d bf 14 6e 3b 98 ed c2 3d 35 e8 1f 3e
       0.0725717 0.0036328284 0.09517974 0.15615924
0000e0 29 02 3c 3b 9e 9c 1d 3e 58 d7 12 3d ee c2 d2 bc
       0.002868781 0.15391776 0.0358499 -0.025727715
0000f0 e8 7b 16 be 1d b6 14 3d 8c 23 69 be f4 67 d0 bc
       -0.14695704 0.03630649 -0.22767466 -0.025440194
000100 e7 94 09 3e 39 c7 0f 3e aa fe e2 3d 7c b6 57 be
       0.13435708 0.14040841 0.110837296 -0.21065706
000110 41 0e a0 3d 46 06 2e be f9 f8 41 bd b3 ca 5c 3e
       0.07815219 -0.1699458 -0.04735658 0.21561699
000120 4c c5 1c 3e 7e 5f 41 3e 72 39 2c 3e 9e 81 20 be
       0.15309638 0.18884084 0.16818789 -0.15674445
000130 8a 24 38 be 6c b5 08 3d ee b1 c4 bd 71 c4 ca 3d
       -0.17982689 0.033376142 -0.0960425 0.099007495
000140 5b 88 05 be 60 56 93 bd 85 29 e4 3d 57 92 1b be
       -0.13040297 -0.07194209 0.11140732 -0.15192543
000150 ff de d3 ba cd 55 00 be 86 bc 56 3e 8d fc 36 be
       -0.001616448 -0.1253273 0.20970353 -0.17869778
000160 dc b4 d9 bb f0 60 b8 3d 2b 7c 21 3e 1c 86 d3 3d
       -0.0066438746 0.09002864 0.15770023 0.10328314
000170 b4 5c 82 be 9f b2 37 3e 79 74 6c 3e ce 58 7e bc
       -0.25461352 0.17939232 0.23091306 -0.015524102
000180 8a d7 23 3e 59 13 d6 3c 40 29 78 3e ab b2 dc bd
       0.1600019 0.026132273 0.24234486 -0.10776266
000190 74 ec 1e be 75 e6 86 bb fe fc 77 3e b9 1b 67 3e
       -0.15519887 -0.004116828 0.24217603 0.22569169
0001a0 41 d6 04 3e f4 f0 36 be a6 b1 47 be 97 6f 31 3e
       0.12972356 -0.17865354 -0.19501361 0.17327724
0001b0 01 b0 14 be 23 77 ee 3d 63 c3 29 be 54 8a 60 be
       -0.14520265 0.11643817 -0.1657844 -0.21927768
0001c0 3a 3c 33 3e e3 d1 e2 3a b2 ea 2a 3e 52 3f f0 bb
       0.17503443 0.0017304983 0.16691092 -0.007331767
0001d0 74 1e 40 3e 3f 40 45 be 64 17 33 3e 1f 9a 58 3d
       0.18761617 -0.19262789 0.17489392 0.052881356
0001e0 8c b9 2b bb dd 1d 36 be b6 f5 13 3e 5d 98 64 be
       -0.0026203124 -0.1778483 0.144492 -0.22323747
0001f0 c9 a8 b8 3d 2c 86 7c 3d 17 27 43 be 30 0a 2a 3e
       0.09016568 0.061651394 -0.1905788 0.16605449
000200 ce 08 2d 3d 6b cd 99 bd 87 2a 75 3d f6 98 48 be
       0.042244725 -0.075098835 0.05985501 -0.195896
000210 50 ee 85 3d 03 bd 03 3e 30 2a ce bc f7 75 1c 3d
       0.06539595 0.12865071 -0.025166601 0.038198438
000220 0e 39 57 3e a9 df 11 3e ac 7b b2 bd 67 0b d5 bd
       0.21017858 0.14245476 -0.08714995 -0.104025654
000230 d9 da 67 3d 31 3f ee bd 38 be 05 be 84 5e 20 bd
       0.056605194 -0.116331466 -0.13060844 -0.039152637
000240 e6 61 c7 bd e7 74 7e be ab 1f 0a 3e b3 ea 90 3e
       -0.097354695 -0.24849282 0.13488643 0.2830406
000250 a7 88 08 3e 0f 61 2c 3d b2 95 d2 3c dc 6c 7d 3e
       0.13333379 0.04208475 0.025706146 0.24748558
000260 3c d2 f3 bd 5b c3 50 3c 06 90 97 3d e6 33 1f 3d
       -0.119053334 0.012741889 0.07400517 0.038867854
000270 77 3e 3d be dc d6 04 3d d6 39 65 3e 5d ca 0f be
       -0.1848086 0.03243147 0.22385344 -0.14042039
000280 4d d2 9f 3d 40 82 c7 bd 37 18 58 3e 81 49 58 3e
       0.078037836 -0.0974164 0.21102987 0.2112179
000290 a9 97 6a 3e 2a 43 ba be d0 4d 20 be ff c6 41 3c
       0.22909416 -0.36379367 -0.15654683 0.0118272295
0002a0 fe e8 d9 3d 74 2e a6 3e bf 2f 4d be 51 56 f4 3c
       0.10640143 0.32457316 -0.20037745 0.029826315
0002b0 85 5b 5a 3d 87 6f c2 bd 76 45 01 bc 14 dd c2 3c
       0.053309936 -0.094939284 -0.007890096 0.023787059
0002c0 3e 36 8f 3d e6 c9 fb 3c 5a 16 56 3e 26 28 ab bc
       0.06992768 0.030735921 0.20906964 -0.020893168
0002d0 81 d8 22 be ee a3 6e 3d dd 68 99 bd 9b b2 40 3e
       -0.15902902 0.058261804 -0.07490704 0.18818133
0002e0 40 d0 f2 bc f5 01 1c 3d 26 3e 59 3e 67 a4 f7 3d
       -0.029640317 0.038087804 0.21215114 0.12091904
0002f0 f2 59 50 be b7 21 6a be 12 1b 74 3d 02 f4 67 be
       -0.20346811 -0.22864424 0.05959613 -0.22651675
000300 2d d5 df bd 99 21 49 3e d0 ca 2f 3e fa 24 a4 bd
       -0.10929332 0.19641723 0.1716721 -0.08014865
000310 94 5c 01 be 5d 1d 02 3e bd c7 61 bd 9b f4 25 be
       -0.12632972 0.12706514 -0.055122126 -0.16206591
000320 17 f8 94 bd 75 0b 00 3e 31 02 29 3e 68 c1 f6 3d
       -0.07273882 0.1250437 0.16504742 0.12048608
000330 bd b9 f1 3d 40 b2 86 3c d5 d5 29 be 3d 1e 73 bc
       0.11803005 0.016442418 -0.16585477 -0.014838752
000340 77 ea 84 bd b0 88 41 3e a5 3e c2 3d 95 37 88 bd
       -0.06490033 0.18899798 0.09484605 -0.066512264
000350 eb 18 73 3b 39 8a b6 bd f3 2f 20 3e 15 51 31 3d
       0.003709371 -0.08913083 0.15643291 0.043290216
000360 e5 4b 05 3c 99 88 b5 bd 61 6d 19 be 5e 22 6d 3d
       0.00813577 -0.088639446 -0.14983131 0.057894103
000370 1d 70 9f bd b3 52 17 3e 04 6f f6 3d 3d 44 c4 bd
       -0.07785056 0.14777641 0.12032893 -0.09583328
000380 8a 86 63 bd c6 f5 47 3d b8 97 62 3d 82 4a 7a 3d
       -0.05554823 0.048818372 0.05532047 0.061106212
000390 99 c6 7d be 41 44 b9 bc fa 20 19 3d c4 6b c7 3d
       -0.2478279 -0.022615554 0.037384965 0.097373515
0003a0 2d 3d 5f bd 00 40 ed 3c 19 5c c3 bd 39 1c 11 be
       -0.0545017 0.028961182 -0.095390506 -0.14170922
0003b0 92 65 92 3c fc 43 66 3e 85 fc 29 3e 4c 98 bc bd
       0.017870698 0.22486871 0.16600235 -0.09208736
0003c0 c5 be f7 3c 0b 33 47 be 87 80 18 3e 26 3f 30 3e
       0.030242333 -0.19453065 0.1489278 0.17211589
0003d0 b6 f6 67 3e 71 37 53 be ad 0e 30 3c 6c 8d 16 3e
       0.22652707 -0.20626618 0.0107456865 0.14702386
0003e0 e7 b4 5f 3e 60 43 9a bd 4c 04 e3 bc 85 a0 0c 3e
       0.21846353 -0.07532382 -0.02771201 0.13733108
0003f0 be 63 64 3e e8 b6 1d 3e 9e a6 f8 bd ec d4 c2 bd
       0.22303674 0.15401804 -0.12141155 -0.09513268

fc3.bias f4 [400]
000000 2e 06 af bd bd b7 6d bb d6 df 4a be 21 57 d4 3d
       -0.085461006 -0.0036272847 -0.19811949 0.10368181
000010 88 f0 4a 3c 6d 6f ca bd 4c 00 01 3e ec be db bd
       0.012386449 -0.09884534 0.1259777 -0.10729775
000020 e9 06 4f bd a1 79 86 3d f7 d4 88 bc d3 c5 3d 3c
       -0.0505437 0.065661676 -0.016703112 0.0115828095
000030 5e bb b6 bb 26 8e 53 be f6 f8 37 3e 76 d2 e0 3d
       -0.005576535 -0.20659694 0.17966065 0.10977642
000040 e3 b2 0b 3e 53 27 ed bd 39 5f f2 3c 5f d9 e3 3d
       0.13642459 -0.11579766 0.029586421 0.111254446
000050 b7 df 67 bd 22 1f da bd f7 01 64 bc b0 06 b7 3d
       -0.056609835 -0.10650469 -0.013916484 0.089368224
000060 95 4a 50 3e 12 22 2e 3d 6a 9a 4d 3d 38 3d 6f bd
       0.20340951 0.04251296 0.05019609 -0.058407992
000070 d0 14 4c be 9c 6c 50 3d db 65 e7 3d 5e 31 06 3e
       -0.19929814 0.050884828 0.11298724 0.1310477
000080 6e 71 43 be a1 4d 33 bd 47 c4 22 be f2 7b 44 bd
       -0.19086239 -0.043775205 -0.15895186 -0.047969766
000090 b3 80 f3 3c 01 3c 0b 3d aa e0 0b be 95 a3 03 be
       0.029724455 0.03399277 -0.13659921 -0.1285537
0000a0 ee bd ed 3c 20 9f 07 be 5e f1 e7 bd 16 c6 06 3e
       0.02902123 -0.13244295 -0.11325334 0.13161501
0000b0 21 20 ce bd c2 c2 1b 3e cb ec e3 bc 39 da ab 3d
       -0.10064722 0.15211013 -0.027822873 0.08391232
0000c0 44 02 02 be e2 72 42 3e d5 71 19 3d 49 16 12 bd
       -0.12696177 0.18989137 0.037462074 -0.035665784
0000d0 1b 49 4f 3e 84 e7 83 3d a9 da 0a be b4 49 83 3d
       0.20242731 0.064406425 -0.13559975 0.06410542
0000e0 b6 b9 12 bd 60 c2 18 be 17 ac 94 bb 10 2d 22 3d
       -0.03582164 -0.14917898 -0.0045371163 0.039593756
0000f0 1e be 16 3d 69 4f bc bd d6 1b 5e 3d 2e 03 84 bd
       0.036802404 -0.09194834 0.054225765 -0.06445919
000100 47 2c 2a 3e 53 25 30 bd ea 85 d0 bd d7 90 2a bd
       0.16618453 -0.043004345 -0.10181792 -0.041642036
000110 03 3b 85 bd 5c de 99 3d 7e 1e 87 ba 3f 98 fe bd
       -0.06505396 0.07513115 -0.001030877 -0.124313824
000120 6d ea a8 bd 17 e3 1a be 1b e2 f7 3d cf c5 0f 3e
       -0.08247838 -0.1512569 0.12103673 0.14040302
000130 8b 09 e7 bc 44 04 6b 3e 4a ee 14 3e 1d a7 a4 bd
       -0.028202793 0.22950846 0.14544025 -0.08039687
000140 bb 83 1b 3e 53 c7 18 be 7e 4c 32 be 37 bd 4c be
       0.1518697 -0.14919786 -0.17411992 -0.19994055
000150 c9 ae 1c bc 74 a6 36 3e 8e dc 4c be 03 e3 24 3d
       -0.009563156 0.17836934 -0.2000601 0.040255558
000160 12 e1 32 be 36 62 c5 3b 3f 94 c1 bd 7b 5c eb 3d
       -0.1746867 0.0060236705 -0.09452104 0.114922486
000170 79 90 50 be 61 c8 9a bc dc 02 fe 3d ba 9f 6c be
       -0.20367612 -0.018894376 0.12402889 -0.23107806
000180 29 99 60 be 84 fa 2d be be 42 41 3e 02 b3 21 be
       -0.21933426 -0.16990095 0.18873116 -0.15790942
000190 dd b8 3c 3e 6f dc f9 bb 79 f8 53 bd 9e e3 f9 3d
       0.18429895 -0.0076251547 -0.051750634 0.12201618
0001a0 be 16 0e be 7e fa b3 3d 71 a3 44 be 62 42 64 3d
       -0.13875863 0.08788012 -0.19202973 0.05572737
0001b0 0e 6c b7 3d 3e ec b4 bd d9 17 15 be 71 63 cc bd
       0.08956157 -0.08834122 -0.14559878 -0.099799044
0001c0 40 0f 8f 3d e6 97 36 bc 96 0b 18 3d 77 c8 ec bd
       0.069853306 -0.011144614 0.037120424 -0.11561673
0001d0 de 45 63 bd f7 54 12 3d dd f6 2b be fa a3 b0 bd
       -0.055486552 0.03572556 -0.1679339 -0.08625026
0001e0 bf 4e 5f bc 76 dd 81 3d ce 96 4b be 77 e5 5f be
       -0.013629614 0.063410684 -0.19881746 -0.21864878
0001f0 3a 7f 69 3d 0b a1 34 be 8a 06 5e 3d cf d7 1f 3c
       0.0570061 -0.17639558 0.054205455 0.009756043
000200 bb 3d e8 3d 0b 54 9d 3d 5b 78 ae 3d e8 5a c4 bc
       0.11339899 0.076820455 0.0851905 -0.023969129
000210 a3 10 a4 bd 04 17 09 be f6 c7 2e be b3 1a 80 be
       -0.08010986 -0.13387686 -0.17068467 -0.2502037
000220 f3 69 51 be 75 f7 ba 3d 50 75 2b 3e 0d 01 3e 3e
       -0.20450573 0.0912923 0.1674397 0.18555088
000230 74 34 c0 bd 20 c4 52 bd 6a 6c 4c bd 27 f5 07 be
       -0.09385005 -0.05145657 -0.04990808 -0.13277112
000240 ac d7 80 bd 01 da 30 3d 82 9a 12 3d d3 71 03 3e
       -0.06291136 0.043176655 0.03579188 0.12836389
000250 20 fe b1 3d 0d 64 d6 3d 94 06 26 3d 93 dc f3 3d
       0.086910486 0.10468302 0.040533617 0.119073056
000260 91 f1 20 be 78 d9 02 3e 2a 4c 05 3e cb d1 68 ba
       -0.1571715 0.1277827 0.13017336 -0.0008881359
000270 6f c3 f4 bc a2 80 83 3d 94 69 5f bc a4 4d f6 ba
       -0.029878346 0.06421019 -0.013636012 -0.0018791449
000280 55 4c 5b 3e e9 25 30 bd 6c 63 58 3e f2 2e 59 bd
       0.21415837 -0.043004904 0.21131676 -0.053023286
000290 0d e2 bf bc 14 03 09 3d f6 06 5c 3e 1f f0 1b 3e
       -0.02342322 0.0334502 0.2148703 0.15228318
0002a0 d2 b0 51 3e 26 25 23 be 87 eb f6 bc f3 2b 9c 3d
       0.20477608 -0.1593214 -0.030141605 0.0762557
0002b0 e5 bb 2e 3e a8 3c 42 3e e9 b1 67 3e 0d 62 49 bd
       0.17063864 0.18968451 0.22626461 -0.049165774
0002c0 5e 3e ae 3d 57 b7 03 3e de 02 0a be 5f 92 6f 3d
       0.08507989 0.12862907 -0.13477656 0.0584892
0002d0 12 7c 1c 3e f7 e4 6c be fa f7 05 be 12 ee 27 3d
       0.15281704 -0.23134218 -0.13082877 0.040998526
0002e0 59 ff c5 3d f7 bc 27 be 9e 4c 91 bd f9 9d 73 3d
       0.09667844 -0.16380678 -0.07094692 0.059476826
0002f0 2c b4 bb 3b a5 33 6e 3e 88 da 13 3e 15 4f a1 3d
       0.0057282653 0.23261888 0.14438832 0.07876412
000300 8d 08 c1 3d da a2 d0 bd f8 d2 fd 3d 9f 57 5b 3c
       0.09425459 -0.101873115 0.12393755 0.01338759
000310 24 12 48 bd 27 09 ad 3d 98 fb 53 3d e7 4c d7 3d
       -0.048845425 0.08449011 0.05175361 0.10512715
000320 50 a8 24 3e 56 22 a4 3d 70 86 82 3b 95 56 f3 3d
       0.16079831 0.080143616 0.0039833114 0.118817486
000330 4d ed 07 3e 6a 18 1d be 0d 58 56 be ba c4 00 3e
       0.13274117 -0.15341344 -0.20932026 0.12575045
000340 38 17 ee 3d c6 6d 2e 3e 5c 24 06 3d a2 42 15 3c
       0.116255224 0.17034063 0.03274952 0.009110125
000350 c0 4e 04 3e d8 8e f1 bc 8b b9 49 3d b5 f0 61 3c
       0.12920666 -0.029487059 0.049249213 0.013790299
000360 98 30 38 bd 5b 5b 32 be 9d 1a 2b be e5 71 63 be
       -0.044968218 -0.17417662 -0.16709371 -0.22211416
000370 22 c8 a9 3d be 25 bc bc 35 cb 9b 3c 65 b7 81 bd
       0.082901254 -0.022967216 0.019017795 -0.06333808
000380 d8 c2 43 3e 8e 29 33 be 0a 91 03 3d 60 3f 1b 3e
       0.19117296 -0.1749632 0.032120742 0.15160894
000390 d2 d4 6d bd db e6 f8 3d 9f 7b 1b bd 14 36 07 be
       -0.05806429 0.12153407 -0.03795969 -0.13204223
0003a0 74 91 53 be 63 09 da bd e2 95 0b be a5 3e 33 be
       -0.20660955 -0.106463216 -0.13631395 -0.17504366
0003b0 5b 18 8b 3c 37 6f 26 be f2 38 7c bc 60 a9 1b be
       0.016979387 -0.16253363 -0.015394436 -0.1520133
0003c0 b8 d7 bb bd 3c ce cf bd 7c c2 b1 3d 6a 5c 44 3d
       -0.091720045 -0.10146758 0.08679673 0.047939695
0003d0 c6 75 a8 3d 15 2f b7 b8 2b 8b 36 3e 2c 1b 67 be
       0.082255885 -8.73489e-05 0.17826526 -0.22568959
0003e0 99 0e 97 3d a3 8a 4e 3d a9 30 7f bd e9 a3 15 3d
       0.07375831 0.050425183 -0.062302265 0.03653327
0003f0 b5 82 d8 bd 31 f1 40 3e 9e 09 bc bd 75 d2 12 3d
       -0.105718054 0.18842007 -0.09181522 0.03584524

fc4.weight f4 [2, 400]
000000 da 03 52 bd bf 17 a2 3d 14 83 bb 3b 96 71 6d ba
       -0.051273204 0.079146855 0.005722413 -0.0009057758
000010 35 ff 3c 3d ec 5d 01 3e b8 af f6 3b b1 c0 7e 3d
       0.046141822 0.12633485 0.0075282715 0.062195484
000020 75 ae a0 3d 48 32 23 bd 3e 4f 95 bc cb fd 14 3c
       0.07845775 -0.039842874 -0.018226262 0.009093712
000030 a8 69 89 3d 39 0f c0 3c 88 0f 56 bb 3d 47 4f 3d
       0.067096055 0.023444759 -0.0032663066 0.050605047
000040 ee 23 24 bd c4 66 7b 3c fa bb 8b bc 69 89 2d bc
       -0.040073328 0.015344325 -0.017057408 -0.010591843
000050 f3 73 93 3c 7b 92 55 3d dd 59 48 3d 5f b3 59 3c
       0.017999625 0.052141648 0.048913825 0.013287394
000060 08 90 84 3d cf d3 e7 bc 47 9b 47 3d cb d1 61 3d
       0.06472784 -0.02829924 0.04873207 0.055131715
000070 9c a2 72 3d 77 28 b4 3b 95 92 4a 3d 81 15 5b bd
       0.059237108 0.005497988 0.049456198 -0.053487305
000080 9a 66 a0 3d a1 09 3f bd a0 a7 1f bd 26 9e a8 37
       0.0783207 -0.046640042 -0.03897822 2.0100804e-05
000090 00 5b 59 3d fc bf 1f bd 97 67 c5 3c 78 a8 15 bb
       0.0530653 -0.03900145 0.024097247 -0.002283601
0000a0 15 f5 21 bc c3 a7 42 3d bf d1 6a bd bd 65 05 bd
       -0.009885092 0.04752327 -0.057328936 -0.03256773
0000b0 23 d7 0c 3c cb bf 8f 3c cd 61 42 3c ee f8 d9 bc
       0.0085962145 0.017547509 0.011864138 -0.026607957
0000c0 a4 44 94 3d cb 8c 73 bd d2 a9 b1 ba 92 62 e4 3c
       0.07239655 -0.059460443 -0.0013554639 0.027879033
0000d0 83 32 07 bd 06 f8 2a 3d fc 9e 2e bd c3 2a 2a ba
       -0.033007156 0.04174044 -0.042632088 -0.00064913573
0000e0 89 c2 9a 3c 7b 06 05 bd ef dc d4 3c 7c a2 90 bc
       0.01889159 -0.032476883 0.025984256 -0.017655604
0000f0 dd 65 51 3c 1b ae 82 3b 37 86 9a 3c df a5 d6 3d
       0.012780634 0.00398804 0.018862827 0.10480856
000100 07 d7 71 bd c6 74 b0 3d 25 3e 4c 3d c5 06 f4 b9
       -0.059042957 0.08616023 0.049863953 -0.0004654435
000110 30 43 88 bc c1 67 1f bd e9 2f 71 3d 87 21 3c 3c
       -0.0166336 -0.038917307 0.05888358 0.011482603
000120 06 69 9c bc 17 a4 7e 3d 79 9b 04 3c cc c1 58 bd
       -0.019093048 0.062168207 0.008093708 -0.052919194
000130 a5 61 0e 3d 61 c8 48 bd 82 61 f3 3c e5 91 9a bc
       0.03476109 -0.04901922 0.029709581 -0.018868396
000140 86 59 e9 3c 58 1f 41 3d 70 69 28 ba e6 0f 2d b8
       0.02848507 0.047149032 -0.0006424403 -4.126122e-05
000150 2f cc 93 bc fa 16 60 3d a4 54 98 3c ee e8 18 bd
       -0.018041698 0.054709412 0.018595047 -0.037331514
000160 c4 af 5e bb 10 49 6b 3d 55 d8 a6 3d 31 38 ff 3c
       -0.0033979276 0.057442725 0.08146731 0.031154724
000170 1c c4 13 bb a4 be b0 3d 4f 89 50 3d 04 fb 27 3d
       -0.002254731 0.08630112 0.050912198 0.04101087
000180 cc 50 13 3d d0 02 9b 3c fe 26 16 bd 3f af a1 bc
       0.035965726 0.01892224 -0.03665828 -0.019736884
000190 11 d2 59 bd 1b e2 23 3d 51 04 38 bd 13 2b 3b bd
       -0.05317885 0.040010553 -0.04492599 -0.045695376
0001a0 17 b6 36 3d 31 7a 64 bd 96 93 ad 3a c0 c3 22 bd
       0.04460725 -0.055780593 0.0013242837 -0.039737463
0001b0 9d 3e 15 bd b6 55 8f 38 41 8b 05 bd e2 89 07 bd
       -0.036436666 6.834736e-05 -0.032603506 -0.03309048
0001c0 f0 d1 24 3d 87 6e d8 bc 75 72 48 bd ed da 4c 3d
       0.040239275 -0.026419891 -0.04893728 0.05001347
0001d0 a8 31 3f 3d 9b b8 c7 bc 7c a1 3e 3d ed f9 fd 3c
       0.046678215 -0.024380019 0.046540722 0.031002963
0001e0 22 51 2f bd 0c 71 31 3d 4b ec 3e 3d f2 3f 1d bd
       -0.042801984 0.0433207 0.046612065 -0.03839106
0001f0 3f 8b 84 3d f4 c9 2f 3d c4 70 56 3d cb 31 2a bc
       0.064718716 0.042917207 0.052353635 -0.010387848
000200 bf 75 25 3c 0b 67 a9 bd ed ca 9f 3c 17 ec 84 3d
       0.010098874 -0.08271607 0.019505942 0.06490343
000210 a8 0b 07 3d 9e 2e 49 3d 64 24 ee 3c 2a 20 bf bc
       0.0329701 0.049116723 0.029070087 -0.023330767
000220 10 dd 91 3d db 0a 87 3c 7c ad a6 3c e0 14 04 3d
       0.071222425 0.016484668 0.020346396 0.03224647
000230 74 67 d2 bc 23 71 a6 3b 56 eb eb 3c af 8f 6c bc
       -0.025684096 0.005079405 0.02879874 -0.014438554
000240 60 47 b3 3c ff dd ec 3c b7 f9 06 3d d8 c2 8d bd
       0.02188462 0.02891445 0.03295299 -0.06921929
000250 3f 8f 5c bd b6 8c cc bc 6c a7 9c bc 90 ec 71 3c
       -0.053847548 -0.02496944 -0.019122802 0.014765874
000260 be 9b 94 bd 14 80 19 3d 2a 42 3a 3d 69 e0 da b9
       -0.07256268 0.03747566 0.045473255 -0.000417474
000270 b2 1c 20 bd 36 4f 80 ba 06 17 2e bd 7b 51 ef b9
       -0.039089866 -0.0009789232 -0.042502426 -0.0004564634
000280 2f 22 a9 3c 25 4b 1d 3d b6 22 4e 3c 57 df 31 3d
       0.020646183 0.03840174 0.012581518 0.043425884
000290 c3 f9 36 bd d0 cd fe bc 6a d9 58 bd 46 dd 4a 3c
       -0.044671785 -0.031103998 -0.052941717 0.012381857
0002a0 a1 c0 85 bd 32 10 15 bd 7d 13 ac 3d 9d c7 0f 3b
       -0.06530882 -0.0363924 0.084021546 0.0021939047
0002b0 aa 35 1b 3d 1d a0 bc bb 69 35 9b bd 10 11 1c 3d
       0.037892975 -0.0057563917 -0.075785466 0.03810221
0002c0 87 12 d4 3c a3 35 70 3d e8 62 90 bc a3 2c e5 3c
       0.02588774 0.058644902 -0.017625287 0.027975386
0002d0 9d 8a e5 bc 91 c8 d8 3d 09 cb a2 3b bb 28 17 bd
       -0.028020198 0.1058513 0.0049680513 -0.036904078
0002e0 fc 83 3f bd bc 38 5f bb cf bc 3d 3d 41 41 10 bd
       -0.04675673 -0.0034060916 0.04632264 -0.03521848
0002f0 df 84 83 bd 24 0c 4a 3c 38 e2 c7 3c ce 4e 51 3d
       -0.064218275 0.012331996 0.024399862 0.051100545
000300 9f 59 fa bb f4 d8 44 3d a6 f1 75 3d ed 55 5b 3d
       -0.007640078 0.048058465 0.060044907 0.053548742
000310 74 7c 0a bd d0 fb 75 3c 26 9c 5e bd e2 c6 28 bd
       -0.033810094 0.01501365 -0.054348134 -0.041205294
000320 e9 0f 42 3d 2e 6e d1 bd 8f f4 8b 3c a8 ba 50 bc
       0.047378454 -0.10226093 0.017084388 -0.012739815
000330 5c be 11 3d 1c 5d 91 bc 52 4f 5a 3d 85 0a 9b bc
       0.03558193 -0.017744593 0.053298302 -0.018925915
000340 92 d4 ad bc 51 56 54 3d cc 7d e7 bc 4e 38 41 bd
       -0.021219525 0.05184013 -0.028258227 -0.047172837
000350 45 38 47 bd 40 d9 ff bc 75 8a 19 bc fa df c5 bb
       -0.048637647 -0.031231523 -0.00937139 -0.006038663
000360 e2 0f 58 bd cd 1c b5 3b 26 5a 1e bd 4c e4 88 3c
       -0.052749522 0.005527115 -0.03866019 0.016710423
000370 b2 e4 22 bd ba 2c 32 3d 24 f5 02 bd 53 b5 cb 3c
       -0.039768882 0.043499686 -0.031972066 0.024866736
000380 ca 61 83 3d 80 c6 45 3d ec fd 26 3c 7b 89 19 bd
       0.06415136 0.048285007 0.010192376 -0.037484627
000390 b1 ac 5e bb cf a2 f3 bc 6c 62 d8 bc 81 e8 3f bd
       -0.0033977444 -0.02974072 -0.026414119 -0.046852592
0003a0 c7 d1 94 3b 80 df 87 bb e1 24 37 bd 23 50 48 bd
       0.004541609 -0.0041465163 -0.044712905 -0.04890455
0003b0 56 38 01 3c 64 3d 1d 3d 38 95 8e bd 34 d1 30 3b
       0.007886967 0.038388625 -0.06962055 0.0026980164
0003c0 0e 98 03 3d db bd 6d bd 6d 59 bc 3c a6 c9 aa 3c
       0.032127433 -0.05804239 0.02299186 0.020848107
0003d0 71 54 49 3d 47 59 a8 bd d8 0a b1 3c 54 3e aa bb
       0.049152795 -0.08220153 0.021611616 -0.0051954184
0003e0 15 24 59 bc 60 40 b0 bc 35 a7 6b 3c 16 91 9a 3a
       -0.0132532315 -0.021515071 0.014383127 0.0011792507
0003f0 10 97 1e 3b 58 4a 57 3d 16 63 7c 3c b9 6f 6a 3d
       0.0024198927 0.052561134 0.015404483 0.057235453

fc4.bias f4 [2]
000000 e3 48 15 bc 44 57 29 bd
       -0.009111616 -0.04134299

cls.weight f4 [2, 48]
000000 e0 d0 26 3c 60 ed eb 3d 12 e0 c5 bd b4 32 01 3e
       0.010181636 0.11519885 -0.09661879 0.12616998
000010 ac 3a af bc 5c 99 60 3d 24 62 58 bd c8 4e 1f bd
       -0.021390282 0.054833755 -0.05282797 -0.03889349
000020 08 8f ca 3c 04 3c 24 3d 0c 1a 75 3d 3c 6b 10 be
       0.024726406 0.040096298 0.059839293 -0.14103407
000030 f8 67 05 3e 5a 7b 48 bd 38 db 6f 3d 90 7f 9b bd
       0.13027942 -0.048945762 0.058558673 -0.0759269
000040 34 91 ed 3d be 1d 0f bd 1c c4 da 3d b0 e1 72 3c
       0.11599961 -0.034940474 0.10681936 0.014824316
000050 d8 88 84 bd 47 6c bb bd 6c e3 cd bd b8 79 31 3d
       -0.064714134 -0.09151512 -0.10053143 0.04332897
000060 8f 91 8d bd 70 89 d2 3c d8 9b 02 3e 70 f9 d9 bc
       -0.06912529 0.025700301 0.12754762 -0.026608199
000070 d0 70 39 3d 84 a6 92 3d 4c 7e fc bd 40 cd 64 bb
       0.045273602 0.071606666 -0.12328777 -0.0034912378
000080 50 ce bf bd d4 20 e7 bd 7e 68 e3 bd a4 9e fd 3d
       -0.09365523 -0.11285558 -0.11103915 0.12383774
000090 a4 ec 16 3d c0 fe ea 3c 80 3c f9 3d 71 73 8b bd
       0.03684677 0.028685927 0.121697426 -0.06809128
0000a0 fc 90 88 bd 30 13 e3 bd 9e 45 90 3d 0c 24 f0 bd
       -0.066682786 -0.11087644 0.070445284 -0.117256254
0000b0 00 cc e1 b9 c3 4f e1 bd 68 ad eb 3c e0 32 4f 3c
       -0.00043067336 -0.110015415 0.02876921 0.012646407
0000c0 c0 fb 12 3c 72 97 11 be 90 c4 99 bd 52 fd 89 3d
       0.008971155 -0.14217928 -0.075081944 0.0673777
0000d0 7c 06 9e 3d 0c 7a 80 3d 1a 59 26 bd a7 d1 03 be
       0.077160805 0.062732786 -0.040612318 -0.12872945
0000e0 8c b1 77 bd 00 6f d7 ba 20 f3 6a 3c 80 ea dd 3a
       -0.060472056 -0.0016436279 0.014340192 0.0016930848
0000f0 96 9d 55 bd d8 66 df 3d eb 39 0a be 08 9e 10 be
       -0.05215224 0.10908288 -0.13498656 -0.14122784
000100 4c c0 06 3e eb 66 91 bd 99 20 ac bd f6 a3 b0 3d
       0.13159293 -0.07099708 -0.08404655 0.08625023
000110 da e4 11 be 96 df 0d be c0 78 57 3d 46 25 d0 3d
       -0.14247456 -0.13854823 0.05260539 0.10163359
000120 18 f9 f8 bc 15 aa e1 bd f8 30 9c bd 18 05 37 bd
       -0.030392215 -0.11018769 -0.076265275 -0.044682592
000130 42 0a be bd 68 2b 89 3d f0 be 0a 3e c4 e1 df bd
       -0.092793 0.06697732 0.135494 -0.10931733
000140 d7 71 91 bd 48 20 65 bd 9b 9b b3 bd 22 9c 92 bd
       -0.07101791 -0.05593899 -0.08769914 -0.07158686
000150 ff 55 c7 bd d4 28 d3 bc ac c4 49 3d d4 f9 15 bd
       -0.09733199 -0.025776304 0.049259827 -0.036615208
000160 f8 c1 03 3e 95 29 b7 bd 6e 2e af bd ba 49 8a 3d
       0.12866962 -0.08943478 -0.08553778 0.067523435
000170 76 e7 11 bd 1c a8 a5 3d 5e f2 02 be 3c 12 ec 3d
       -0.03562113 0.08088705 -0.12787768 0.115269154

cls.bias f4 [2]
000000 1e 9b fe bd e8 fa ea 3d
       -0.1243193 0.11473638
