result/train_1/model.pt (torch, 78535 bytes, 10 tensors)

fc1.weight f4 [400, 3]
0	0x3eb88f58	0.36046863
1	0x3eb7d520	0.3590479
2	0xbec35a96	-0.3815505
3	0xbaaeb977	-0.0013330419
4	0xbd934d35	-0.071924604
5	0xbf21f624	-0.63266206
6	0x3bc3fdb0	0.0059811696
7	0xbedf46c1	-0.43608668
8	0xbcf84a8d	-0.030308986
9	0x3e650eec	0.22368973
10	0xbeec4da8	-0.46152997
11	0x3ea1a517	0.31571266
12	0xbf42473f	-0.7588996
13	0xbfb0d42a	-1.3814747
14	0x3e660f0c	0.22466677
15	0x3e426665	0.18984373
16	0xbdd0c126	-0.1019309
17	0x3e922238	0.28541732
18	0xbc915815	-0.017742196
19	0x3cc82e55	0.024436155
20	0xbef939a3	-0.48676786
21	0x3e85b279	0.26112726
22	0xbec8669a	-0.3914078
23	0x3ec50cd8	0.38486362
24	0x3e1c68df	0.1527438
25	0x3e1dc7be	0.15408227
26	0xbd6f804a	-0.058471955
27	0xb9f449fb	-0.00046594426
28	0x3b71b14b	0.0036879356
29	0x3cb38f34	0.02191887
30	0xbef2eaf7	-0.4744489
31	0xbde5eeec	-0.11227211
32	0xbefa73eb	-0.48916563
33	0xbf2900d3	-0.6601688
34	0xbe81975c	-0.2531079
35	0x3e43370e	0.1906397
36	0x3edbf527	0.42960474
37	0xbf89cdc8	-1.0765924
38	0xbe2ad813	-0.16683988
39	0xbf300584	-0.68758416
40	0xbeaea2e8	-0.34108663
41	0x3d6074c2	0.05479885
42	0xbe03c36f	-0.12867521
43	0xbea09191	-0.31361058
44	0xbeea63b1	-0.45779184
45	0x3de4c935	0.1117119
46	0xbf3a068d	-0.72666246
47	0xbee1d563	-0.44108114
48	0x3eee5afb	0.46553788
49	0x3f12c090	0.5732508
50	0xbe459842	-0.19296363
51	0xbf3696df	-0.7132396
52	0x3e550d73	0.20805912
53	0xbef3b896	-0.47601765
54	0x3f0b2005	0.5434573
55	0xbebb72f0	-0.36611128
56	0x3ea02d66	0.31284636
57	0xbd82fd9a	-0.06396027
58	0x3e52cb55	0.20585378
59	0x3e297241	0.1654749
60	0x3dfb446a	0.12268908
61	0x3e36b982	0.17844203
62	0xbf076a6e	-0.52896774
63	0x3e97af9c	0.29626167
64	0x3e19ff7f	0.1503887
65	0x3ea4113b	0.32044396
66	0x3e47bc09	0.19505323
67	0xbe228f0c	-0.1587488
68	0xbe233d27	-0.15941297
69	0xbf072ba4	-0.52800965
70	0xbc916b88	-0.01775147
71	0x3d495915	0.04915722
72	0x3dfb905f	0.12283396
73	0xbee41606	-0.44548053
74	0xbd276184	-0.040864483
75	0xbeb758d0	-0.35809946
76	0xbe8a26d8	-0.2698276
77	0x3d73e5ff	0.059545513
78	0xbe55a046	-0.2086192
79	0x3e126f5b	0.14300291
80	0x3dc3b2eb	0.0955561
81	0x3e7c10f2	0.24615839
82	0xbc1d96ad	-0.009618443
83	0x3d9c2093	0.076234005
84	0xbe6e1236	-0.23249134
85	0xbe87d560	-0.2652998
86	0xbee159fe	-0.4401397
87	0x3d271d5c	0.040799484
88	0x3d21b16f	0.039475854
89	0x3dc5ad0c	0.09652147
90	0xbbcfef63	-0.006345676
91	0x3d092919	0.03348646
92	0xbe632acd	-0.22184296
93	0xbef47bbc	-0.47750652
94	0xbc14ef2f	-0.009090229
95	0x3c83e56c	0.016100608
96	0xbf10f1c4	-0.56618905
97	0x3e575a98	0.21030653
98	0x3eb6368e	0.35588497
99	0xbee1cd97	-0.44102165
100	0x3ea66aba	0.325033
101	0xbdfc5b62	-0.123221174
102	0x3de270c6	0.11056666
103	0x3ed7db6c	0.42159593
104	0xbee3c507	-0.44486257
105	0x3eca2c4c	0.3948692
106	0xbc2f74bb	-0.010708983
107	0x3e848ad7	0.25887176
108	0x3eab2c74	0.33432353
109	0xbe254e40	-0.16143131
110	0xbe70f6ac	-0.23531598
111	0x3eeb1549	0.45914677
112	0xbe7f7bc7	-0.24949561
113	0xbddde7cf	-0.108352296
114	0xbee4687d	-0.44610968
115	0xbefd5264	-0.49476922
116	0x3e5f1791	0.21786334
117	0x3d3bf68a	0.045889415
118	0x3e03682c	0.12832707
119	0x3e257ccd	0.16160889
120	0xb89a833d	-7.367737e-05
121	0xbeb19d9b	-0.34690556
122	0xbbe860ea	-0.007091631
123	0xbf3575ed	-0.70883065
124	0x3eb0acf9	0.34506968
125	0xbe90e125	-0.28296772
126	0xbeae6ddf	-0.340682
127	0xbf1bb036	-0.6081575
128	0x3f155484	0.58332086
129	0x3f095f4d	0.5366104
130	0xbf172637	-0.59042686
131	0xbf17fc11	-0.59369
132	0xbec1600f	-0.377686
133	0x3e0d2e54	0.13787204
134	0xbf9a1a53	-1.2039284
135	0xbf2802c2	-0.6562921
136	0x3e448e4c	0.19194907
137	0xbf353948	-0.7079053
138	0xbd333bb6	-0.043758117
139	0xbe116b4f	-0.14201091
140	0x3e9dfe4c	0.30858076
141	0x3e17809d	0.14795156
142	0x3da031d4	0.07822004
143	0x3e184124	0.14868599
144	0xbd4284d6	-0.047489963
145	0xbd94ebe2	-0.072715536
146	0xbe11d2ba	-0.14240542
147	0xbecdf46f	-0.4022555
148	0x3ebfdf58	0.37475085
149	0x3e6fa5f0	0.23403144
150	0xbafdbc82	-0.0019358548
151	0xbd2c7379	-0.04210231
152	0xbf980b4a	-1.1878445
153	0xbedc0855	-0.42975107
154	0x3d99fcf4	0.0751895
155	0xbf91e33d	-1.1397473
156	0xbf11fa29	-0.5702234
157	0x3ebfca4f	0.37459037
158	0xbf2912d1	-0.66044337
159	0xbe03bf32	-0.12865904
160	0x3caa45a0	0.020785153
161	0xbc4aa940	-0.012369454
162	0x3e76f5bc	0.24117178
163	0x3eb6aceb	0.356788
164	0xbe22d4ad	-0.15901442
165	0x3ecf0e20	0.40440464
166	0xbec7ff77	-0.39062092
167	0xbea1caeb	-0.31600127
168	0xbe57af18	-0.21062887
169	0xbe3037e4	-0.1720882
170	0xbd64ab60	-0.0558275
171	0x3e801cbb	0.2502192
172	0xbf20aed8	-0.6276679
173	0xbd9274b4	-0.071511656
174	0xbef5233a	-0.47878438
175	0xbf42c874	-0.7608712
176	0x3eebd614	0.46061766
177	0x3e830b5e	0.2559461
178	0x3e88ed47	0.26743528
179	0x3df03f47	0.11730819
180	0x3ecf0240	0.40431404
181	0xbe8359ac	-0.25654352
182	0x3ea1f77b	0.31634125
183	0xbe9c9ba3	-0.3058749
184	0x3d57e118	0.0527049
185	0x3dcbb66e	0.09946905
186	0x3edb969a	0.42888337
187	0xbbe7c453	-0.007072964
188	0x3ea2d9d1	0.31806806
189	0xbe9d1248	-0.3067801
190	0xbf0874ea	-0.53303397
191	0x3ef574c4	0.47940648
192	0xbea0dc5f	-0.3141813
193	0xbed445cb	-0.41459498
194	0x3e5fa620	0.21840715
195	0xbe282bb2	-0.16422918
196	0xbe1f00a2	-0.15527585
197	0xbe7c08fc	-0.24612802
198	0x3f08b9ef	0.5340871
199	0xbf2e9b6a	-0.68205893
200	0x3e7d8228	0.24756682
201	0x3ebd9299	0.37025908
202	0xbe12fec8	-0.14355004
203	0x3e7c3c46	0.24632367
204	0xbe38aaba	-0.18033877
205	0xbe874a33	-0.26423797
206	0x3e949c3c	0.29025447
207	0x3eaa1045	0.33215538
208	0x3e537465	0.2064987
209	0x3b97a7ec	0.004628172
210	0xbf3b2d42	-0.7311593
211	0x3e3e7343	0.18598656
212	0x3e8e3978	0.2777822
213	0xbf3f83d1	-0.7481051
214	0x3ec69eaa	0.38792926
215	0xbf166b8b	-0.5875785
216	0xbcbb0f24	-0.022834368
217	0xbd443f22	-0.04791177
218	0x3d196ae2	0.037455447
219	0xbeace418	-0.33767772
220	0xbf5b2b6d	-0.8561314
221	0x3ec46aa8	0.38362622
222	0xbea85249	-0.3287528
223	0x3e90f157	0.28309128
224	0x3e8951f5	0.2682034
225	0xbed9f970	-0.42573118
226	0xbf1d3904	-0.61415124
227	0x3e4f840a	0.20265213
228	0xbd516f94	-0.0511318
229	0x3e0b8921	0.1362653
230	0x3e077060	0.13226461
231	0x3da4d350	0.08048117
232	0xbe76b756	-0.24093375
233	0xbe8673df	-0.26260278
234	0xbf28bf68	-0.6591706
235	0x3eed880a	0.46392852
236	0x3e9747be	0.29546922
237	0xbf295176	-0.66139925
238	0x3e8a283f	0.2698383
239	0xbf9d7959	-1.2302657
240	0x3c3880c2	0.011261167
241	0xbe1bad88	-0.15202916
242	0xbf24fcb3	-0.6444809
243	0xbe677b61	-0.22605659
244	0x3eab5b71	0.33468202
245	0xbebb46cb	-0.36577448
246	0x3d25f1a2	0.040513642
247	0x3e07f168	0.13275683
248	0x3d28a123	0.041169297
249	0x3f1d8296	0.61527383
250	0xbecf8a0a	-0.40535003
251	0x3f07ba04	0.5301821
252	0xbef72ac0	-0.48274803
253	0xbe4dadd2	-0.20085838
254	0x3e0d0ef0	0.1377523
255	0xbd8c1ac2	-0.06841041

fc1.bias f4 [400]
0	0xbef4570f	-0.4772267
1	0x3ee9b8ce	0.45648807
2	0x3ef14364	0.47121727
3	0xbe737b9b	-0.2377762
4	0xbede5590	-0.43424654
5	0xbe4dd97e	-0.20102498
6	0xbdb73a88	-0.08946711
7	0xbe3a0a80	-0.18168068
8	0xbde913ed	-0.11380754
9	0xbdb39ad2	-0.08769764
10	0xbf024d1b	-0.50898904
11	0xbd734d65	-0.05939998
12	0xbecd09ff	-0.4004669
13	0x3eac57b6	0.33660668
14	0x3ea51ba2	0.32247645
15	0x3e1a8359	0.15089168
16	0xbee23a9c	-0.4418534
17	0x3e3a191e	0.18173644
18	0x3eaddee7	0.33959123
19	0xbe4a4a74	-0.19754964
20	0x3e8912d0	0.26772165
21	0xbde0c926	-0.10975866
22	0x3ee9ebd9	0.4568775
23	0x3ed01421	0.40640357
24	0x3e9298f3	0.28632316
25	0x3e39ef68	0.18157732
26	0xbf04ba8b	-0.5184714
27	0x3e97b0d9	0.29627112
28	0xbeb3fe5a	-0.35154992
29	0xbeb57a1d	-0.35444728
30	0x3edbaa2c	0.42903268
31	0xbd813c11	-0.06310285
32	0xbd753720	-0.059867024
33	0xbd4869db	-0.048929077
34	0x3eaf6e3d	0.34263793
35	0xbeacd176	-0.33753556
36	0xbe9d24ed	-0.30692235
37	0x3e4e0c1a	0.20121804
38	0x3e9853d8	0.29751468
39	0xbf155ef5	-0.5834802
40	0x3ed2086f	0.4102206
41	0xbeb2e4fe	-0.34940332
42	0xbeab3ecf	-0.33446357
43	0xbdf23d78	-0.118281305
44	0xbd876f64	-0.06613043
45	0xbea747bc	-0.32671916
46	0xbdb5a06f	-0.08868491
47	0xbed4020c	-0.41407812
48	0x3e5a49fa	0.21317282
49	0xbe5408e9	-0.20706524
50	0x3ef68223	0.4814616
51	0x3e12b949	0.14328493
52	0xbe7d10e8	-0.2471348
53	0xbe22a7ba	-0.15884295
54	0xbe41dcda	-0.18931904
55	0xbe8f3c8e	-0.27975887
56	0xbed08a84	-0.4073068
57	0x3ed2cc24	0.41171372
58	0x3e09875b	0.1343054
59	0xbf0a3fd2	-0.5400363
60	0x3e262de7	0.16228448
61	0x3d72b147	0.059251096
62	0xbee891b7	-0.45423672
63	0x3f1349c6	0.57534444
64	0x3e1a6298	0.15076673
65	0xbeba103e	-0.36340517
66	0xbedc42fa	-0.4301985
67	0xbd4ec64c	-0.05048208
68	0xbe5ec98c	-0.21756572
69	0x3e9e987f	0.3097572
70	0xbf13baa1	-0.5770665
71	0xbe3a0be4	-0.18168598
72	0xbe0d5ec1	-0.13805677
73	0x3ec8c9a4	0.3921634
74	0x3e45e190	0.19324327
75	0x3ee68247	0.4502127
76	0x3d0af661	0.03392637
77	0xbecbf258	-0.3983333
78	0xbe0bdeff	-0.13659285
79	0xbf03db6c	-0.51506686
80	0x3efaf63c	0.49015987
81	0x3e1dcd74	0.15410405
82	0x3dfe432d	0.124151565
83	0x3e5b9af3	0.21445827
84	0xbd8a1aeb	-0.067434154
85	0xbea371a2	-0.31922632
86	0x3e34060a	0.17580429
87	0xbe969f0b	-0.29418215
88	0x3ee49cea	0.44650966
89	0xbe1c5f4e	-0.15270731
90	0x3eb287fc	0.34869373
91	0xbc36448a	-0.011124739
92	0xbe3c0f4b	-0.18365209
93	0xbeba0bbe	-0.36337084
94	0x3f122ad5	0.57096606
95	0x3e93a148	0.28833985
96	0x3d8b12b4	0.06790677
97	0xbd233f27	-0.03985515
98	0xbe9b30cf	-0.30310676
99	0xbc7d3c40	-0.015456259
100	0xbe5e3b31	-0.21702267
101	0xbd613e4e	-0.05499106
102	0xbee9c840	-0.4566059
103	0xbef6070d	-0.48052254
104	0xbb91bdf1	-0.0044476916
105	0x3ebc30a9	0.36755875
106	0x3ea31d07	0.31858084
107	0x3e869162	0.26282793
108	0xbd902748	-0.07038742
109	0x3e46d2a3	0.19416289
110	0xbf080ceb	-0.5314471
111	0x3eb7d988	0.3590815
112	0x3f13f230	0.57791424
113	0xbf093c21	-0.53607374
114	0x3ed69714	0.41912138
115	0xbe86f2f0	-0.26357222
116	0xbf1ec26c	-0.62015414
117	0x3db88a6b	0.09010776
118	0x3e98f7b6	0.29876488
119	0xbec0c890	-0.37653017
120	0x3eb6ea99	0.3572586
121	0xbecec0f8	-0.40381598
122	0xbf0d0b1a	-0.55095065
123	0x3b7b6e74	0.0038365396
124	0xbde2e618	-0.11079043
125	0x3efc3bba	0.49264318
126	0xbec79187	-0.38978216
127	0xbe6e3e31	-0.23265912
128	0x3decbc4f	0.115593545
129	0xbf074817	-0.52844375
130	0x3ee96500	0.4558487
131	0xbec2998b	-0.3800777
132	0xbe864631	-0.26225427
133	0xbe8d9321	-0.27651313
134	0xbf213a88	-0.62979937
135	0x3dbb9ace	0.09160386
136	0x3efb5be5	0.49093547
137	0x3e253338	0.1613282
138	0x3e1fee11	0.15618159
139	0xbf081d3c	-0.5316961
140	0x3ea46151	0.32105497
141	0x3e077cb0	0.13231158
142	0xbf1923f4	-0.59820485
143	0x3d315757	0.043296184
144	0xbea576c0	-0.32317162
145	0xbeef226e	-0.46705955
146	0xbee69a07	-0.4503939
147	0x3c86daaf	0.016461698
148	0xbd4ceffc	-0.050033554
149	0xbe30d825	-0.17269953
150	0x3ee51798	0.44744563
151	0x3eda8a01	0.42683414
152	0xbe438000	-0.19091797
153	0xbe9d6590	-0.3074155
154	0xbefbf26c	-0.4920839
155	0x3ec4ec6e	0.38461632
156	0xbf2b0766	-0.66808164
157	0xbf1d04bf	-0.61335367
158	0xbebc3c81	-0.3676491
159	0xbececd06	-0.40390795
160	0xbdfdfb6c	-0.124014705
161	0xbf0b024c	-0.5430038
162	0x3f0e2e26	0.55539167
163	0x3e780b99	0.24223174
164	0xbe28eaa7	-0.16495763
165	0xbf2089ec	-0.6271045
166	0xbea13303	-0.3148423
167	0xbcd16387	-0.025560154
168	0xbe9fc198	-0.31202388
169	0xbefba874	-0.49151957
170	0x3efc7353	0.49306735
171	0xbf3a9fb5	-0.72899944
172	0xbf15d2d4	-0.58524823
173	0x3e4ca595	0.1998504
174	0xbcea3b55	-0.028592745
175	0xbc66196e	-0.014044149
176	0x3d7955fc	0.060873017
177	0xbf02c8e0	-0.5108776
178	0x3e7f1344	0.24909693
179	0x3e4559b0	0.19272494
180	0xbec1c89c	-0.37848365
181	0xbf175f2c	-0.59129596
182	0x3e936a7a	0.28792173
183	0xbe6b9fbf	-0.23010157
184	0xbdf8c357	-0.12146633
185	0xbec9ad42	-0.39389998
186	0x3dbee195	0.0932037
187	0x3e921d8f	0.28538176
188	0x3ec4d6f8	0.38445258
189	0xbdc20c18	-0.09474963
190	0xbf31c56c	-0.69441867
191	0x3e239fa1	0.15978862
192	0x3f0153dc	0.50518584
193	0xbeebc043	-0.46045122
194	0xbe614dc1	-0.22002317
195	0x3ea3bcfd	0.31980124
196	0x3e1ba3d6	0.15199217
197	0x3e187d4b	0.14891545
198	0xbe3603d5	-0.177749
199	0x3ebdf2bb	0.3709925
200	0xbecfb76b	-0.40569624
201	0xbe9a30bc	-0.30115306
202	0xbe83e830	-0.25763083
203	0x3e17b6a4	0.14815766
204	0xbe531d1f	-0.20616578
205	0x3e3dbcdd	0.18529077
206	0x3edd5bf7	0.43234226
207	0x3ddea3cd	0.10871086
208	0xbec511c5	-0.3849012
209	0xbd10df13	-0.03536899
210	0xbe803309	-0.25038937
211	0x3f10c252	0.5654651
212	0x3dbe9ac9	0.09306867
213	0xbf15aba2	-0.58465016
214	0xbf0f7139	-0.5603214
215	0xbedf1c0d	-0.4357609
216	0xbf0b4390	-0.5439997
217	0x3e12a585	0.14320953
218	0xbe845e2b	-0.25853094
219	0xbf118c97	-0.5685515
220	0x3e03f44b	0.12886159
221	0x3d394d2e	0.04523962
222	0xbe46ea61	-0.19425346
223	0x3eb1f3c8	0.34756303
224	0xbe1f4d2f	-0.15556787
225	0x3e5de97f	0.21671103
226	0xbd072b76	-0.033000432
227	0xbe72e8e6	-0.23721656
228	0x3d8f063f	0.06983613
229	0xbe552440	-0.2081461
230	0x3ec60919	0.38678816
231	0x3e41e440	0.18934727
232	0xbee19eaf	-0.44066378
233	0xbe60a4d0	-0.21937871
234	0x3e78946d	0.2427537
235	0x3eb4b4d6	0.35294217
236	0x3e2097d6	0.15682921
237	0xbf071e1c	-0.5278032
238	0xbf069617	-0.5257277
239	0x3e263178	0.16229808
240	0x3eb58f9a	0.35461122
241	0xbc06560b	-0.008199225
242	0x3dcb9d5d	0.09942124
243	0xbeb6fcfe	-0.35739893
244	0x3f117f10	0.56834507
245	0x3e230042	0.15918067
246	0xbec39b96	-0.3820464
247	0xbdb6e0e3	-0.089296125
248	0xbec5a742	-0.3860417
249	0xbeeec72a	-0.46636325
250	0xbe6588ac	-0.22415417
251	0xbf5aae2b	-0.8542201
252	0xbdf8a9fa	-0.121417955
253	0xbe1c213c	-0.15247053
254	0xbe6ddde0	-0.2322917
255	0xbde1cd6e	-0.11025511

fc2.weight f4 [20, 400]
0	0x3da148a2	0.07875182
1	0x3e35a154	0.17737323
2	0xbc910add	-0.017705375
3	0xbd31a91c	-0.043374166
4	0x3e519f6e	0.20470974
5	0x3d1c21c8	0.038118154
6	0x3d139433	0.036030006
7	0xbd0b2f6d	-0.033980776
8	0xbcade2d8	-0.021226332
9	0xbc8fad44	-0.017538674
10	0x3d04668d	0.032324363
11	0x3e15809a	0.14599839
12	0xbe4c0c76	-0.19926628
13	0x3e2ffcdd	0.17186303
14	0xbe8559b7	-0.2604501
15	0xbd71e920	-0.059060216
16	0xbcaa4c8c	-0.020788454
17	0xbd779ecd	-0.06045418
18	0x3c45c585	0.012071018
19	0x3c16520b	0.009174834
20	0x3cf05e79	0.029341923
21	0xbc9f8edd	-0.019477302
22	0xbc3066cb	-0.010766695
23	0xbbbfc730	-0.0058526024
24	0x3c32e977	0.01091992
25	0x3e15fd82	0.14647487
26	0xbd2885bd	-0.041143168
27	0xbcaceff8	-0.02111052
28	0xbb581400	-0.0032970905
29	0x3b00e317	0.0019666606
30	0xbd144af3	-0.03620429
31	0x3c152a61	0.009104342
32	0xbba177d4	-0.0049276147
33	0xbe183da0	-0.14867258
34	0xbd4c460e	-0.049871497
35	0xbae7ceb1	-0.00176855
36	0xbcbbca8c	-0.02292373
37	0xbddbd9ac	-0.10734877
38	0xbc971f19	-0.018447446
39	0x3cf4a73d	0.029864902
40	0xbd96d563	-0.07364919
41	0xbe0e030f	-0.13868354
42	0x3b992506	0.004673603
43	0xbe059164	-0.13043743
44	0x3de2ee12	0.110805646
45	0x3de3a489	0.11115367
46	0x3d30d0f2	0.043168016
47	0xbc85c7be	-0.016330596
48	0x3d09e691	0.03366715
49	0x3c3b40ee	0.011429055
50	0xbd7f9ba3	-0.062404286
51	0x3d5148c2	0.051094778
52	0xbd65e243	-0.056123983
53	0x3cc15602	0.023600582
54	0xbc4d59b2	-0.012533592
55	0xbdde10e1	-0.10843063
56	0xbd2985e5	-0.041387457
57	0x3dad998e	0.08476554
58	0xbd5ebf14	-0.054381445
59	0xbcd96b01	-0.026540281
60	0xbbbb5de1	-0.0057179783
61	0xba927b7a	-0.0011175715
62	0xbd26faf9	-0.04076669
63	0x3da38b97	0.07985609
64	0x3d020252	0.031740494
65	0xbd39fcff	-0.04540729
66	0x3da49d47	0.08037811
67	0xbd526e4a	-0.05137471
68	0x3ca91fd3	0.020645058
69	0xbd8a20c1	-0.067445286
70	0x3e10b823	0.14132743
71	0xbc72f909	-0.014829882
72	0x3c44b662	0.012006374
73	0x3d670dde	0.05640971
74	0xbd71767b	-0.058950882
75	0xbc5fa667	-0.013650513
76	0xbca0f938	-0.019650087
77	0xbc9526f4	-0.01820705
78	0x3d03700a	0.03208927
79	0x3dcd29aa	0.100177124
80	0xbc93da04	-0.018048294
81	0xbd7f394b	-0.0623105
82	0xbcecb5c5	-0.028895268
83	0x3ca12b40	0.019673944
84	0x3e9263b8	0.28591704
85	0x3cff5061	0.031166257
86	0xbcbf7d2f	-0.023375122
87	0xbdb53f2c	-0.0884994
88	0xbe9bea9e	-0.30452436
89	0xbd9c799c	-0.07640383
90	0xbe927200	-0.286026
91	0x3c52cccd	0.012866211
92	0xbc1c4ed9	-0.009540283
93	0xbdb59bc2	-0.08867599
94	0xbc8d42c1	-0.017243745
95	0x3dae00a2	0.084962144
96	0x3b84c07a	0.0040512653
97	0x3d652d57	0.055951443
98	0x3d869b5d	0.06572602
99	0x3a9a4040	0.0011768416
100	0xbc44bbd6	-0.012007674
101	0xbdc87d3c	-0.097895116
102	0xbc9634da	-0.018335748
103	0xbd3947fd	-0.04523467
104	0x3cdceda7	0.02696879
105	0xbd9c9f00	-0.07647514
106	0xbd557282	-0.052111156
107	0x3dd88870	0.105728984
108	0xbd41e555	-0.04733785
109	0xbe0d87b7	-0.13821302
110	0x3d4f7088	0.050644428
111	0x3d3015df	0.042989608
112	0x3da414e3	0.08011796
113	0x3ad01b7d	0.0015877333
114	0xbc9e597f	-0.019329784
115	0xbd035aa6	-0.03206887
116	0xbd96dd0f	-0.07366382
117	0xbd213211	-0.039354388
118	0xbacbd52c	-0.0015551201
119	0x3d52a038	0.051422328
120	0xbc1de547	-0.0096371835
121	0xbdb75a50	-0.089527726
122	0xbe5581f6	-0.20850357
123	0xbdfac062	-0.12243725
124	0xbbbb98b9	-0.005724993
125	0xbda61386	-0.081091926
126	0x3d0904dc	0.0334519
127	0xbe0ac8a2	-0.13553098
128	0x3c5273b0	0.012844965
129	0x3d840cbb	0.06447741
130	0xbe9d96c2	-0.30779082
131	0xbbdf8c80	-0.006822169
132	0xbb751b2d	-0.0037400231
133	0x3cfe121f	0.0310145
134	0xbc072f78	-0.0082510635
135	0xb92a649e	-0.00016249946
136	0x3cc1a3e7	0.023637725
137	0xbb640881	-0.0034795108
138	0xbd8b1fda	-0.067931846
139	0x3c1ed10c	0.009693395
140	0x3d99f4e1	0.0751741
141	0xbd380c76	-0.04493376
142	0xbddb192f	-0.10698163
143	0x3da70ef6	0.081571504
144	0x3c8d14bb	0.0172218
145	0xbbf1718e	-0.007368273
146	0xbe89e24c	-0.26930463
147	0xbc211447	-0.009831495
148	0xbdc5d407	-0.09659582
149	0xbcda8aa1	-0.026677432
150	0x3c3d3bf7	0.011549941
151	0x3c7c384c	0.015394282
152	0xbd120d86	-0.03565743
153	0x3c6fbc6c	0.014632326
154	0x3cf44d36	0.029821973
155	0x3cf10912	0.02942327
156	0x3cc4a3de	0.02400392
157	0xbdfe9b11	-0.1243192
158	0xbc70de0f	-0.01470138
159	0x3d7d6b8e	0.06187015
160	0x3d43af27	0.04777446
161	0x3da93f44	0.0826402
162	0x3e86f898	0.26361537
163	0xbc77c0cb	-0.015121649
164	0x3dbb12b6	0.09134428
165	0x3d02647f	0.03183412
166	0x3c95294a	0.018208165
167	0x3ddbf03a	0.10739179
168	0xbdb6be4f	-0.08923017
169	0x3e544372	0.20728853
170	0xbd0189ca	-0.031625547
171	0x3d8f0e8f	0.06985199
172	0xbe12a7d5	-0.14321835
173	0xbd31eb34	-0.043437198
174	0x3d17eafa	0.037089325
175	0xbc2728a1	-0.010202558
176	0x3d6252aa	0.055254616
177	0x3db3f548	0.08787018
178	0xbd1941eb	-0.03741638
179	0x3bd0cd32	0.0063721174
180	0x3d748ba2	0.059703477
181	0x3e55bfe4	0.20873982
182	0x3dd9056b	0.105967365
183	0xbd67f04f	-0.05662566
184	0xbcef8e72	-0.029242728
185	0xbcb0460a	-0.021517772
186	0x3d54f6d3	0.051993202
187	0xbd711612	-0.05885894
188	0x3cfcc828	0.03085716
189	0x3cd10136	0.025513273
190	0xbe22156c	-0.15828484
191	0x3b9bba4a	0.004752432
192	0xbd802093	-0.06256213
193	0xbcacc34a	-0.021089215
194	0xbdbcbd41	-0.09215785
195	0x3d98b074	0.07455531
196	0x3c205273	0.009785282
197	0x3c4279e8	0.011869885
198	0xbd457cd4	-0.04821475
199	0xbe98ecbb	-0.2986811
200	0xbdd35e97	-0.10320776
201	0x3aaf9350	0.0013395343
202	0x3ddf77b1	0.10911501
203	0xbc9732a1	-0.018456759
204	0x3d4c9455	0.049946148
205	0x3c1a7511	0.009427325
206	0x3d178c9d	0.036999334
207	0x3d1650b0	0.036698043
208	0x3e2d0d78	0.16899669
209	0xbd94aec2	-0.07259895
210	0x3cb21192	0.021736894
211	0x3df7b21d	0.12094519
212	0xbbc56b6d	-0.006024769
213	0x3d44c17a	0.048036076
214	0xbceefbc0	-0.029172778
215	0xbc21cd04	-0.00987554
216	0xbd7cef33	-0.061751556
217	0x3d02cfb2	0.031936355
218	0xba19b6d9	-0.0005863733
219	0x3cfb3af2	0.030667756
220	0xbe16f3a2	-0.14741376
221	0xbc83cc38	-0.01608859
222	0x3d4ddb79	0.050258134
223	0xbcc84189	-0.024445312
224	0x3e0903b7	0.13380323
225	0xbd8279f1	-0.06370915
226	0x3d7d8929	0.061898384
227	0x3c951e7d	0.018203015
228	0xbc2c2536	-0.010506919
229	0xbca64c37	-0.020300014
230	0xbdb7e8b6	-0.08979933
231	0x3ba146cc	0.0049217697
232	0xbdd45ea9	-0.103696175
233	0xbcbe336a	-0.023217876
234	0xbe7947fa	-0.24343863
235	0xbe5831b1	-0.21112706
236	0xbdf32c30	-0.118736625
237	0xbce590be	-0.02802312
238	0x3d27056a	0.040776648
239	0xbb8871e6	-0.0041639684
240	0xbd71322f	-0.05888575
241	0x3c0f18dd	0.008733955
242	0x3cf05cb9	0.029341089
243	0x3b505b80	0.003179282
244	0xbdae184c	-0.08500728
245	0x3d845ce5	0.06463031
246	0x3cb50784	0.02209831
247	0x38a485db	7.845062e-05
248	0xbc83a2d0	-0.016068846
249	0xbe264d4c	-0.16240424
250	0xbd002d15	-0.031292994
251	0x3c97b1a5	0.018517325
252	0x3ccbd2c7	0.02488078
253	0xbbf80040	-0.007568389
254	0x3d44fcb9	0.048092578
255	0xbd8e119a	-0.06936951

fc2.bias f4 [20]
0	0xbd6c769f	-0.057730313
1	0xbb822451	-0.0039716144
2	0xbd9ea50b	-0.07746323
3	0xbdf13583	-0.11777785
4	0xbc93782b	-0.018001636
5	0xbd45ea1f	-0.04831898
6	0xbdc1346b	-0.09433826
7	0xbdce1c79	-0.100640245
8	0xbde82a9f	-0.11336254
9	0xbd68fc12	-0.056881018
10	0xbca03ded	-0.019560779
11	0x3c01c8f7	0.007921449
12	0xbc5b6bb7	-0.01339238
13	0xbcd12a76	-0.025532942
14	0xbc8a1209	-0.016854303
15	0x3ce65d13	0.028120553
16	0xbe0b26d6	-0.13589033
17	0xbd0b5885	-0.034019966
18	0xbd9e583a	-0.07731672
19	0x3cc803d2	0.024415884

fc3.weight f4 [400, 20]
0	0x3ded8d74	0.11599246
1	0x3da302e4	0.07959536
2	0x3e1c5383	0.15266232
3	0xbe8eae3d	-0.27867308
4	0xbc9ca63c	-0.019122235
5	0xbdae173b	-0.085005246
6	0xbd47ec9f	-0.048809644
7	0x3d99cec8	0.075101435
8	0xbe22b456	-0.15889105
9	0x3d81c09e	0.06335567
10	0x3bef2fa5	0.007299381
11	0x3d936956	0.071978256
12	0xbe31cc81	-0.17363168
13	0x3e8c4cfc	0.27402484
14	0x3d6aa38d	0.05728488
15	0x3e8d475e	0.2759351
16	0x3dd21705	0.10258297
17	0x3e33981d	0.17538495
18	0x3ea71df2	0.32640034
19	0x3d913145	0.070894755
20	0x3ebad713	0.36492214
21	0xbdf8b887	-0.12144571
22	0x3d610f3c	0.05494617
23	0x3db47459	0.08811254
24	0x3dfb4fa0	0.12271047
25	0x3d1516b5	0.03639861
26	0x3e32c6c6	0.17458639
27	0xbe2b41f6	-0.16724381
28	0x3daf7134	0.08566514
29	0xbd8f6caf	-0.070031516
30	0x3e275e2f	0.16344522
31	0x3d88c35d	0.066778876
32	0x3cd40e40	0.025885701
33	0x3d1906d4	0.037360027
34	0x3d9c5f54	0.0763537
35	0xbc63a160	-0.013893455
36	0x3e24704a	0.1605846
37	0x3e30eff9	0.17279042
38	0x3e855758	0.260432
39	0x3e43410c	0.19067782
40	0x3db5d8c4	0.088792354
41	0x3e7f945e	0.24958941
42	0xbda43130	-0.08017194
43	0x3cf3add0	0.029745966
44	0x3e4b685d	0.1986403
45	0x3adff54e	0.0017086656
46	0x3d01bf3d	0.03167652
47	0xbdf7c65e	-0.120983824
48	0xbdc1a715	-0.094556965
49	0x3de4d917	0.11174219
50	0xbd27cf17	-0.04096898
51	0x3dc86aec	0.09786019
52	0xbe1c7013	-0.15277128
53	0x3e74a56f	0.23891233
54	0xbe81d713	-0.253594
55	0x3e8dd557	0.27701828
56	0xbda5090b	-0.080583654
57	0xbdabe346	-0.08392958
58	0x3c06bb04	0.008223299
59	0x3e9d1719	0.30681685
60	0xbd80c0a3	-0.062867425
61	0x3e82be3a	0.25535756
62	0xbdb3a7e0	-0.08772254
63	0xbe067614	-0.1313098
64	0x3c11747a	0.008877868
65	0x3dfb83e6	0.12281017
66	0x3e1e126a	0.15436712
67	0xbaa083bd	-0.0012246292
68	0x3da73087	0.08163553
69	0xbbf88c16	-0.007585059
70	0x3e15df8d	0.14636059
71	0x3e0b195d	0.13583894
72	0x3c4b458e	0.01240672
73	0x3d26a008	0.04067996
74	0x3e19a829	0.15005554
75	0xbc7dda88	-0.015493996
76	0x3e7dcf42	0.24786094
77	0x3db7226e	0.08942114
78	0x3e6b99f7	0.23007952
79	0xbd6128c0	-0.054970503
80	0xbe034cbd	-0.12822242
81	0xbe5a9c1a	-0.2134861
82	0xbd79d4de	-0.06099402
83	0x3e8d3ba4	0.27584565
84	0x3dbf1455	0.0933005
85	0x3e68a564	0.22719342
86	0x3cd4aa89	0.025960224
87	0xbe2fde5e	-0.1717467
88	0x3e409cd9	0.18809833
89	0x3e10294f	0.14078258
90	0x3e33ff41	0.1757784
91	0x3e0e626b	0.13904731
92	0x3d033afe	0.03203868
93	0x3df295f1	0.11845005
94	0x3d8e8faa	0.069609955
95	0xbcf11642	-0.029429559
96	0x3da64f9b	0.08120652
97	0xbe8244d2	-0.2544313
98	0x3e7ec114	0.24878341
99	0xbc4e4e51	-0.012591914
100	0xbd18c3e3	-0.037296187
101	0x3d4ef514	0.050526693
102	0xbd57eb4b	-0.052714627
103	0x3e36bc81	0.17845346
104	0xbca72824	-0.020404883
105	0x3e424f14	0.18975478
106	0x3d0205e1	0.031743888
107	0x3e699a62	0.22812799
108	0x3e962a11	0.2932897
109	0xbdb19142	-0.08670284
110	0xbdcd1604	-0.10013965
111	0x3e9a4f24	0.30138505
112	0x3e1a0257	0.15039955
113	0xbd854523	-0.065073274
114	0xbc689eb0	-0.01419799
115	0x3e7f95ad	0.2495944
116	0xbd15cb92	-0.036571093
117	0x3e565bad	0.20933409
118	0xbdb162b7	-0.086614065
119	0xbca13107	-0.019676698
120	0x3e351e1f	0.17687272
121	0x3e4012b6	0.18757138
122	0xbe622e3a	-0.22087947
123	0xbd86eb94	-0.06587902
124	0x3dd440a6	0.10363893
125	0xbd985e8e	-0.0743991
126	0x3e3d2ae3	0.18473391
127	0x3e07533e	0.13215348
128	0xbd9159cc	-0.070972055
129	0xbda16756	-0.07881038
130	0xbd816619	-0.06318302
131	0xbd2ef7e9	-0.042716894
132	0x3c68e113	0.014213818
133	0xbd3ed256	-0.04658731
134	0xbd1b9582	-0.03798438
135	0xbd687ec8	-0.056761533
136	0xbd6caf7e	-0.05778455
137	0x3cdb211f	0.026749192
138	0x3eb0f94b	0.34565195
139	0x3ed83112	0.42224938
140	0xbc98d896	-0.018657964
141	0x3c8ca630	0.017169088
142	0x3d640505	0.05566885
143	0x3deb04f6	0.114755556
144	0x3dee4cfe	0.11635779
145	0x3d932ff4	0.07186881
146	0x3ce41b1b	0.027844956
147	0x3d389895	0.04506739
148	0xbe069ab6	-0.13144955
149	0xbe0bcb2e	-0.13651726
150	0xbd04ccd5	-0.032421906
151	0x3e183a33	0.14865951
152	0x3b21543b	0.0024616856
153	0x3e97b2a7	0.29628488
154	0xbe87e2a5	-0.26540104
155	0xbe428043	-0.1899424
156	0xbd762023	-0.06008924
157	0x3d94cfe8	0.072662175
158	0x3e8bd1ee	0.273086
159	0x3d9cca39	0.076557584
160	0x3e71e013	0.23620634
161	0x3debd04b	0.11514338
162	0xbd89fbcf	-0.06737482
163	0x3d9da633	0.076977156
164	0x3e527fe2	0.20556596
165	0xbe0f884d	-0.14016838
166	0xbea16d4b	-0.31528696
167	0x3d1630dc	0.03666769
168	0x3de7fb01	0.11327172
169	0x3d9cac27	0.07650023
170	0xbe30316a	-0.1720635
171	0xbe02471d	-0.1272244
172	0x3d651265	0.055925746
173	0x3d54ccd6	0.05195316
174	0x3dd89e17	0.10577028
175	0xbe2856be	-0.1643934
176	0x3de86fbc	0.11349437
177	0xbd655909	-0.055993114
178	0xbe92e910	-0.28693438
179	0xbd540e6e	-0.051771574
180	0x3e60645c	0.21913284
181	0xbda4dda7	-0.08050089
182	0xbb9e3cd1	-0.004829027
183	0xbd92ec53	-0.071739815
184	0x3e08fb4b	0.1337711
185	0xbdec9ad3	-0.11552968
186	0x3e052ddf	0.1300578
187	0x3e90b538	0.2826326
188	0xbdda8434	-0.10669747
189	0xbdbf54ac	-0.09342322
190	0xbe5eb3d6	-0.2174829
191	0x3cf108d5	0.029423157
192	0x3e6981a3	0.22803359
193	0x3dd223b7	0.10260718
194	0xbddd6235	-0.10809747
195	0x3d6b1ae1	0.05739868
196	0xbc11f104	-0.00890756
197	0x3dd3ce50	0.10342085
198	0x3e26388c	0.16232508
199	0x3c1c5d82	0.009543778
200	0x3deb1ea4	0.114804536
201	0x3ea03108	0.31287408
202	0xbe03907d	-0.12848087
203	0x3e69f1c1	0.22846128
204	0xbe6da53e	-0.23207566
205	0xbdfd1ff1	-0.12359608
206	0x3d5cd853	0.05391724
207	0x3e2e7c52	0.17039612
208	0xbe31669c	-0.17324299
209	0x3e792970	0.24332213
210	0x3e071d21	0.13194706
211	0x3c8a01bb	0.016846528
212	0x3e01031d	0.12598844
213	0x3e182e4d	0.14861412
214	0x3bf09cc5	0.007342907
215	0xbbcd2ef8	-0.0062617026
216	0x3e2db81a	0.1696476
217	0xbdde405f	-0.108521216
218	0x3e057dd9	0.13036288
219	0x3e654d4b	0.22392766
220	0xbd5af159	-0.053452823
221	0x3e5038f3	0.20334224
222	0xbdd17631	-0.10227621
223	0xbe5ed10d	-0.21759434
224	0xbe4db2f9	-0.20087804
225	0xbdc87538	-0.09787983
226	0xbd364fb4	-0.044509605
227	0x3e1f52cb	0.15558927
228	0x3d21941d	0.039447892
229	0xbd9eb9b8	-0.07750267
230	0x3d9d6baf	0.07686555
231	0x3d912f09	0.07089049
232	0xbe0414a2	-0.12898496
233	0x3d8b0d05	0.06789593
234	0x3bbbce0f	0.005731351
235	0xbe4b6e05	-0.19866188
236	0xbe89fa99	-0.26949003
237	0x3d950830	0.07276952
238	0x3ec40c45	0.3829061
239	0x3ed88c2f	0.42294452
240	0x3e2f1d6f	0.17101072
241	0x3d182eb0	0.0371539
242	0xbd8c4858	-0.06849736
243	0x3d1cdd7e	0.03829717
244	0xbe051892	-0.12997654
245	0xbd90dc88	-0.07073313
246	0x3e3c19f1	0.18369271
247	0x3e0fee2a	0.14055696
248	0xbd340e5b	-0.043959003
249	0x3e3e2626	0.1856924
250	0x3e8c4a3b	0.27400383
251	0x3d472b64	0.048625365
252	0x3d49c814	0.049263075
253	0x3e4409c0	0.19144344
254	0x3d4fcf0e	0.050734572
255	0xbd8442ce	-0.064580545

fc3.bias f4 [400]
0	0x3c9589f0	0.01825425
1	0xbe87a235	-0.26490942
2	0x3db0a3fe	0.08625029
3	0x3d77bc76	0.060482465
4	0x3ca124e5	0.019670913
5	0xbe3176db	-0.17330496
6	0xbdacd69d	-0.08439372
7	0x3e527802	0.20553592
8	0x3de9ec7b	0.11422058
9	0xbe2275c9	-0.15865244
10	0xbe69edcd	-0.2284462
11	0xbe65cb33	-0.22440796
12	0x3d822aff	0.06355857
13	0xbdc63c97	-0.09679525
14	0xbe67eb6a	-0.22648397
15	0xbdec9fa2	-0.11553885
16	0x3e97a3dc	0.29617202
17	0xbe054a52	-0.13016632
18	0xbdd35b21	-0.10320116
19	0xbdeac64c	-0.114636034
20	0x3d8c04a4	0.06836823
21	0x3a8adfc9	0.0010595258
22	0xbd9a7999	-0.07542724
23	0x3cbdbb6b	0.023160657
24	0xbd40332d	-0.046923805
25	0x3e16964f	0.14705776
26	0xbe573acb	-0.21018521
27	0xbd43aa27	-0.04776969
28	0x3d572bf9	0.05253217
29	0x3c56c774	0.013109077
30	0xbd2bf7d4	-0.041984394
31	0xbea158ef	-0.31513163
32	0x3e266f48	0.16253388
33	0xbe81f181	-0.25379565
34	0xbdccb2f7	-0.09995072
35	0xbe13ae6b	-0.14422004
36	0x3e26075a	0.16213742
37	0x3d35269a	0.044226266
38	0x3e79e913	0.24405317
39	0x3d8481bf	0.064700596
40	0xbba754cf	-0.0051065455
41	0xbe39c1dd	-0.18140359
42	0xbd05001b	-0.032470804
43	0xbde6b834	-0.11265603
44	0x3e9b305c	0.30310333
45	0x3e009361	0.1255622
46	0x3e78be5e	0.2429137
47	0xbe5f8f48	-0.21832001
48	0xbe5565b1	-0.20839573
49	0xbdd999c0	-0.106250286
50	0xbd0ccdcf	-0.034375962
51	0xbd4410fb	-0.047867756
52	0x3d079255	0.033098537
53	0x3dc2b39a	0.095069125
54	0xbe75f6d6	-0.24019942
55	0x3e2051a6	0.15656146
56	0xbda98898	-0.08278006
57	0x3d5842eb	0.052798193
58	0xbe07ccfb	-0.13261788
59	0xbc142a00	-0.009043217
60	0x3cd40534	0.025881387
61	0xbd494f0c	-0.04914765
62	0xbd82e3c3	-0.06391098
63	0xbea9f0ce	-0.33191532
64	0xbdd6caee	-0.104879245
65	0x3ea486cf	0.321341
66	0xbd4740c7	-0.04864576
67	0xbe609dff	-0.2193527
68	0x3d8ff13b	0.07028433
69	0xbe8dc095	-0.2768599
70	0x3dd7dfbb	0.1054072
71	0x3dce8734	0.10084382
72	0xbe599549	-0.21248354
73	0xbdc36962	-0.095415846
74	0xbd97586b	-0.07389911
75	0xbe45c97d	-0.19315143
76	0xbdf82d5c	-0.121180266
77	0xbe9b1bb2	-0.30294567
78	0x3c82678a	0.015918512
79	0xbe5d2a10	-0.21598077
80	0xbd9fbbda	-0.07799502
81	0xbdc7671a	-0.09736462
82	0xbc295e45	-0.010337417
83	0xbc834ed3	-0.016028797
84	0xbdbaefd1	-0.091277726
85	0xbdddbc6e	-0.10826956
86	0x3cd8255f	0.026385007
87	0xbe759943	-0.23984246
88	0xbdab33be	-0.083594784
89	0xbdbcfeab	-0.092282616
90	0xbdb5c336	-0.08875124
91	0xbe6e6f21	-0.2328458
92	0xbd356ede	-0.044295184
93	0xbeae56e5	-0.3405067
94	0x3d58be4c	0.052915856
95	0xbce2f02d	-0.027702415
96	0xbe374a8b	-0.1789953
97	0x3de78902	0.11305429
98	0x3c8bada4	0.017050572
99	0xbd8a8974	-0.06764498
100	0xbd68de4f	-0.056852635
101	0xbe8b74a4	-0.27237427
102	0x3e10313e	0.14081284
103	0x3df8e834	0.12153664
104	0xbe1aca26	-0.15116176
105	0xbe4b42cb	-0.19849698
106	0xbe7a6f11	-0.24456431
107	0xbdc3d673	-0.09562387
108	0x3e2d94fe	0.16951367
109	0xbe228849	-0.15872301
110	0x3dc787dc	0.0974271
111	0xbebb73f9	-0.36611918
112	0x3e101961	0.14072181
113	0xbec31a33	-0.38105926
114	0xbd47981e	-0.048729055
115	0x3e638ea6	0.22222385
116	0x3e18c731	0.14919735
117	0x3dab358d	0.083598234
118	0xbd185c3b	-0.037197333
119	0x3d6ce050	0.05783111
120	0xbe4d753e	-0.20064256
121	0xbe80a3a6	-0.25124854
122	0x3db39591	0.08768762
123	0x3db16501	0.08661843
124	0xbe4b113e	-0.19830796
125	0x3ba22146	0.004947814
126	0xbe318ab1	-0.17338063
127	0x3c5e9ca4	0.013587151
128	0x3df8295b	0.12117263
129	0xbe16943a	-0.14704981
130	0xbd2902e9	-0.04126254
131	0xbe016311	-0.12635447
132	0x3dcf77e2	0.10130288
133	0xbe26bc5f	-0.16282795
134	0xbda2dbbf	-0.079520695
135	0x3e96cc39	0.29452685
136	0xbe0fbee7	-0.14037667
137	0x3d4f911b	0.050675493
138	0x3dbb0710	0.091322064
139	0xbb86973e	-0.004107385
140	0x3e35b279	0.17743863
141	0xbe66ee86	-0.22551927
142	0xbe1a9004	-0.15094
143	0x3d887f26	0.06664877
144	0xbdec71a3	-0.11545112
145	0x3e2f2506	0.17103967
146	0xbe6e03ab	-0.23243587
147	0xbdeab9f7	-0.11461251
148	0x3cd97630	0.026545614
149	0xbd90b041	-0.07064868
150	0xbe6ea895	-0.23306496
151	0xbe4cb50c	-0.19990939
152	0xbe0d04c5	-0.1377135
153	0xbe8be179	-0.2732046
154	0x3e289ba6	0.16465625
155	0xbdb0df0b	-0.08636292
156	0x3de05c1b	0.10955068
157	0xbd7f1c00	-0.062282562
158	0xbe64f041	-0.22357275
159	0xbb86ae3f	-0.004110127
160	0xbda76d69	-0.08175165
161	0xbe8dfd40	-0.27732277
162	0x3e09578d	0.13412304
163	0xbe364f3f	-0.17803667
164	0xbe9cac8a	-0.30600387
165	0x3d582777	0.05277201
166	0xbe32153f	-0.17390917
167	0x3d5e9578	0.054341763
168	0x3e557a01	0.20847322
169	0xbe32221c	-0.17395824
170	0x3da0620b	0.078312
171	0xbdbc7c79	-0.09203429
172	0x3dbba2f5	0.09161941
173	0xbe92ca08	-0.28669763
174	0xbd81830d	-0.06323824
175	0xbe2b7660	-0.16744375
176	0x3b040240	0.0020142943
177	0xbde482e9	-0.11157782
178	0x3e239d02	0.15977862
179	0xbec28978	-0.37995505
180	0xbe3dc17e	-0.18530843
181	0xbd953fdc	-0.07287571
182	0x3d978538	0.07398456
183	0xbba3aa14	-0.00499464
184	0x3e211ca0	0.15733576
185	0xbe89562a	-0.2682355
186	0x3cb9925b	0.022652796
187	0xbe972e07	-0.29527304
188	0xbe179b25	-0.14805277
189	0x3e775506	0.24153528
190	0xbe6f697f	-0.23380087
191	0xbeba13b6	-0.36343163
192	0xbd7ad52b	-0.06123845
193	0x3df9104c	0.121613115
194	0xbe69c5ed	-0.22829409
195	0xbe2ac42e	-0.16676399
196	0xbe7fa499	-0.24965133
197	0xbe393c72	-0.18089464
198	0xbe77d786	-0.2420331
199	0xbbdd97ee	-0.006762496
200	0x3e81439c	0.25246894
201	0xbe97f080	-0.29675674
202	0xbec4a241	-0.3840504
203	0xbcf7acaf	-0.03023371
204	0xbe49a77a	-0.19692793
205	0xbe16ed9e	-0.14739081
206	0x3dfac392	0.12244333
207	0xbe13c682	-0.14431193
208	0xbe288e6e	-0.16460583
209	0x3e2a0167	0.16602097
210	0x3d111107	0.03541663
211	0xbde08503	-0.1096287
212	0xbe2f1c5a	-0.17100659
213	0x3de4ccb9	0.1117186
214	0xbe2aa249	-0.1666347
215	0xbe434fde	-0.19073436
216	0xbe87adc7	-0.2649977
217	0x3e26a911	0.16275431
218	0xbe3c1d86	-0.18370637
219	0x3cd03270	0.025414675
220	0x3e117cca	0.1420776
221	0xbe0bf710	-0.13668466
222	0xbc07d19b	-0.00828972
223	0xbe882849	-0.26593235
224	0xbe821a20	-0.25410557
225	0xbe3efef9	-0.18651952
226	0xbec5316e	-0.38514274
227	0xbebbe427	-0.36697504
228	0xbe61db6a	-0.22056356
229	0xbe4893ff	-0.19587706
230	0x3c97d290	0.018533021
231	0x3de38428	0.11109191
232	0xbe0de102	-0.13855365
233	0xbebae719	-0.3650444
234	0xbe6f0406	-0.23341379
235	0xbea102ad	-0.31447354
236	0xbebe3c5a	-0.3715542
237	0xbe8d6a8a	-0.27620345
238	0x3b0310d9	0.0019999056
239	0x3c5dc04a	0.013534615
240	0xbcb091e0	-0.021553934
241	0xbe930d71	-0.28721192
242	0x3d0f99cf	0.035058793
243	0xbe09c90a	-0.13455597
244	0xbe4fca60	-0.20292044
245	0x3d10a8c2	0.03531719
246	0x3d89f6e6	0.06736545
247	0x3b3260de	0.0027218382
248	0xbe064eeb	-0.13116042
249	0x3dad96a9	0.08476002
250	0xbe2f47e2	-0.17117265
251	0x3df40e59	0.11916799
252	0x3daddace	0.08488999
253	0x3e47a452	0.19496277
254	0x3e0c86ae	0.13723251
255	0xbd899104	-0.06717113

fc4.weight f4 [2, 400]
0	0xbd46b622	-0.04851354
1	0xbb733495	-0.0037110199
2	0xbd38526a	-0.04500047
3	0x3d4606a5	0.04834618
4	0xbc249788	-0.0100458935
5	0x3bb644aa	0.0055623846
6	0xbdd64dba	-0.10464044
7	0xbd7579e2	-0.05993069
8	0xbd2e4771	-0.0425486
9	0x3a98c583	0.0011655543
10	0x3d34e61c	0.044164762
11	0xbce6fcd2	-0.028196726
12	0x3cff2f1c	0.031150393
13	0x3d73aa14	0.05948837
14	0xbd175e27	-0.036955025
15	0xbd425dfb	-0.047452908
16	0xbd8f7de9	-0.07006437
17	0x3d0cd1f0	0.0343799
18	0xbcb42fe4	-0.021995492
19	0x3af5117c	0.0018697227
20	0xbc05cca6	-0.008166468
21	0xbda7c999	-0.081927486
22	0xbceadb19	-0.028668927
23	0xbcd34de9	-0.025793986
24	0x3b70cbbb	0.0036742527
25	0x3df14538	0.117807806
26	0x3d0dd0b9	0.03462288
27	0x3bc04b99	0.005868387
28	0x3c2d0648	0.01056058
29	0xbd0a27cf	-0.03372937
30	0xbe346281	-0.17615701
31	0x3bcdc13d	0.0062791393
32	0xbd7dd300	-0.061968803
33	0x3c2858ba	0.01027506
34	0xbd7d256d	-0.06180327
35	0x3a564d71	0.0008174992
36	0xbdec8b0a	-0.11549957
37	0xbc30216d	-0.010750157
38	0xbd87ea75	-0.06636516
39	0x3b4c3ee0	0.0031165406
40	0xbbd852fe	-0.0066016903
41	0xbd97151a	-0.07377072
42	0x3df12fd4	0.117767006
43	0x3e0d6fa0	0.13812113
44	0xbdea469b	-0.11439248
45	0xbe2410fe	-0.16022107
46	0xbdb8e8a9	-0.090287514
47	0xbdb43051	-0.08798278
48	0xbe23f463	-0.16011195
49	0xbd24dd41	-0.040250067
50	0xbce03ba9	-0.027372198
51	0xbd708b1c	-0.058726415
52	0xbc1288f1	-0.008943782
53	0xbe0f021b	-0.13965647
54	0xbd75adbc	-0.05998014
55	0xbd800694	-0.06251255
56	0xbe1e468d	-0.154566
57	0xbdd021fd	-0.10162733
58	0x3b60d389	0.0034305772
59	0x3d805e1f	0.06267952
60	0xbbfa7c54	-0.0076442156
61	0x3ccdc750	0.025119454
62	0xbe04e973	-0.12979679
63	0x3b97329d	0.004614188
64	0x3d724025	0.059143204
65	0xbcad6bec	-0.021169625
66	0xbe38356a	-0.17989126
67	0xbc77cd29	-0.015124598
68	0x3bbf504e	0.0058384305
69	0xbd1573af	-0.036487278
70	0xbd81bdb2	-0.0633501
71	0xbd4b4530	-0.04962653
72	0xbda59897	-0.08085745
73	0x3bfb517d	0.0076696263
74	0x3db0d914	0.08635154
75	0x3da4b12b	0.080416046
76	0xbccd9aa8	-0.02509816
77	0x3cd7e88d	0.026356006
78	0x3bd9a262	0.006641672
79	0x3c57d72e	0.013173861
80	0xbc1c2958	-0.0095313415
81	0xbd0e01e2	-0.034669764
82	0xbc804eb7	-0.015662534
83	0x3ca14350	0.019685417
84	0x3c38748a	0.011258254
85	0xbd88e608	-0.066845
86	0x3de8f13d	0.113741376
87	0x3cdefc3c	0.027219884
88	0xbbd6fb2b	-0.0065607033
89	0xbd9f9a09	-0.07793052
90	0xbd550a62	-0.052011855
91	0x3cab64af	0.020922033
92	0xbc427f33	-0.011871147
93	0x3d55e8e3	0.05222405
94	0xbd259668	-0.04042664
95	0x3d0f9775	0.03505655
96	0xbdb840af	-0.089967124
97	0xbcb9e674	-0.022692896
98	0x3d2dac8d	0.042400885
99	0x3ceee900	0.029163837
100	0xbc99e114	-0.018784083
101	0xbaa6a3d0	-0.0012713615
102	0x3c9ca748	0.019122735
103	0xbcbd8086	-0.023132574
104	0x3ddf2259	0.10895223
105	0x3d155c5b	0.03646503
106	0xbc89691a	-0.01677375
107	0xbd1a1c70	-0.037624776
108	0xbbcc4b9e	-0.0062346
109	0xbd65a917	-0.05606946
110	0xbdd1d51a	-0.10245724
111	0x3e2165b4	0.15761453
112	0xbd11721f	-0.035509225
113	0x3d3942fa	0.04522989
114	0xbd92b0b1	-0.071626075
115	0xbd5d7576	-0.054067098
116	0xbda93e3a	-0.08263822
117	0xbd6f0662	-0.058355696
118	0xbca94851	-0.020664366
119	0xbaabd458	-0.0013109548
120	0xbcc639ae	-0.024197426
121	0xbd29710b	-0.04136757
122	0xbd3a6dae	-0.045514755
123	0x3d05662e	0.03256815
124	0x3bc48035	0.005996729
125	0xbc03dfa2	-0.008048924
126	0x3c685a60	0.014181703
127	0xbbfa5952	-0.0076400423
128	0xbcc2e073	-0.023788666
129	0x3d32e2d4	0.04367335
130	0xbd6993f0	-0.05702585
131	0xbe1802f9	-0.14844884
132	0x3cc7c9c6	0.024388205
133	0x3ad39000	0.0016140938
134	0xbbe1d221	-0.0068915044
135	0xbd79b0a6	-0.06095948
136	0x3d5d79ac	0.054071113
137	0xbd3e026b	-0.046389025
138	0x3cdccc2a	0.026952822
139	0xbbc58dba	-0.006028858
140	0xbdb1a3d5	-0.086738266
141	0xbd43f631	-0.04784221
142	0x3c870b4b	0.016484877
143	0xbd23f71e	-0.04003059
144	0xbda52cc7	-0.08065181
145	0xbce2bea7	-0.0276788
146	0xbc787a19	-0.015165829
147	0xbdd50a96	-0.1040241
148	0x3de5525a	0.11197348
149	0xbca7f6c8	-0.020503417
150	0xbb834699	-0.0040062186
151	0xbddb3458	-0.10703343
152	0xbbfcbc84	-0.0077129025
153	0x3bfb4d70	0.0076691434
154	0xbd33f0db	-0.04393087
155	0x3d272b87	0.040812995
156	0xbcb900e6	-0.022583436
157	0xbe0fc124	-0.14038521
158	0x3a0e7be3	0.00054353307
159	0x3c90c40f	0.017671613
160	0x3d8a4059	0.067505546
161	0x3cc1b9df	0.0236482
162	0xbb6148b9	-0.0034375621
163	0xbd9020a7	-0.07037478
164	0xbd53e869	-0.051735315
165	0x3cb61fe6	0.022232007
166	0x3c03fa0a	0.008055219
167	0x3c09f245	0.008419578
168	0xbae1aa84	-0.0017216955
169	0xbc03ae66	-0.008037185
170	0x3be320aa	0.006931384
171	0x3b311436	0.0027020103
172	0xbd73d030	-0.059524715
173	0xbcad9b22	-0.021192137
174	0xbdc6197b	-0.09672829
175	0xbb77eed8	-0.003783157
176	0xbd0a6ef9	-0.033797238
177	0xbc281823	-0.010259661
178	0xbaf5013f	-0.0018692388
179	0xbc8e18cc	-0.017345808
180	0xbc6ffe25	-0.014647995
181	0xbb08f1b9	-0.002089603
182	0xbdff6f5a	-0.124724105
183	0xbd2b6a28	-0.041849285
184	0xbccf5110	-0.025307208
185	0xbc465353	-0.012104827
186	0x3d4884ed	0.048954893
187	0x3b78bab0	0.0037953071
188	0xbbd0a12f	-0.006366871
189	0xbe0cd2f2	-0.13752344
190	0x3cce910d	0.02521565
191	0x3b136081	0.002248794
192	0x3d3af832	0.045646854
193	0xbd157ce5	-0.03649606
194	0x3d05b3cb	0.032642167
195	0xbcb5d1cc	-0.022194766
196	0xbabb6bc7	-0.0014299088
197	0xbcd82820	-0.02638632
198	0xbd62bc52	-0.055355377
199	0x3d5772de	0.05259978
200	0xbdad3cd8	-0.08458871
201	0xbb5afd0f	-0.0033414995
202	0x3cf48a5d	0.029851133
203	0xbd42cf5f	-0.047561046
204	0xbd81cec0	-0.063382626
205	0xbd1a5343	-0.03767706
206	0xbb96b99e	-0.004599764
207	0xbd01682b	-0.031593483
208	0xbc88b784	-0.01668907
209	0xbd970879	-0.07374663
210	0xbe746c37	-0.23869406
211	0xbc571552	-0.013127642
212	0xbe5aa06c	-0.21350259
213	0xbdda1324	-0.10648182
214	0xbcd41307	-0.02588798
215	0xbdb4b596	-0.08823697
216	0x3b25c6d1	0.0025295506
217	0x3da3f09b	0.08004876
218	0xbc0150ce	-0.0078928005
219	0xbd4c1cc4	-0.04983212
220	0x3bf41c44	0.0074496586
221	0xbda6c669	-0.081433125
222	0xbcfac7fd	-0.03061294
223	0x3d3f6ed7	0.046736564
224	0x3ab0a230	0.001347607
225	0x3bb44552	0.0055014277
226	0xbb83de95	-0.0040243366
227	0x3c5cd4b1	0.013478444
228	0x3c13c3e3	0.009018871
229	0x3d0b83d9	0.034061287
230	0xbd8c74a1	-0.06858183
231	0xbe1b7c25	-0.15184076
232	0x3d8fc133	0.07019272
233	0xbc5d1ded	-0.013495904
234	0xbcbc9a4e	-0.023022797
235	0x3c6c0c7a	0.0144072715
236	0xbb53bf04	-0.00323099
237	0x3aaf2ed5	0.0013365397
238	0xbac1effe	-0.0014796255
239	0x3d058592	0.032598086
240	0xbdba7d84	-0.091059715
241	0xbb943734	-0.0045231823
242	0xbc33a2b0	-0.010964081
243	0x3d0beefe	0.034163468
244	0xbc4568b5	-0.01204889
245	0x3bf8c02d	0.0075912685
246	0x3d99440e	0.074836835
247	0xbcd17129	-0.025566654
248	0x3d8551b7	0.065097265
249	0xbcdab1bd	-0.02669608
250	0x3d1dc09d	0.03851377
251	0xbb32978a	-0.002725097
252	0xbc8b39cb	-0.016995331
253	0x3dc01494	0.09378925
254	0xbd7e5748	-0.062094957
255	0xbd4693d7	-0.048480835

fc4.bias f4 [2]
0	0xbe0ade67	-0.13561402
1	0x3f089790	0.53356266

cls.weight f4 [2, 48]
0	0x3c36e5ea	0.011163214
1	0x3d0a18db	0.03371511
2	0xbdf7c236	-0.1209759
3	0xbbc9daf3	-0.006160134
4	0xbda1c559	-0.07898969
5	0xbe22b870	-0.1589067
6	0x3dedebb2	0.11617221
7	0x3db4b403	0.08823397
8	0x3d7e2ff2	0.062057443
9	0xbd8c3323	-0.06845691
10	0xbdf0de22	-0.117611185
11	0xbd926b31	-0.071493514
12	0x3df45e0a	0.11931999
13	0x3e82cd93	0.25547466
14	0xbd9ca68d	-0.076489545
15	0x3b8db266	0.0043242453
16	0xbe2845fd	-0.16432948
17	0xbd0d182c	-0.03444688
18	0xbe72d5f3	-0.23714428
19	0x3cc403ab	0.02392753
20	0x3cf307b3	0.029666757
21	0xbdb60452	-0.08887543
22	0xbd13a90d	-0.03604989
23	0x3d2247f2	0.039619394
24	0xbbe3834c	-0.006943142
25	0x3ddbc081	0.107300766
26	0x3dab7a94	0.08372989
27	0x3cb58499	0.022157954
28	0xbd69d1ad	-0.057084728
29	0x3d43bf27	0.04778972
30	0x3dff9ecb	0.12481459
31	0xbe3b0e35	-0.18267138
32	0x3da11a83	0.07866385
33	0x3dd4d551	0.103922494
34	0xbc608855	-0.013704379
35	0x3e82b6f9	0.25530222
36	0xbd94a402	-0.072578445
37	0x3e0cb63a	0.13741389
38	0xbd64708f	-0.055771407
39	0xbd0f6109	-0.03500465
40	0xbda9f712	-0.08299078
41	0xbe18a16e	-0.1490533
42	0xbd95b533	-0.07309952
43	0x3a24cdee	0.00062867894
44	0xbd6720b0	-0.056427658
45	0x3e0a7840	0.13522434
46	0xbcc0a9ba	-0.023518432
47	0xbcdbc7f2	-0.02682874
48	0x3e270777	0.16311441
49	0xbd862fca	-0.06552084
50	0xbc802fd6	-0.01564781
51	0xbdf18762	-0.117934
52	0x3da8f2b2	0.082494155
53	0x3e237e4f	0.15966152
54	0xbcf5571b	-0.029948762
55	0x3dc0466c	0.09388432
56	0xbdf2d989	-0.11857898
57	0x3c9c8994	0.019108571
58	0x3d8b14a2	0.06791045
59	0x3e3a8c7b	0.18217652
60	0xbe3f4d33	-0.18681793
61	0xbbbd9a79	-0.005786237
62	0x3e76fb62	0.24119332
63	0xbcf24484	-0.029573686
64	0xbd0c57c0	-0.034263372
65	0xbd62b4bd	-0.055348147
66	0x3e0af1af	0.13568757
67	0xbd3e5d8a	-0.046475925
68	0x3d91032d	0.07080684
69	0x3e999153	0.29993686
70	0x3d2fee6d	0.04295199
71	0x3d9b626a	0.0758713
72	0xbdf1e6da	-0.118116096
73	0xbdae8ea8	-0.08523303
74	0x3d81aa04	0.06331256
75	0xbd6b27ad	-0.057410885
76	0x3e597368	0.2123543
77	0xbd736441	-0.05942178
78	0x3c3d20e7	0.011543489
79	0x3e2e8fe1	0.17047073
80	0x3cdd0528	0.026979998
81	0xbd670270	-0.05639881
82	0x3e265f34	0.16247255
83	0xbe250607	-0.1611558
84	0xbe223a99	-0.15842666
85	0x3ccd13ae	0.025033798
86	0xbddc5c9e	-0.10759853
87	0xbdc18c21	-0.094505556
88	0xbb1e1ce4	-0.0024126107
89	0x3d9aa3bf	0.07550763
90	0x3dc5fba3	0.096671365
91	0x3e2d8e42	0.16948798
92	0x3e0f2840	0.13980198
93	0xbdaf3c0e	-0.085563764
94	0xbcd3789a	-0.025814343
95	0x3ddd4980	0.10805035

cls.bias f4 [2]
0	0x3e9f2cfb	0.31089005
1	0xbe548a4d	-0.20755883
